service/models/predict_norms/predict_norms.pth (torch_old, 233508 bytes, 34 tensors)

conv.0.0.weight f4 [30, 1, 3, 3]
000000 d0 4d a6 bd c8 56 0e bd 3a 3d 8e be 1e fc 29 3e
       -0.0812031 -0.03475073 -0.27781087 0.16600081
000010 10 c0 bf bc 58 23 4c be 36 9b d0 bd e0 43 5e bd
       -0.023407012 -0.19935358 -0.10185854 -0.05426395
000020 ad f7 92 3e 10 1d bf 3c 00 40 81 b8 98 2e 5f bd
       0.28704587 0.023329288 -6.16312e-05 -0.054487795
000030 08 c8 39 be b8 ad 23 3e 51 73 83 3e 9c 70 db 3d
       -0.18142712 0.15984237 0.25673917 0.10714838
000040 43 3e 8e 3e 7c 1b 90 be da 44 95 be 15 b5 a6 3e
       0.27781877 -0.2814597 -0.29154092 0.3256003
000050 50 9e da bd 20 8c 01 3c f4 06 c4 3d 0d 30 95 3e
       -0.10674727 0.007906944 0.09571639 0.29138222
000060 fe 00 2b be a0 12 e2 bd 80 48 88 bc b9 0a a7 3e
       -0.16699597 -0.11038709 -0.016636133 0.32625368
000070 f8 af 3f be 10 30 0a be 28 d1 8d be 7e ae 32 be
       -0.1871947 -0.13494897 -0.27698636 -0.17449376
000080 e0 d7 51 bc 58 1f 5a 3d f0 fe 8f 3c 72 e9 4d 3e
       -0.012807816 0.053252548 0.017577618 0.20108584
000090 bc 6a 96 bd 00 0c 18 3d 90 8d ee 3c 8c ac 93 3d
       -0.07344577 0.03712082 0.029120237 0.07210645
0000a0 ca e2 45 3e f0 3c db bd 40 15 97 bc 68 14 75 be
       0.19324794 -0.10704982 -0.01844275 -0.23933566
0000b0 1f 6a a5 be 00 cb d8 ba b0 cf a7 bc e8 3f 74 be
       -0.32307526 -0.0016539991 -0.020484775 -0.23852503
0000c0 a0 cc 1e 3e e6 d2 be bd fc 07 89 bd a4 8a 80 be
       0.15507746 -0.093175694 -0.06690976 -0.25105774
0000d0 80 14 82 be e0 41 57 3d ee 0b 4a be d0 c8 78 be
       -0.25406265 0.052553058 -0.19731113 -0.24295354
0000e0 5a b9 60 3e 20 f6 7a bc 00 8b 54 bc fc 68 90 bd
       0.21945706 -0.01531747 -0.012972593 -0.07051274
0000f0 7e be a0 be 48 e6 84 be 40 95 b6 3b 40 ac 07 bd
       -0.31395334 -0.2595694 0.005571991 -0.033123255
000100 e2 0c 5c 3e e0 9a 70 bc e4 3b 8f be 66 f3 b8 bd
       0.2148929 -0.014685363 -0.2797538 -0.090307996
000110 b0 ba 19 be 92 23 35 3e ee d2 06 3e a0 95 99 3d
       -0.15012622 0.1768935 0.13166401 0.07499242
000120 bb 63 9c 3e ad c9 88 3e 66 ff 80 be 8c af 8d bd
       0.30544838 0.26716366 -0.25194854 -0.069182485
000130 b0 8f e7 bc 48 70 75 be 60 47 39 be 70 c4 90 bc
       -0.028266758 -0.23968613 -0.18093634 -0.017671794
000140 c2 c4 01 3e ea 3d 7b 3e 6e ea 01 3e 3a c5 a2 be
       0.12672713 0.24535337 0.12687084 -0.31791097
000150 78 de 5d be d9 99 a5 3e 26 83 09 be 96 e5 1a 3e
       -0.21666896 0.3234394 -0.13428935 0.15126643
000160 b0 40 a9 3c e9 d2 a6 3e c0 43 bc bb e6 a9 6b 3e
       0.020660728 0.32582787 -0.005745381 0.2301403
000170 c0 31 0a bd 70 1d b3 bc 84 dc 8a bd c8 8d 0f be
       -0.03373885 -0.021864623 -0.06780341 -0.14018929
000180 d4 f0 b3 3d 28 e6 18 3e c8 77 77 be de 1a 55 be
       0.08786169 0.14931548 -0.24166787 -0.2081103
000190 c8 e0 77 3d 9c 7b ae bd f6 06 bf bd 6f 25 a3 be
       0.060517102 -0.0851967 -0.093274996 -0.31864497
0001a0 8e b3 4c be 32 1a 20 3e 58 f5 34 bd 3b 43 31 be
       -0.1999037 0.15634993 -0.04417929 -0.17310803
0001b0 e2 e6 36 3e c0 08 88 bb ac ce 8f be e6 ad ab bd
       0.17861512 -0.0041514337 -0.28087366 -0.08382778
0001c0 25 df 9f 3e ae e6 4d be 1a ec 6d 3e 80 2a a8 bc
       0.31224933 -0.20107529 0.23234597 -0.020528078
0001d0 40 34 87 bb 80 75 91 bc 8a 58 5a 3e 22 2f 58 3e
       -0.0041261017 -0.017756224 0.21322837 0.2111173
0001e0 48 7c a2 be 38 77 25 3e b5 ae a3 3e 6b cd 4c be
       -0.31735444 0.1615876 0.31969228 -0.20000236
0001f0 f8 c8 4b be 4e 50 93 be a6 f6 2d be 56 4f 23 3e
       -0.19900882 -0.28772205 -0.1698862 0.15948233
000200 80 1a 8e 3c 7e fe 52 be 86 21 01 3e 34 1a 84 be
       0.01734662 -0.20604894 0.12610444 -0.2580124
000210 04 ac 85 3d 60 0d 8c be c8 3b 8b be 52 e8 4d 3e
       0.0652695 -0.27353954 -0.27194047 0.20108154
000220 ce da 78 3e 06 57 f3 bd 10 e7 bb 3d 70 d5 b9 3c
       0.24302217 -0.11881833 0.09174931 0.022684783
000230 cc ef 9a be 74 8c 8f bd 36 6a 15 3e 9c d5 a0 bd
       -0.30261075 -0.07009211 0.14591298 -0.07853243
000240 40 5a c4 bc 8b d3 0e be b6 6b 63 3e e0 8c c0 3d
       -0.023968816 -0.13947885 0.22209057 0.0940187
000250 43 33 15 be 0e ec 1f 3e c3 ee 6b be f9 fa a2 3e
       -0.14570336 0.15617391 -0.23040299 0.31832102
000260 76 51 25 3e c6 25 c0 bd 54 b2 83 3d 4a a3 13 3e
       0.16144356 -0.09382205 0.06430498 0.14417759
000270 c6 4f d9 bd d4 2b 8b 3d 6a 54 2a 3e c2 fc 2a 3e
       -0.10610919 0.06795469 0.16633764 0.16697982
000280 22 1d 32 3e 13 38 74 be 56 b5 03 3e b5 a7 96 3e
       0.17393926 -0.23849516 0.12862143 0.29424825
000290 c5 ef 8d 3e 12 e9 7f 3e 02 16 4a 3e 29 59 a4 3e
       0.27721992 0.24991253 0.19734958 0.32099274
0002a0 90 41 84 bd 2e 81 36 be e3 73 1f be 8c 43 c8 bd
       -0.064578176 -0.17822716 -0.15571551 -0.097785085
0002b0 18 d3 64 bd 2e bd 49 be df cd 86 3e 10 a3 a5 3c
       -0.055865377 -0.19701073 0.26328942 0.020219356
0002c0 50 2f a6 3d 2c 66 a6 3d a3 f7 43 be 95 5f a3 3e
       0.08114493 0.081249565 -0.19137435 0.3190886
0002d0 1e 30 56 3e 00 d0 5e bc b0 a0 bb bc e0 c8 13 bd
       0.20916793 -0.013599396 -0.02290377 -0.03608024
0002e0 90 20 82 be b6 97 ba bd 86 6e 1d be 30 f1 17 be
       -0.25415468 -0.09110968 -0.15374193 -0.148381
0002f0 98 f7 27 bd 60 3e 6c be d0 6c ba bd 14 df 80 bd
       -0.04100761 -0.23070669 -0.091027856 -0.06292549
000300 70 9a 85 bc 60 8f 69 3d 32 bc 51 3e e0 ab 73 3c
       -0.016308993 0.0570215 0.20481947 0.014872521
000310 f9 74 97 3e c6 82 0a be 76 86 a3 be 1a d3 84 be
       0.2958143 -0.13526449 -0.31938523 -0.25942308
000320 e0 24 08 bd c0 21 ac 3d da c0 10 3e bb ce 3f be
       -0.03323829 0.08404875 0.14136067 -0.18731205
000330 07 1d a7 3e ec cb b8 3d 10 a1 c7 3c 14 b7 95 bd
       0.32639334 0.0902327 0.024368793 -0.0731031
000340 84 cd e8 3d 5e 2f 09 be 48 be 34 bd 0e a7 53 be
       0.11367324 -0.13396975 -0.04412678 -0.20669195
000350 bf 08 94 3e b1 ec 80 3e ac 11 e7 3d e6 1f c4 bd
       0.28912923 0.2518058 0.112826675 -0.09576397
000360 0a 5f 4b 3e b3 03 45 be fe e6 74 be 8a 46 61 3e
       0.19860473 -0.19239692 -0.23916242 0.21999565
000370 4e dd 26 be 66 e3 8d be 58 55 35 bd c0 e0 c7 3c
       -0.16295359 -0.27712554 -0.044270843 0.024399161
000380 80 ba 3e 3c 7b b1 7f be 64 c6 8c 3d e5 92 a7 3e
       0.011641145 -0.24970047 0.068737775 0.3272926
000390 18 52 16 be 40 48 d8 bd f2 15 7b 3e bc eb d3 bd
       -0.14679754 -0.105606556 0.2452009 -0.10347697
0003a0 80 7c 30 3c a8 c6 13 be 4f 78 a6 be e2 cd 81 be
       0.010771871 -0.1443125 -0.32513663 -0.2535239
0003b0 96 cd 3e 3e 9f ce 99 be de 8f 65 3e e0 43 f9 3d
       0.18633112 -0.30040452 0.22418162 0.12171149
0003c0 26 08 eb bd 66 80 97 be 56 80 f1 bd 78 4d 90 be
       -0.114761636 -0.29590148 -0.11792056 -0.28184104
0003d0 43 76 11 be b2 1d 29 3e 34 f5 9e 3d 00 cd cc 3a
       -0.1420527 0.16515234 0.077616125 0.001562506
0003e0 db 8b 7b be fe 31 24 3e 54 8e 9e be 9e 4e 1f be
       -0.2456507 0.16034696 -0.30967963 -0.15557334
0003f0 22 1d 51 3e 9a 2e 69 3e 49 8d 8f 3e 4e 32 5e 3e
       0.2042127 0.22771683 0.2803748 0.21698877

conv.0.0.bias f4 [30]
000000 36 37 68 3e f0 93 c3 3c a4 42 bc 3d f0 d1 8b bd
       0.22677311 0.023874253 0.09192398 -0.06827152
000010 b8 f5 5d bd d6 a1 34 3e 87 9e a8 be c0 e2 e9 bc
       -0.054189414 0.1763986 -0.32933447 -0.028550506
000020 1c 8f fc bd f0 d5 ea 3d 65 d9 85 3e 93 98 59 be
       -0.123319834 0.114665866 0.2614242 -0.21249609
000030 ff ea a8 3e 64 ea 8d 3d 50 38 d3 3d 44 33 ee 3d
       0.32991788 0.06929472 0.10313475 0.11630872
000040 9c fb f9 bd 3d 1e 8b 3e 22 5e 31 3e f8 83 10 be
       -0.12206194 0.27171507 0.17321065 -0.14112842
000050 e8 46 81 be 86 7b 4c be 70 7e cb 3d 9c 93 ed 3d
       -0.2524941 -0.19968995 0.099362254 0.1160042
000060 00 f7 ab 3c 20 3b 20 3d 40 fb 4e bd a6 3b 14 be
       0.020991802 0.039118886 -0.05053258 -0.14475879
000070 5b 1c 94 be 2c 66 8b bd
       -0.28927884 -0.06806597

conv.0.2.weight f4 [30]
000000 25 d4 29 3f b3 ae 4f 3f 33 b9 4b 3f 88 c8 15 3e
       0.6633933 0.81125945 0.79579467 0.14627278
000010 ea a5 52 3f f0 7d c0 3d f3 8a 4f 3f 22 44 17 3f
       0.82284415 0.09399021 0.81071395 0.5908834
000020 96 b2 29 3f 96 db 56 3f 1c 56 51 3e ea 16 31 3f
       0.66288126 0.8392881 0.20443004 0.6917559
000030 ea fe f9 3e ea a4 f1 3e 38 d8 59 3f a0 66 24 3e
       0.48827296 0.47196132 0.8509555 0.16054773
000040 12 8a 83 3e 00 10 1c 3a ac 83 31 3f 90 4a 36 3e
       0.25691277 0.0005953312 0.6934154 0.17801881
000050 ca 1e b8 3e 8c 8a b5 3e ea f2 35 3f 46 52 bb 3e
       0.3596099 0.35457265 0.7107378 0.36586207
000060 3a 99 d2 3e a2 89 53 3f c1 91 4e 3f 1a 29 b7 3e
       0.41132528 0.82631886 0.8069115 0.35773546
000070 10 89 97 3e a3 b9 77 3f
       0.29596758 0.96767634

conv.0.2.bias f4 [30]
000000 00 00 00 00 00 00 00 00 00 00 00 00 00 00 00 00
       0.0 0.0 0.0 0.0
000010 00 00 00 00 00 00 00 00 00 00 00 00 00 00 00 00
       0.0 0.0 0.0 0.0
000020 00 00 00 00 00 00 00 00 00 00 00 00 00 00 00 00
       0.0 0.0 0.0 0.0
000030 00 00 00 00 00 00 00 00 00 00 00 00 00 00 00 00
       0.0 0.0 0.0 0.0
000040 00 00 00 00 00 00 00 00 00 00 00 00 00 00 00 00
       0.0 0.0 0.0 0.0
000050 00 00 00 00 00 00 00 00 00 00 00 00 00 00 00 00
       0.0 0.0 0.0 0.0
000060 00 00 00 00 00 00 00 00 00 00 00 00 00 00 00 00
       0.0 0.0 0.0 0.0
000070 00 00 00 00 00 00 00 00
       0.0 0.0

conv.0.2.running_mean f4 [30]
000000 00 00 00 00 00 00 00 00 00 00 00 00 00 00 00 00
       0.0 0.0 0.0 0.0
000010 00 00 00 00 00 00 00 00 00 00 00 00 00 00 00 00
       0.0 0.0 0.0 0.0
000020 00 00 00 00 00 00 00 00 00 00 00 00 00 00 00 00
       0.0 0.0 0.0 0.0
000030 00 00 00 00 00 00 00 00 00 00 00 00 00 00 00 00
       0.0 0.0 0.0 0.0
000040 00 00 00 00 00 00 00 00 00 00 00 00 00 00 00 00
       0.0 0.0 0.0 0.0
000050 00 00 00 00 00 00 00 00 00 00 00 00 00 00 00 00
       0.0 0.0 0.0 0.0
000060 00 00 00 00 00 00 00 00 00 00 00 00 00 00 00 00
       0.0 0.0 0.0 0.0
000070 00 00 00 00 00 00 00 00
       0.0 0.0

conv.0.2.running_var f4 [30]
000000 00 00 80 3f 00 00 80 3f 00 00 80 3f 00 00 80 3f
       1.0 1.0 1.0 1.0
000010 00 00 80 3f 00 00 80 3f 00 00 80 3f 00 00 80 3f
       1.0 1.0 1.0 1.0
000020 00 00 80 3f 00 00 80 3f 00 00 80 3f 00 00 80 3f
       1.0 1.0 1.0 1.0
000030 00 00 80 3f 00 00 80 3f 00 00 80 3f 00 00 80 3f
       1.0 1.0 1.0 1.0
000040 00 00 80 3f 00 00 80 3f 00 00 80 3f 00 00 80 3f
       1.0 1.0 1.0 1.0
000050 00 00 80 3f 00 00 80 3f 00 00 80 3f 00 00 80 3f
       1.0 1.0 1.0 1.0
000060 00 00 80 3f 00 00 80 3f 00 00 80 3f 00 00 80 3f
       1.0 1.0 1.0 1.0
000070 00 00 80 3f 00 00 80 3f
       1.0 1.0

conv.1.0.weight f4 [20, 30, 3, 3]
000000 62 e2 0c bd 00 5c 59 bb 10 75 3e bb 5e d8 1a 3d
       -0.034395583 -0.0033166409 -0.0029061474 0.037804
000010 94 eb e7 bc 4e 20 65 3d 60 be 7f 3c 98 83 46 bd
       -0.028310575 0.05593901 0.015609354 -0.04846534
000020 d6 4b 4c bd 6a 51 0a bd 3e 72 52 bd d4 bd e1 bc
       -0.04987701 -0.03376905 -0.05137848 -0.027556337
000030 1e 20 2d 3d d4 31 23 bd 58 ac 36 3d b0 d9 a7 3c
       0.042266957 -0.03984244 0.044597954 0.020489544
000040 62 2b 5d 3d d0 be 46 3d 64 6b 1f 3d 80 80 30 3c
       0.05399645 0.048521817 0.038920775 0.010772824
000050 08 76 6e bd 00 00 15 3a 84 05 58 bc d4 ed 21 bd
       -0.058218032 0.0005683899 -0.013184909 -0.03953345
000060 9c 64 4f 3d bc b3 12 3d 8f c8 65 bd 22 76 90 bc
       0.050633058 0.03581594 -0.05609947 -0.017634455
000070 dc 91 b6 3c 60 a2 35 3c 28 5e ac 3c 30 ba 8f bb
       0.022286348 0.0110860765 0.021040991 -0.004386209
000080 0e c2 2a 3d 98 fc 07 bd bc f1 12 bc 5c 74 38 3d
       0.04168897 -0.033199877 -0.008968767 0.045032844
000090 30 78 43 3c 56 69 77 3d 20 9d f1 3b ac 0b e5 3c
       0.01193051 0.06040319 0.007373467 0.027959667
0000a0 16 fc 0c bd 78 1b 87 3c 2c 2d af 3c f1 3e 25 bd
       -0.034420095 0.01649259 0.021383844 -0.04034323
0000b0 b4 22 52 3d 64 a3 65 3d 06 c5 4f 3d 3c 2f 38 3d
       0.051302627 0.056064025 0.050725006 0.04496692
0000c0 54 0f ac 3c f0 a4 45 bb c0 93 3d bc be 8a 6f 3d
       0.021003403 -0.0030158125 -0.011570871 0.058481924
0000d0 f8 ab 75 bc d0 4f be bb 6c 5c 0f 3d 04 4f 00 3d
       -0.014994614 -0.0058078542 0.03500025 0.031325355
0000e0 e0 a4 4f 3d f6 e0 67 3d 50 a1 7c bc 04 bd 9a bc
       0.050694346 0.056611024 -0.015419319 -0.018888958
0000f0 20 3c 5c bb 88 e2 26 3d f4 81 cb bc c4 d5 49 3d
       -0.0033605173 0.04074338 -0.02484224 0.04927613
000100 a8 95 93 3c 40 ab 0d 3d 8c 25 2b 3d f0 d5 08 bc
       0.018015698 0.034587145 0.041783854 -0.008351788
000110 26 d9 82 bc 07 fc 50 bd c0 68 df 3c 70 07 f6 3c
       -0.015972685 -0.051021602 0.027271628 0.030032843
000120 38 70 7e 3c 44 d9 f5 3c 6c 1f 6b 3d b0 3d 0d bd
       0.015529685 0.030010827 0.057403013 -0.034482658
000130 3a a3 b1 bc ab 29 39 bd 10 95 6f bd 1f 6b 49 bd
       -0.021684278 -0.045205753 -0.058491766 -0.049174424
000140 1a 43 1e 3d 94 6b 4c 3d 80 44 8d ba 58 fd 67 bc
       0.03863821 0.049907282 -0.0010777861 -0.014159523
000150 18 7d fe bb 6a d3 73 3d 40 10 0a 3c 9c 76 5f bd
       -0.007766377 0.059527792 0.008426726 -0.054556474
000160 f0 bc d2 3b 2e 4a c4 bc b4 c3 3f bc 42 68 3d bd
       0.0064312145 -0.023961153 -0.011704374 -0.046242006
000170 08 c4 19 3d 2c fe 3c 3d b0 5e 4c bd c8 64 4b bd
       0.037540466 0.046140835 -0.04989499 -0.04965666
000180 4c a8 56 3d 96 46 35 bd 2f 85 48 bd 08 a9 28 3d
       0.052406594 -0.04425677 -0.04895514 0.041176826
000190 60 99 7f 3c bc 41 41 bd 4e 79 67 3d 44 14 27 bd
       0.015600532 -0.04718183 0.05651217 -0.04079081
0001a0 87 8b 3d bd 00 8d 4f bd 1e 3a 3a 3d d0 35 8c 3c
       -0.04627564 -0.050671577 0.04546558 0.017115504
0001b0 f0 b6 55 bc 16 3b d2 bc 0c ef 43 3d 28 c8 14 3d
       -0.013044104 -0.02566294 0.047835395 0.036323696
0001c0 af 3b 01 bd 32 42 5d 3d 1d 84 4f bd b0 89 33 bc
       -0.03155106 0.054018207 -0.050663102 -0.01095812
0001d0 c0 b3 5a 3b e6 d0 2c bd 02 d3 db bc 00 43 97 bb
       0.00333713 -0.04219141 -0.026834015 -0.0046161413
0001e0 3a b6 18 3d 00 6c 46 b9 90 fb 7f bc ce ef 35 3d
       0.03728316 -0.00018922985 -0.015623942 0.04441815
0001f0 7c c5 02 3d 38 b8 f4 3c 50 c1 15 3d 8c f2 34 3d
       0.031926617 0.029872999 0.03656131 0.044176623
000200 5a b9 e2 bc 09 12 4e bd a8 70 fd bb 30 f3 77 3c
       -0.027676273 -0.05031017 -0.007734377 0.015133664
000210 f4 b5 30 3d 32 d2 25 3d d8 86 23 3c 68 f3 4d 3c
       0.043142274 0.04048366 0.00998088 0.01257024
000220 60 3e b2 3b f4 07 17 3d 2c fd c2 bc 42 41 62 bd
       0.0054395646 0.03687282 -0.023802362 -0.055238016
000230 88 9f c2 bb 88 18 70 bd 00 3d 45 3b 8c 5e 2e 3d
       -0.0059394278 -0.058617145 0.0030096173 0.042570636
000240 0c 5e 38 bd 10 09 13 3c 58 73 99 bb b8 25 d1 3c
       -0.045011565 0.008974329 -0.0046829395 0.025530681
000250 b2 db 21 3d 30 b9 2f bc 94 db bb bc 40 57 39 3b
       0.03951616 -0.0107253045 -0.022931851 0.0028280765
000260 cc a6 5d 3d ee c6 62 3d ca ff a3 bc 66 11 49 3d
       0.054114148 0.055365495 -0.02001943 0.049088858
000270 3c 6a 5f bd d0 ba 21 bd 00 c0 1d b7 48 3e af 3c
       -0.054544672 -0.0394848 -9.402633e-06 0.021392003
000280 b0 80 c2 3c 80 06 9e 3c ac 9f de 3c 95 66 4f bd
       0.023743004 0.019290209 0.027175747 -0.05063494
000290 d4 25 46 3d c0 bd bf bb 30 c2 a5 3b 8d b0 48 bd
       0.04837592 -0.0058514774 0.0050585493 -0.048996497
0002a0 f0 1b 21 3d e8 fd 5b 3d 50 ca 6d 3d 10 9f 42 bb
       0.039333284 0.05370894 0.05805427 -0.002969686
0002b0 34 78 52 bc e0 42 e8 bb f4 1a 33 bd 7e 02 6e 3d
       -0.0128460415 -0.0070880502 -0.043726876 0.058107845
0002c0 aa 08 cf bc a4 1c 70 3d d4 62 17 3d 08 b9 35 bc
       -0.025272686 0.058621064 0.036959484 -0.011091478
0002d0 cc 7a ba bc c8 49 18 bd ec f0 ec 3c f0 09 db bb
       -0.022763632 -0.03717974 0.028923474 -0.0066845343
0002e0 8c 48 bb 3c e2 16 84 bc 4a 83 21 bd 18 51 5b bd
       0.022861741 -0.016124193 -0.039431848 -0.053544134
0002f0 4c 62 f1 3c 38 b0 79 3c a4 45 d2 3c 0a ea 2e bd
       0.029465817 0.015239768 0.025667973 -0.042703666
000300 83 ef 78 bd d6 fc 85 bc 94 87 17 3d da 21 89 bc
       -0.06077529 -0.016355913 0.03699453 -0.016739774
000310 38 ce 6c 3c 48 ce 44 bd 50 25 1a 3c b8 d5 e0 bc
       0.014453463 -0.048048288 0.00940831 -0.027445659
000320 12 20 f7 bc b6 55 ae bc b6 b2 30 bd 7a ee 2e 3d
       -0.03016666 -0.021281105 -0.043139182 0.042707898
000330 98 8f f5 bc fa 72 51 3d ba 91 3e 3d 60 6c e4 3c
       -0.029975697 0.05113504 0.046525694 0.027883708
000340 e0 ba 2b bb 34 97 ba bc 1c 0c d9 bc 26 d9 d3 bc
       -0.0026203915 -0.022777177 -0.026495032 -0.02586038
000350 a2 38 49 3d 16 3b e4 bc 00 4e ce b9 66 11 66 3d
       0.049126275 -0.027860206 -0.00039349496 0.056168936
000360 ae 87 35 bd f8 f0 c7 3c d5 09 2c bd 19 4f 1c bd
       -0.044318847 0.024406895 -0.042001564 -0.03816137
000370 3c a3 17 3d e4 39 6c bc 90 11 d2 3b 14 33 92 3c
       0.037020907 -0.014418099 0.006410785 0.017846622
000380 8a 56 1d bd 34 cd 5d bd 18 47 10 3d 48 d1 47 3c
       -0.03841261 -0.054150775 0.03522405 0.012195893
000390 00 51 cd 3b 94 4a 03 bd be 8b 39 3d a2 04 44 3d
       0.0062657595 -0.032053545 0.045299284 0.04785598
0003a0 0c 4b ea 3c 6c 63 3f bd 28 04 37 3c 00 70 fc b7
       0.028600238 -0.046725675 0.0111704245 -3.0092895e-05
0003b0 f0 28 ac 3c 18 57 68 bd f8 d5 31 bd 8c ca c5 3c
       0.021015614 -0.056723684 -0.043416947 0.024144433
0003c0 28 56 18 bc ba 5c 1c 3d fc 75 8d 3c c0 b0 d9 bb
       -0.009297885 0.03817437 0.017268173 -0.0066433847
0003d0 3c 38 b8 3c 28 8f 4f 3d 46 ea 05 3d 50 d6 b0 3c
       0.022487752 0.050673634 0.032694124 0.021586567
0003e0 b2 06 6e 3d 50 85 06 bd e0 97 74 3b 0a 3d 6a bd
       0.058111854 -0.03284198 0.003732197 -0.057187118
0003f0 48 24 37 3c 40 dc 36 3c c9 35 67 bd 7e 7c 27 bd
       0.011178084 0.01116091 -0.056447778 -0.04089021

conv.1.0.bias f4 [20]
000000 de c3 cb bc 8a c5 76 bd 59 49 fc bc 2c 5a 19 3d
       -0.02487367 -0.06024698 -0.030796694 0.03743951
000010 b0 8b 6d 3c 7a d5 1e bd c0 83 87 3b 10 35 49 3c
       0.014498636 -0.038777806 0.004135579 0.0122807175
000020 8c df 58 bd a6 8e e6 bc f3 d7 2e bd a0 92 14 bd
       -0.052947566 -0.028144192 -0.042686414 -0.036272645
000030 2c be 62 bd 84 8d 9f 3c 02 3c 54 bd 94 61 62 bc
       -0.055357143 0.01947666 -0.05181504 -0.01381721
000040 4d 77 1f bd 8a 31 0d 3d cc 27 25 3d e2 00 25 bd
       -0.038932133 0.034471072 0.040321156 -0.040284045

conv.1.2.weight f4 [20]
000000 00 92 eb 3e 00 1a 5f 3b c0 29 47 3c 86 29 19 3f
       0.46009827 0.0034042597 0.01215595 0.59828985
000010 ec c2 10 3e 80 56 ba 3d ac 0d 2e 3f 69 2a 30 3f
       0.14136857 0.0909853 0.6798961 0.6881471
000020 71 77 78 3f a4 f1 7f 3f ee d1 a5 3e a2 f6 23 3f
       0.97057253 0.9997809 0.32386726 0.64048207
000030 a7 14 06 3f 81 9c 17 3f 34 c1 3b 3f 35 ce 5e 3f
       0.5237526 0.5922318 0.7334168 0.87033397
000040 4e f8 e4 3e 76 70 e0 3e 9f c8 3a 3f bc fa 87 3e
       0.4472069 0.438358 0.72962373 0.26558483

conv.1.2.bias f4 [20]
000000 00 00 00 00 00 00 00 00 00 00 00 00 00 00 00 00
       0.0 0.0 0.0 0.0
000010 00 00 00 00 00 00 00 00 00 00 00 00 00 00 00 00
       0.0 0.0 0.0 0.0
000020 00 00 00 00 00 00 00 00 00 00 00 00 00 00 00 00
       0.0 0.0 0.0 0.0
000030 00 00 00 00 00 00 00 00 00 00 00 00 00 00 00 00
       0.0 0.0 0.0 0.0
000040 00 00 00 00 00 00 00 00 00 00 00 00 00 00 00 00
       0.0 0.0 0.0 0.0

conv.1.2.running_mean f4 [20]
000000 00 00 00 00 00 00 00 00 00 00 00 00 00 00 00 00
       0.0 0.0 0.0 0.0
000010 00 00 00 00 00 00 00 00 00 00 00 00 00 00 00 00
       0.0 0.0 0.0 0.0
000020 00 00 00 00 00 00 00 00 00 00 00 00 00 00 00 00
       0.0 0.0 0.0 0.0
000030 00 00 00 00 00 00 00 00 00 00 00 00 00 00 00 00
       0.0 0.0 0.0 0.0
000040 00 00 00 00 00 00 00 00 00 00 00 00 00 00 00 00
       0.0 0.0 0.0 0.0

conv.1.2.running_var f4 [20]
000000 00 00 80 3f 00 00 80 3f 00 00 80 3f 00 00 80 3f
       1.0 1.0 1.0 1.0
000010 00 00 80 3f 00 00 80 3f 00 00 80 3f 00 00 80 3f
       1.0 1.0 1.0 1.0
000020 00 00 80 3f 00 00 80 3f 00 00 80 3f 00 00 80 3f
       1.0 1.0 1.0 1.0
000030 00 00 80 3f 00 00 80 3f 00 00 80 3f 00 00 80 3f
       1.0 1.0 1.0 1.0
000040 00 00 80 3f 00 00 80 3f 00 00 80 3f 00 00 80 3f
       1.0 1.0 1.0 1.0

conv.2.0.weight f4 [30, 20, 3, 3]
000000 48 97 82 3c a2 d0 94 bd 90 a3 8d bb e0 95 5e bc
       0.015941277 -0.07266356 -0.0043224767 -0.013585538
000010 14 6a 0f 3d d2 fe 74 3d 22 36 73 3d 56 ac 4f 3d
       0.035013273 0.059813328 0.059377797 0.05070146
000020 42 70 4e bd 1c 59 8f bd ce b5 96 bc ee 83 23 bd
       -0.050400026 -0.06999418 -0.018397238 -0.03992074
000030 6a fd cb bc 80 59 c0 3c 8a 18 18 bd fa 80 0b bd
       -0.02490111 0.023480177 -0.037132777 -0.03405855
000040 e6 a0 8a bd fe 1a 63 3d 30 4d 33 bc b2 ac 08 3d
       -0.0676897 0.055445664 -0.010943696 0.03336782
000050 be f6 26 3d 8b b8 82 3d d8 29 4a 3d ab 9e 98 bd
       0.040762655 0.06382855 0.04935631 -0.074521385
000060 d0 b1 f9 bb a0 25 04 3b 0a e5 96 bd 38 b2 2e 3d
       -0.007620074 0.0020164028 -0.073679045 0.04265043
000070 ac 42 cc 3c 9c ae cd 3c 5d ca 88 bd 60 6b 40 3c
       0.024934135 0.025107674 -0.06679223 0.01174435
000080 52 68 43 3d 50 ac c1 3b 00 c5 ba 3a 02 28 5c bd
       0.04770691 0.005910434 0.0014249384 -0.053749092
000090 3e cc 99 bc 4c 54 0c 3d 71 13 86 3d 10 39 e0 3c
       -0.018774148 0.03426008 0.06546677 0.02737096
0000a0 e4 e7 94 bd fc b2 cb 3c 15 72 81 3d 41 fd 8f bd
       -0.07270792 0.02486562 0.063205875 -0.07030726
0000b0 d6 4d 41 bd e0 26 52 bd c2 17 cc bc e0 ca 33 3c
       -0.04719337 -0.051306605 -0.024913672 0.010973662
0000c0 00 99 9f 3b 64 60 cd bc 50 b5 29 3d 52 28 4f 3d
       0.004870534 -0.025070377 0.04143268 0.05057556
0000d0 ea 27 0b 3d e0 d1 95 3c 46 45 5f bd 48 d7 02 3d
       0.033973612 0.018288553 -0.054509424 0.03194359
0000e0 1e 82 16 3d f0 21 e5 3b b2 9d 48 bd 2a b0 61 3d
       0.036745183 0.006992571 -0.048978515 0.055099644
0000f0 e2 44 64 3d 00 a9 81 b9 76 d8 10 3d 6a fd ad bc
       0.055729754 -0.00024730712 0.035362683 -0.021239001
000100 e0 6d d8 3c d9 de 76 bd c1 4d 83 3d e1 15 75 bd
       0.02641958 -0.060271118 0.06411315 -0.05983532
000110 43 1a 0d bd 36 d9 14 3d 00 ea d9 3a f0 b8 8b bd
       -0.034448873 0.03633996 0.0016625524 -0.068223834
000120 63 cb 1c bd 40 bc f5 3b 2e 83 5c bd eb b0 92 bd
       -0.038279902 0.007499248 -0.05383604 -0.07162651
000130 66 52 c7 bc e0 5c 30 3c 6b 52 4b bd ee d3 07 bd
       -0.024331283 0.010764331 -0.049639147 -0.033161096
000140 00 26 2a 3a 32 0e 64 3d dc 91 be bc 78 33 35 bc
       0.0006490648 0.0556776 -0.02326291 -0.011059634
000150 47 f7 90 bd 79 2e 84 3d 52 4f 2a bd f5 36 7c bd
       -0.070784144 0.064541765 -0.041579552 -0.06157585
000160 40 46 1c bb df 94 91 3d 0a fd 62 3d af 55 02 bd
       -0.0023845583 0.07108473 0.055417098 -0.031819995
000170 90 dd 4a 3c 14 89 4c bc d4 ff 86 bc 8c 72 b3 3c
       0.012381926 -0.012483854 -0.01647941 0.021905206
000180 80 be 86 3c 80 f1 98 bb 5b 47 8b 3d 74 04 b1 bc
       0.01644826 -0.004667461 0.06800719 -0.021608569
000190 de e1 7c 3d 2a a8 59 3d b8 65 64 bc 56 2d 1b 3d
       0.06173884 0.05313889 -0.013940267 0.037885033
0001a0 b6 da 79 3d 10 a6 8f bb 0b a7 91 bd 68 f5 15 3d
       0.060999595 -0.00438381 -0.07111939 0.03661099
0001b0 94 8d 11 bd b3 68 10 bd 00 7f 4d 3c a0 a3 40 3b
       -0.03553541 -0.0352561 0.012542486 0.0029394403
0001c0 e9 35 05 bd 12 09 77 3d 92 50 5d bd 4c 0b f9 bc
       -0.032522116 0.060311384 -0.054031916 -0.030400895
0001d0 36 5c 90 bd 58 98 5d bc 7a 50 5b 3d 7f 01 25 bd
       -0.07048838 -0.013525091 0.053543545 -0.04028463
0001e0 94 9a 22 bd e5 0f 31 bd 82 38 6f 3d 85 a1 4b bd
       -0.0396982 -0.04322805 0.0584035 -0.049714584
0001f0 8e 12 2e bd c0 5e 03 3d aa d0 7b 3d f0 e4 b3 3b
       -0.042498164 0.032072783 0.061478294 0.005489938
000200 00 94 04 3c f4 1d 49 bc 0c 78 f3 bc 4e 24 01 bd
       0.008091927 -0.012275208 -0.029720329 -0.031528763
000210 40 64 75 3b cc a5 cb bc 5a 2f 7b bd 08 09 99 bc
       0.0037443787 -0.024859332 -0.061324455 -0.018681064
000220 ae fd 67 3d 3d a2 87 3d 02 92 74 bd a4 44 ff 3c
       0.056638412 0.06622741 -0.059709556 0.03116066
000230 1a cd 89 bc 96 9a 6c 3d 85 b7 85 bd b7 80 85 bd
       -0.016821433 0.057764612 -0.06529144 -0.06518691
000240 49 50 86 3d b2 6c b3 bc cc d0 00 3d f0 c7 06 bd
       0.06558282 -0.021902416 0.031449124 -0.03290552
000250 a0 e6 e8 3c b0 36 07 3d 85 01 14 bd 8a 35 29 bd
       0.028430283 0.03301114 -0.03613426 -0.041310824
000260 40 39 e2 bc 2c 7d f6 bc 40 2c ae 3b ec a6 36 3d
       -0.02761519 -0.030088983 0.0053153336 0.044592783
000270 a5 90 80 3d 12 76 49 bd de 7c 29 3d c8 7b b9 3c
       0.06277589 -0.049184866 0.04137885 0.022642031
000280 65 e6 86 3d 84 99 18 3d b0 77 94 bd 08 76 0a 3c
       0.06586913 0.03725578 -0.07249391 0.008450992
000290 29 18 23 bd 00 af c9 3a ee f7 bd bc b7 a0 93 3d
       -0.039817963 0.0015387237 -0.023189511 0.07208388
0002a0 27 5f 8a 3d 60 11 0b 3c ca ed 78 3d fa 39 7d 3d
       0.0675643 0.008488029 0.06077365 0.06182287
0002b0 34 1a 87 bd 30 95 25 3c 53 cc 86 3d 38 d9 23 bc
       -0.06596795 0.01010637 0.065819405 -0.010000519
0002c0 c1 c4 8f bd f7 22 96 3d 9c 62 a2 bc 7c 5d e8 bc
       -0.0701995 0.07330888 -0.019822411 -0.02836489
0002d0 f8 e7 5b bd f8 0e 06 bd 50 76 f8 bc ea 39 6a 3d
       -0.05368802 -0.03272912 -0.030329853 0.057184137
0002e0 64 fc 7a bd c0 36 ca 3b ac ad 52 bd 3e b0 2a 3d
       -0.061275855 0.0061710775 -0.051435158 0.041671984
0002f0 67 cd 83 3d e2 ea 69 3d 30 ae aa bc 50 94 5e bd
       0.06435662 0.057108767 -0.020835012 -0.05434066
000300 ec 7f 27 3d 60 ca ff bc 3a c5 6e 3d 6f 56 37 bd
       0.04089348 -0.03122443 0.05829356 -0.044760164
000310 5b 60 8d 3d e7 fd 80 bd 3e c3 73 3d 83 76 8d 3d
       0.06903144 -0.06298428 0.05951237 0.0690737
000320 15 87 10 bd b2 ab c9 bc 5e 0b c7 bc 3c 30 dd 3c
       -0.035285074 -0.024618004 -0.024297412 0.027000539
000330 34 a5 ff 3c d8 11 31 3c 2f 6a 8d 3d ac 72 8e bc
       0.031206705 0.010807477 0.069050185 -0.017388664
000340 fa 42 60 3d 84 2f 41 bd 46 45 70 bd 28 18 06 3c
       0.054751374 -0.047164455 -0.058659814 0.00818447
000350 ba e4 7b 3d d8 de 2e 3d bb 5f 68 bd 38 63 a3 3c
       0.061497428 0.04269299 -0.05673192 0.019944772
000360 d4 9f 58 bc 60 ed 62 bc 64 a7 94 bd b3 00 88 3d
       -0.0132217 -0.01385054 -0.0725849 0.06640758
000370 a8 f1 d4 3c 10 7f b4 bc 60 0d 4c 3d 08 d4 9e 3c
       0.025994137 -0.022033244 0.049817443 0.019388214
000380 ca 20 0a bd 4b d6 51 bd 70 5b f4 bb 50 33 b0 3b
       -0.033722676 -0.051229756 -0.0074571893 0.0053772107
000390 3c 65 99 3c f0 64 7c 3c 80 43 f2 3b a8 e7 6f bc
       0.01872503 0.015404925 0.0073933005 -0.0146426335
0003a0 2a 60 01 3d e6 5d 90 bc 2a 14 29 3d 82 78 29 3d
       0.03158585 -0.0176229 0.041278996 0.04137469
0003b0 37 2f 92 3d 72 9b c0 bc 2a bd 7a bd 1e 96 8d bd
       0.07137912 -0.023511622 -0.061215557 -0.06913398
0003c0 f2 f3 5d 3d 46 14 45 bd 70 2c 9c bb 6d ec 90 bd
       0.054187723 -0.048115037 -0.0047660396 -0.07076345
0003d0 00 b2 13 3a 54 80 eb 3c 62 c5 64 3d 0c 9d 1e 3d
       0.0005634129 0.028747715 0.0558523 0.03872399
0003e0 6a 0f bf bc 52 53 40 3d 32 c0 86 bd 0c f5 82 bd
       -0.02332278 0.04695446 -0.06579627 -0.06394395
0003f0 1c 6e 19 3d 24 a4 4e 3d 0f 49 8d 3d e8 c1 19 bc
       0.037458524 0.050449505 0.068987004 -0.00938461

conv.2.0.bias f4 [30]
000000 a4 42 da bc 90 fe 72 bc e4 16 62 bd 32 e5 0d 3d
       -0.026643105 -0.0148312 -0.05519761 0.034642406
000010 4a fa 09 3d 63 af 81 bd 80 ec 55 bd 4c 64 cb bc
       0.03368596 -0.063322805 -0.052227497 -0.024828099
000020 0a 6a 35 3d 40 bb 40 3c 80 f9 ea 3b 40 c2 ad 3b
       0.04429058 0.011763394 0.007170856 0.0053026974
000030 e6 57 29 3d ef c5 81 3d 20 b2 17 bc 07 ac 84 bd
       0.041343592 0.06336581 -0.009258777 -0.06478124
000040 b8 05 3b 3d 1d 47 81 3d 45 ed 1f bd cc 90 a8 3c
       0.04565975 0.06312392 -0.039044637 0.020576857
000050 e7 56 33 bd 5b 31 81 3d 3c 2a 7f bd be 42 29 bd
       -0.04378405 0.06308242 -0.062296137 -0.041323416
000060 00 92 c9 b9 7c 2c 45 3d 3a 18 7c 3d 20 6c 34 3b
       -0.00038446486 0.048138127 0.06154654 0.0027530268
000070 c0 36 15 3c 50 c6 34 bc
       0.009107292 -0.0110336095

conv.2.2.weight f4 [30]
000000 79 8a 6f 3f b6 27 c6 3e 5a cf 40 3f 1a b0 3f 3f
       0.9357067 0.38702172 0.75316393 0.74878085
000010 10 7c 68 3e a2 dc e9 3e d8 14 73 3f 20 c5 59 3e
       0.22703576 0.45676142 0.9495368 0.21266603
000020 94 59 30 3f 5a 74 38 3f d2 65 a5 3e 34 27 3b 3f
       0.68886685 0.7205254 0.32304245 0.73106694
000030 5f d5 2d 3f 75 6e 44 3f 10 f9 0d 3d 03 35 19 3f
       0.67903703 0.76731044 0.034661353 0.59846514
000040 30 26 71 3d c8 20 97 3d 49 47 25 3f 3d cc 5c 3f
       0.05887431 0.073792994 0.645619 0.8624914
000050 be 18 50 3f 65 73 78 3f 68 51 ff 3d a2 c6 07 3f
       0.81287754 0.9705108 0.12466699 0.53037465
000060 00 e3 dc 3c f5 14 1e 3f 78 2e 37 3f 48 07 75 3e
       0.02696371 0.6175073 0.7155528 0.23928559
000070 c3 7f 4e 3f df f5 52 3f
       0.806637 0.8240642

conv.2.2.bias f4 [30]
000000 00 00 00 00 00 00 00 00 00 00 00 00 00 00 00 00
       0.0 0.0 0.0 0.0
000010 00 00 00 00 00 00 00 00 00 00 00 00 00 00 00 00
       0.0 0.0 0.0 0.0
000020 00 00 00 00 00 00 00 00 00 00 00 00 00 00 00 00
       0.0 0.0 0.0 0.0
000030 00 00 00 00 00 00 00 00 00 00 00 00 00 00 00 00
       0.0 0.0 0.0 0.0
000040 00 00 00 00 00 00 00 00 00 00 00 00 00 00 00 00
       0.0 0.0 0.0 0.0
000050 00 00 00 00 00 00 00 00 00 00 00 00 00 00 00 00
       0.0 0.0 0.0 0.0
000060 00 00 00 00 00 00 00 00 00 00 00 00 00 00 00 00
       0.0 0.0 0.0 0.0
000070 00 00 00 00 00 00 00 00
       0.0 0.0

conv.2.2.running_mean f4 [30]
000000 00 00 00 00 00 00 00 00 00 00 00 00 00 00 00 00
       0.0 0.0 0.0 0.0
000010 00 00 00 00 00 00 00 00 00 00 00 00 00 00 00 00
       0.0 0.0 0.0 0.0
000020 00 00 00 00 00 00 00 00 00 00 00 00 00 00 00 00
       0.0 0.0 0.0 0.0
000030 00 00 00 00 00 00 00 00 00 00 00 00 00 00 00 00
       0.0 0.0 0.0 0.0
000040 00 00 00 00 00 00 00 00 00 00 00 00 00 00 00 00
       0.0 0.0 0.0 0.0
000050 00 00 00 00 00 00 00 00 00 00 00 00 00 00 00 00
       0.0 0.0 0.0 0.0
000060 00 00 00 00 00 00 00 00 00 00 00 00 00 00 00 00
       0.0 0.0 0.0 0.0
000070 00 00 00 00 00 00 00 00
       0.0 0.0

conv.2.2.running_var f4 [30]
000000 00 00 80 3f 00 00 80 3f 00 00 80 3f 00 00 80 3f
       1.0 1.0 1.0 1.0
000010 00 00 80 3f 00 00 80 3f 00 00 80 3f 00 00 80 3f
       1.0 1.0 1.0 1.0
000020 00 00 80 3f 00 00 80 3f 00 00 80 3f 00 00 80 3f
       1.0 1.0 1.0 1.0
000030 00 00 80 3f 00 00 80 3f 00 00 80 3f 00 00 80 3f
       1.0 1.0 1.0 1.0
000040 00 00 80 3f 00 00 80 3f 00 00 80 3f 00 00 80 3f
       1.0 1.0 1.0 1.0
000050 00 00 80 3f 00 00 80 3f 00 00 80 3f 00 00 80 3f
       1.0 1.0 1.0 1.0
000060 00 00 80 3f 00 00 80 3f 00 00 80 3f 00 00 80 3f
       1.0 1.0 1.0 1.0
000070 00 00 80 3f 00 00 80 3f
       1.0 1.0

conv.3.0.weight f4 [20, 30, 3, 3]
000000 b4 55 55 3d 98 3e 80 bc 78 b5 a9 3c 5c 1b 3b bd
       0.052083686 -0.015654847 0.020716414 -0.04568039
000010 82 b8 9b bc de da 2e 3d 80 d1 ee b9 a6 d5 15 3d
       -0.019008879 0.042689197 -0.00045550987 0.036580704
000020 13 21 0e bd bc 12 12 bd 42 8c 1a bd f0 bb cc bb
       -0.03469951 -0.035662398 -0.037731417 -0.00624799
000030 aa f1 de bc ad 01 57 bd fb d7 58 bd 78 b5 94 3c
       -0.027214844 -0.052491833 -0.05294035 0.018152937
000040 5a 3b 3b 3d dc 39 56 3d 0c e4 df 3c 50 15 5f bd
       0.0457109 0.052301273 0.02733042 -0.054463685
000050 43 11 08 bd 42 91 24 3d 80 65 56 3c 66 14 70 3d
       -0.033219587 0.04017759 0.013085723 0.058613203
000060 c0 0d 95 ba ca 0a 13 3d 98 4e 63 bc d8 e1 a0 3c
       -0.0011371896 0.03589896 -0.013873719 0.01963894
000070 72 98 10 bd 7c 05 55 bc ca 7b 4c 3d 4c 18 d6 bc
       -0.035301633 -0.013001796 0.049922742 -0.026134633
000080 22 e8 96 bc 30 3c 2c 3c a0 2c cb 3b a0 38 b4 3b
       -0.018421236 0.010512397 0.006200388 0.0054999143
000090 68 7f 3f 3d fc b6 f3 3c 66 13 0c bd 78 9e 71 3c
       0.046752363 0.02975034 -0.034198187 0.014747255
0000a0 d3 78 19 bd 58 9e d5 3c d8 8b 26 bc 60 f0 67 3c
       -0.037468743 0.02607648 -0.010165177 0.014156431
0000b0 d0 94 ac bb ce c4 03 bd 46 27 a2 bc fa c8 01 3d
       -0.0052667633 -0.03217011 -0.019794118 0.031685807
0000c0 f0 3d ea 3b 02 b9 6d 3d 20 34 fc 3c e0 46 24 bb
       0.007148497 0.058037765 0.030786574 -0.002506666
0000d0 ea ce 76 3d 24 09 20 bd e4 4a 62 3d 20 7f ba ba
       0.060255922 -0.039071217 0.055247203 -0.001422856
0000e0 5a 9d 45 bd 8c 1b 2d 3d 60 dc f0 3b 7c 88 83 3c
       -0.048245765 0.0422626 0.0073504895 0.016056292
0000f0 88 c5 2e bd b8 45 49 bc c0 c1 d9 3a 78 e9 05 3c
       -0.04266885 -0.012284689 0.0016613528 0.008173339
000100 c0 09 07 3d 54 05 a2 3c 04 f2 c3 bc 64 fa 32 bc
       0.032968283 0.019777931 -0.023919113 -0.010923956
000110 38 9f a3 bc ac d3 d7 3c c0 79 51 3b 3e 19 4b 3d
       -0.019973382 0.02634605 0.0031963438 0.04958462
000120 da a8 a3 bc ca 4c 1e bd 40 18 15 bd ca 19 f0 bc
       -0.019977976 -0.03864745 -0.03640008 -0.029309172
000130 ac 9a 77 bd f6 3c 35 3d 00 10 65 38 c4 2e 47 3d
       -0.06045024 0.04424759 5.4612756e-05 0.048628584
000140 10 77 63 bc 64 11 4f 3d c8 1e d2 3c 00 bd ed bb
       -0.013883367 0.050553694 0.025649443 -0.0072551966
000150 50 51 57 bb 22 a8 e5 bc 98 23 37 bc 38 c2 fd bb
       -0.0032854863 -0.028034274 -0.01117792 -0.0077441
000160 bf 78 53 bd 20 cd 54 3c a4 90 cd bc 1d ec f9 bc
       -0.051628824 0.012988359 -0.025093384 -0.030508095
000170 a0 1b 8d 3b 4b 98 04 bd 24 c6 a1 bc 78 a4 52 3c
       0.0043062717 -0.0323718 -0.019747801 0.012856595
000180 8e 83 0f bd ee d2 25 3d 20 f0 c2 ba 29 94 5a bd
       -0.03503757 0.04048436 -0.0014872588 -0.053363953
000190 a4 cb 93 bc 7e 2c 28 3d 74 b1 05 bc f8 7b 37 3c
       -0.01804144 0.041058056 -0.008159984 0.01119899
0001a0 32 a9 55 3d 00 12 88 3a 7c 43 79 3d 0a 3d 26 3d
       0.05216331 0.0010381341 0.060855374 0.040585555
0001b0 f0 fc 04 bd de 50 1e 3d 9e 9d 57 bd 64 0b b4 3c
       -0.032467782 0.03865134 -0.05264055 0.021978088
0001c0 a8 40 f1 bb ea 3d ed bc be 29 1e 3d d4 52 3b bd
       -0.007362444 -0.028960187 0.038614027 -0.045733288
0001d0 60 7d 13 bd 49 97 67 bd 40 5e aa bc 26 9b 52 bd
       -0.03600824 -0.05654076 -0.020796895 -0.051417492
0001e0 42 7f 11 bd c0 85 30 bd c2 37 5a 3d 98 c0 48 3c
       -0.035521753 -0.043096304 0.05327583 0.012252949
0001f0 08 48 79 3c 80 f1 82 b9 a8 fa 87 bc 34 d4 e0 3c
       0.0152149275 -0.00024975464 -0.016599014 0.027444936
000200 16 b0 77 bd 9a 9f 30 bd 30 a1 83 3c 50 d0 02 3c
       -0.060470663 -0.043120958 0.016068071 0.007984236
000210 24 b1 3c bc 11 b8 58 bd 02 c1 c2 bc c0 2e aa 3b
       -0.011516843 -0.052909914 -0.023773674 0.0051935613
000220 80 60 d8 3a 38 85 05 3d b0 20 99 3c a8 78 38 3d
       0.0016508251 0.03259775 0.018692344 0.04503694
000230 b0 40 8f bc 2e 45 c0 bc 80 5f 4d bd 80 63 4a 3d
       -0.0174869 -0.023470487 -0.050139904 0.049411297
000240 a8 ce a0 3c e8 86 d7 3c a7 f5 5b bd 3c 2f 65 bd
       0.019629791 0.026309446 -0.05370107 -0.05595325
000250 30 45 46 3c 16 5d 01 bd 3e fd e4 bc 7e ff 05 bd
       0.0121014565 -0.031582914 -0.027952787 -0.03271436
000260 04 be 2e 3d de 11 83 bc 00 bd f9 39 ec 1a 2a bc
       0.04266168 -0.01599973 0.00047633797 -0.010382395
000270 80 26 9d bc 7b 76 44 bd a0 1f 72 bd d0 26 ec bb
       -0.019183397 -0.047964554 -0.05911219 -0.0072067752
000280 00 11 28 3d 14 71 43 bd 30 79 c2 bb 50 39 74 bc
       0.041031837 -0.04771526 -0.005934857 -0.0149062425
000290 14 f1 70 3d ea 04 03 3d c8 df 30 3c db 33 02 bd
       0.05882366 0.03198711 0.010795541 -0.031787734
0002a0 62 b1 2d bd c1 2c 73 bd 8c 03 3e bc a4 4f 9b 3c
       -0.042405494 -0.059368853 -0.011597525 0.018958874
0002b0 50 2b 72 bc 5a 3d 6f 3d 26 79 ce bc 34 fd 4c bc
       -0.014780834 0.05840812 -0.025204252 -0.01251154
0002c0 34 12 4c bd d8 d5 0d 3d 70 31 80 3c 00 c1 80 3c
       -0.049822047 0.034627765 0.015648574 0.01571703
0002d0 e8 3d 6e 3c a0 e9 0a 3d c9 f6 6d bd 1a 5c 34 3d
       0.014541127 0.03391421 -0.05809668 0.044033147
0002e0 b0 7d 04 3c 7e fa 71 3d 48 ef 5e 3c 86 4f ab bc
       0.008086607 0.05907678 0.013606854 -0.020911943
0002f0 4a 35 6a 3d 4a 40 41 3d e4 a9 38 bd e0 1a e5 3b
       0.057179727 0.04718045 -0.045083895 0.006991729
000300 b0 ee 2b 3d 80 9d bd 39 55 2d 67 bd d6 6e 53 3d
       0.041975677 0.00036166236 -0.056439716 0.051619373
000310 aa d2 17 3d 1c b9 b5 3c c4 93 6f 3d 74 81 0e 3d
       0.03706614 0.022182994 0.05849053 0.034791425
000320 5c 8f 9c 3c 80 d3 98 ba 04 15 67 3d 96 2a 1c 3d
       0.019111328 -0.0011659712 0.056416526 0.03812655
000330 20 0d 63 3b 54 fd 07 3d 94 3e 29 3d 98 5c 68 bd
       0.0034645274 0.033200577 0.041319445 -0.05672893
000340 0a 0e 50 bd 2a 2b 56 bd 00 23 e1 3a 25 68 f5 bc
       -0.05079464 -0.05228726 0.0017176569 -0.029956887
000350 e6 ae 30 bd 00 d8 8b 3b 5e 0c 1b bd a4 d8 1e 3d
       -0.043135546 0.0042676926 -0.03785359 0.038780823
000360 60 01 50 bc 7a 4d ce bc a4 f8 ee 3c e6 10 1c 3d
       -0.01269564 -0.025183428 0.029171295 0.038102053
000370 d0 91 77 3c 30 8d dc bb c0 3a 12 3d 3a f6 25 3d
       0.015110448 -0.006730698 0.03570056 0.040518023
000380 10 ec 38 bc 00 c9 61 ba e0 c1 53 3b 1a 46 ce bc
       -0.01128675 -0.000861302 0.0032311603 -0.025179911
000390 ec 41 4b 3d 10 01 3e 3c c6 9f 07 bd 90 34 02 bd
       0.049623415 0.011596933 -0.033111356 -0.03178841
0003a0 94 5f 13 bd 8e ac e7 bc e2 cd c4 bc 80 8c 92 3c
       -0.035979822 -0.028280523 -0.024023954 0.017889261
0003b0 c8 2d 0b 3c 02 b8 4b 3d f0 47 2c 3c ec 0b 91 3c
       0.008494802 0.04973603 0.010515198 0.01770588
0003c0 94 ff 4f 3d 82 9e 61 bd 78 93 a5 bb 70 0e 26 bb
       0.050780848 -0.055082805 -0.00505298 -0.0025338195
0003d0 5e f9 21 bd a0 e7 b3 3a 40 18 d5 bb a0 8a 44 3b
       -0.039544456 0.0013725646 -0.006503135 0.0029989854
0003e0 46 b8 1a 3d 48 b9 d6 bc 46 75 4e bd 56 cc 23 3d
       0.037773393 -0.026211396 -0.05040481 0.03998979
0003f0 74 43 f5 3c 1c d9 0a bd 52 68 0c 3d e4 dc 4f 3d
       0.02993939 -0.033898458 0.034279175 0.050747767

conv.3.0.bias f4 [20]
000000 8e 9c 74 3d 18 f1 24 bc 2a a1 62 3d 10 6d 3e 3c
       0.059719615 -0.010067247 0.05532948 0.011622682
000010 46 72 0a bd 1c c6 df 3c de 4a 07 3d 50 6c 73 3d
       -0.033800386 0.027316146 0.033030383 0.059429467
000020 8c 3a 2b bc 78 11 20 bd ad 0a 2c bd 60 28 17 3d
       -0.01045097 -0.03907916 -0.04200237 0.03690374
000030 08 f2 23 bc f8 1b c9 bb 34 ff 70 3d 98 00 0a 3c
       -0.010006435 -0.0061373673 0.05883713 0.008422993
000040 ca 78 3f bd 20 cf 59 bd a0 24 d3 3c fe 2c 9b bc
       -0.046746053 -0.053176045 0.0257743 -0.018942352

conv.3.2.weight f4 [20]
000000 3f 71 3d 3f c6 93 21 3f a2 d6 ba 3e 00 fa c4 3b
       0.74000925 0.6311611 0.36491877 0.0060112476
000010 2a 5d 25 3f 5c 9e 72 3f 99 b4 7e 3f 5c 65 19 3f
       0.6459528 0.9477289 0.9949432 0.5992029
000020 80 c1 51 3c e8 cb 25 3f 1d fe 3e 3f e0 39 f3 3d
       0.012802482 0.6476426 0.74606496 0.11876273
000030 c3 fb 32 3f a0 74 95 3d 54 23 27 3e b9 0a 3c 3f
       0.6991541 0.07297635 0.1632207 0.7345386
000040 0c 42 a9 3e 40 9e 19 3d 22 81 b7 3e 00 d5 7a 3f
       0.33058202 0.037504435 0.35840708 0.9798126

conv.3.2.bias f4 [20]
000000 00 00 00 00 00 00 00 00 00 00 00 00 00 00 00 00
       0.0 0.0 0.0 0.0
000010 00 00 00 00 00 00 00 00 00 00 00 00 00 00 00 00
       0.0 0.0 0.0 0.0
000020 00 00 00 00 00 00 00 00 00 00 00 00 00 00 00 00
       0.0 0.0 0.0 0.0
000030 00 00 00 00 00 00 00 00 00 00 00 00 00 00 00 00
       0.0 0.0 0.0 0.0
000040 00 00 00 00 00 00 00 00 00 00 00 00 00 00 00 00
       0.0 0.0 0.0 0.0

conv.3.2.running_mean f4 [20]
000000 00 00 00 00 00 00 00 00 00 00 00 00 00 00 00 00
       0.0 0.0 0.0 0.0
000010 00 00 00 00 00 00 00 00 00 00 00 00 00 00 00 00
       0.0 0.0 0.0 0.0
000020 00 00 00 00 00 00 00 00 00 00 00 00 00 00 00 00
       0.0 0.0 0.0 0.0
000030 00 00 00 00 00 00 00 00 00 00 00 00 00 00 00 00
       0.0 0.0 0.0 0.0
000040 00 00 00 00 00 00 00 00 00 00 00 00 00 00 00 00
       0.0 0.0 0.0 0.0

conv.3.2.running_var f4 [20]
000000 00 00 80 3f 00 00 80 3f 00 00 80 3f 00 00 80 3f
       1.0 1.0 1.0 1.0
000010 00 00 80 3f 00 00 80 3f 00 00 80 3f 00 00 80 3f
       1.0 1.0 1.0 1.0
000020 00 00 80 3f 00 00 80 3f 00 00 80 3f 00 00 80 3f
       1.0 1.0 1.0 1.0
000030 00 00 80 3f 00 00 80 3f 00 00 80 3f 00 00 80 3f
       1.0 1.0 1.0 1.0
000040 00 00 80 3f 00 00 80 3f 00 00 80 3f 00 00 80 3f
       1.0 1.0 1.0 1.0

conv.4.0.weight f4 [30, 20, 3, 3]
000000 7f 4a 72 bd 90 d2 da bb c0 df 90 bb b8 18 38 3c
       -0.059153076 -0.006677933 -0.0044212043 0.011236362
000010 dd 3f 80 3d be 08 14 bd be 18 96 bc c8 94 20 3c
       0.06262181 -0.03614115 -0.018322345 0.009801097
000020 68 e5 6f bd fe 92 09 bd 50 9c 92 bb 80 ed a6 3c
       -0.05856839 -0.03358745 -0.0044742003 0.02037692
000030 c8 77 14 bd 60 3c 23 3b 7d f6 83 3d 80 c8 92 ba
       -0.036247045 0.0024907812 0.06443498 -0.001119867
000040 28 6c 16 3d 89 15 10 bd 30 89 b0 3c 82 d0 87 bd
       0.03672424 -0.035176788 0.021549791 -0.066315666
000050 b0 c8 b1 bc a3 5d 18 bd 2b c3 01 bd 96 cb 5f 3d
       -0.02170214 -0.037198674 -0.031680267 0.054637514
000060 93 db 00 bd 44 df 49 bc b4 30 88 3c b3 28 87 3d
       -0.031459402 -0.012321297 0.016624786 0.0659956
000070 40 b0 cd bc 00 7a 5f 3b ec 47 2e 3d fc 9f 05 bd
       -0.025108457 0.0034099817 0.04254906 -0.032623276
000080 d2 49 d7 bc 33 61 8b 3d 1a f1 68 3d a6 de 7f 3d
       -0.026280317 0.06805649 0.056870557 0.062468193
000090 70 9e e9 bc 5a d3 38 3d 54 66 5a bd b3 3c 09 bd
       -0.028517932 0.045123436 -0.053320244 -0.033505153
0000a0 44 a8 ec bc ba 63 18 3d 0a b6 5c bd d4 c0 dd 3c
       -0.028888829 0.03720448 -0.053884543 0.027069487
0000b0 c6 0f 55 bd 74 36 81 bd 02 b7 9c bc 08 69 73 3c
       -0.052016996 -0.06309214 -0.019130234 0.014856584
0000c0 a6 5c 28 3d 8e b9 db bc 6a 6e 6a bd d9 69 22 bd
       0.04110398 -0.026821878 -0.057234205 -0.039651725
0000d0 48 62 2b 3d 1a 71 54 3d 8a 16 6c 3d 9a 00 a4 bc
       0.041841775 0.051865675 0.057638682 -0.020019818
0000e0 ee 07 96 bd 00 a0 a6 3b 64 60 08 3d 07 b9 95 3d
       -0.07325731 0.0050849915 0.03329505 0.07310682
0000f0 9c 12 19 3d 80 de 46 3b 34 de d5 3c 7e 2f 62 3d
       0.037371263 0.0030345023 0.026106931 0.055221073
000100 6a e0 9c bc 4c af e9 3c a2 e4 5b bd 24 8b 3d 3d
       -0.019149978 0.02852597 -0.053684838 0.046275273
000110 b2 b8 24 3d 0f 38 8b 3d 65 0a 92 3d dc 8f a1 bc
       0.0402152 0.06797802 0.07130889 -0.019721918
000120 db 63 34 bd 28 dd 08 bd 2c e4 87 bc 23 e6 93 3d
       -0.044040542 -0.033414036 -0.016588293 0.072216295
000130 31 ae 87 bd 34 71 cf bc 08 2e 4e 3d d1 85 77 bd
       -0.06625021 -0.025322534 0.050336868 -0.06043035
000140 2e 73 76 bd 5e d6 b1 bc 2c 00 4b 3d 60 f6 be bc
       -0.060168438 -0.021708664 0.04956071 -0.02331084
000150 82 87 62 3d 82 91 7f 3d 9d ed 8d 3d 78 26 4b 3c
       0.05530501 0.062394626 0.06930087 0.012399308
000160 64 e1 5b bd 80 85 33 3c 74 95 97 bd f8 48 60 bc
       -0.053681746 0.010957122 -0.07401553 -0.013689272
000170 b0 10 86 3c c8 18 33 bc 99 35 1b bd 5c 79 a2 bc
       0.01636538 -0.010931201 -0.03789291 -0.01983326
000180 39 75 67 bd b9 07 45 bd c8 1d 91 bd 60 3c b9 3c
       -0.056508277 -0.048103068 -0.070857584 0.022611797
000190 5a 12 96 bd d1 41 46 bd 57 94 8d 3d 00 9b 33 3c
       -0.07327719 -0.04840261 0.06913059 0.010962248
0001a0 a5 0c 65 bd b2 a7 58 3d 3a a5 c2 bc c2 be 8e bc
       -0.055920262 0.0528943 -0.023760427 -0.017424945
0001b0 ae f6 6e 3d c2 46 80 bd b6 58 02 3d c0 27 32 bd
       0.05834072 -0.06263496 0.031822883 -0.04349494
0001c0 10 6f 1a 3c 7c 87 45 bd e8 b4 be 3c 37 f3 3e bd
       0.009425893 -0.04822491 0.023279622 -0.046618666
0001d0 00 40 57 38 20 00 87 bb 38 36 f7 bc c0 f6 9c 3b
       5.13196e-05 -0.004119888 -0.03017722 0.004790157
0001e0 ec 88 14 3d b0 38 14 3c 1d f8 83 bd 32 7f 22 3d
       0.03626339 0.0090467185 -0.06443808 0.039672084
0001f0 95 78 93 3d 80 65 7b 3c b2 02 33 bd db 4a 87 3d
       0.072007336 0.015344024 -0.043703742 0.066060744
000200 5f ed 06 bd ba 18 af bc 0a 95 71 bd 14 59 f5 3c
       -0.03294122 -0.021374095 -0.058980025 0.029949702
000210 c4 1e d6 3c 75 a0 80 3d fc f5 af 3c 92 83 70 3d
       0.026137717 0.06280605 0.0214796 0.058719225
000220 e6 6f 20 3d 5e 91 c7 bc 64 b4 ff bc 04 79 56 bc
       0.039169215 -0.024361309 -0.031213947 -0.013090376
000230 9b e2 85 3d 30 ac ff bb 6e c8 6a 3d 40 c7 49 bd
       0.06537362 -0.007802509 0.05732005 -0.049262285
000240 81 65 8f bd c4 4f 2f bd 5a d1 75 3d ba 08 34 3d
       -0.07001782 -0.04280068 0.060014106 0.043953635
000250 20 7c 07 bb 4f 46 7a bd 03 8b 8b 3d bb ea 0e bd
       -0.002067335 -0.061102208 0.06813624 -0.034891825
000260 04 55 85 bd 2c c4 b2 bc f0 91 5c bc 34 c1 32 3d
       -0.06510356 -0.021822058 -0.013462529 0.043641284
000270 a4 bc 86 3c 18 7a b3 bc 78 02 69 bc 3e 33 46 bd
       0.016447373 -0.021908805 -0.01422178 -0.048388712
000280 fc e7 2f 3d 1e a1 55 3d 30 2a 09 3d f7 f2 82 bd
       0.042945847 0.052155606 0.0334875 -0.06393998
000290 b2 d2 c0 bc 08 32 9d bc 20 89 d5 3b d3 6c 85 3d
       -0.023537967 -0.019188896 0.0065165907 0.06514897
0002a0 a0 f2 70 bb 64 9a 91 3c e0 ca 1c bb 5a 85 02 bd
       -0.003676571 0.017773814 -0.0023924634 -0.031865455
0002b0 fe dc 68 3d 39 f7 0d bd 78 fb 05 3d c8 90 85 bd
       0.05685138 -0.034659598 0.032710522 -0.065217555
0002c0 30 3b e4 bb 8c a5 7f bd 00 29 8a bb e8 74 fe 3c
       -0.0069650635 -0.062413737 -0.0042163134 0.031061605
0002d0 b0 82 43 3c 3b dc 92 3d 96 6f 56 3d 88 3e ac 3c
       0.011933014 0.07170912 0.05235251 0.021025911
0002e0 c8 f2 c4 3c fc b4 06 bd aa dc 6d 3d 69 8d 91 bd
       0.024041548 -0.032887444 0.05807177 -0.0710705
0002f0 4a 45 0a 3d d6 65 1e 3d 5c 2d 7b bd 25 17 82 bd
       0.033757485 0.038671337 -0.061322555 -0.06352071
000300 cc e9 2d 3d f2 88 6d bd b5 5e 94 bd 50 2f dc bb
       0.042459294 -0.05799193 -0.072446264 -0.0067195073
000310 0b ef 8f 3d c4 7a 91 bd 40 a4 29 3c c1 3e 57 bd
       0.07028016 -0.07103494 0.010354102 -0.05255008
000320 d0 9f 29 bc 00 77 32 3c 47 55 93 3d a4 80 1d 3d
       -0.010353044 0.01089263 0.07194 0.03845276
000330 15 5b 85 3d 4a 7d fa bc 78 3e 7d 3c 1a 74 8b bd
       0.06511513 -0.03057732 0.015456788 -0.06809254
000340 22 4d 67 3d a4 56 f1 3c 7b db 79 bd cc 96 94 bc
       0.056470044 0.029460259 -0.06100033 -0.018138312
000350 00 e2 9e b9 3c 99 44 3d fc 38 d9 bc c0 19 3a bc
       -0.00030304492 0.0479977 -0.02651643 -0.011358678
000360 d0 e7 6f bc 14 7e 4d 3d 7a 49 86 bd 7c 78 e6 bc
       -0.014642671 0.050169066 -0.06556983 -0.028133623
000370 20 be 67 3c 05 ae 85 3d d1 80 8f 3d 5f 1e 94 3d
       0.01414445 0.06527332 0.07006992 0.07232355
000380 96 ff 49 3d 5e 34 82 bd 9a 0c 7a bd f8 db a7 3c
       0.04931601 -0.063576445 -0.061047174 0.020490631
000390 00 31 92 3a 6b ba 6c bd 4f 85 13 bd 0f 3c 5b bd
       0.0011153519 -0.05779497 -0.036015805 -0.053524073
0003a0 e0 1e f4 bb 51 6e 81 bd 12 13 20 3d a1 e2 38 bd
       -0.0074499696 -0.06319869 0.039080687 -0.045138005
0003b0 d2 f7 62 bd 73 ff 8d 3d a2 68 33 bd 73 2b 8c 3d
       -0.05541212 0.06933489 -0.043800958 0.06844225
0003c0 4c aa b3 3c 0e 1e 22 3d f0 d3 d8 bb 52 fd 3b 3d
       0.02193179 0.039579444 -0.006617062 0.045895882
0003d0 d0 ec 74 bd 30 bf 5b bd 57 8c 8b bd 7a 84 03 bd
       -0.059796154 -0.053649127 -0.06813877 -0.03210876
0003e0 04 a8 c4 3c f8 4a 21 3c 8a 97 a1 bc 7e 7c 41 bd
       0.024005897 0.009844534 -0.01972558 -0.047237866
0003f0 29 91 81 3d 1b 04 01 bd cc 01 c7 3c 04 dd 2b 3d
       0.06326515 -0.031498056 0.024292849 0.041958824

conv.4.0.bias f4 [30]
000000 e4 29 3c bd 60 48 9b bb 8e 39 66 3d 30 c9 b3 3c
       -0.045938388 -0.0047388524 0.056207232 0.02194652
000010 a4 13 bd 3c a0 f0 fe 3c 04 fb 71 bc c0 db 0a 3c
       0.023080654 0.031120598 -0.014769319 0.008475244
000020 2d e7 85 bd 33 74 73 bd a0 64 79 3c 2e a8 77 3d
       -0.06538234 -0.059436988 0.015221745 0.060463123
000030 80 0a 8d ba 1f 54 83 3d 40 06 35 bb b0 6e 28 3d
       -0.0010760576 0.06412529 -0.0027622133 0.041121185
000040 77 88 86 3d fc 66 26 3d 8d 2b 82 3d 30 d6 ed 3c
       0.06568997 0.040625557 0.06355963 0.029032797
000050 28 0c 22 3c 08 97 34 3c 7d 72 32 bd 87 53 96 bd
       0.009890594 0.011022337 -0.043566216 -0.0734015
000060 40 e7 ac 3c c4 1c d0 bc 46 32 27 bd f4 cb 47 3d
       0.021106362 -0.025404342 -0.04081943 0.04877849
000070 66 55 5d 3d 78 55 04 3c
       0.05403652 0.008077018

conv.4.2.weight f4 [30]
000000 38 8c d4 3e c8 28 32 3f 2f 58 51 3f 2c 21 08 3f
       0.41513228 0.6959348 0.8177518 0.53175616
000010 28 18 9f 3d c7 a9 7f 3f 2b 4c 4c 3f fb 20 42 3f
       0.07768279 0.99868435 0.79803723 0.75831574
000020 56 b7 51 3f 00 0b e8 3d 9e d8 78 3f f2 3a 1a 3f
       0.81920373 0.11330223 0.9720553 0.60246193
000030 34 1b 22 3e 21 7b 0e 3f 94 0b 28 3f e5 5f 72 3f
       0.1583069 0.5565663 0.65642667 0.94677573
000040 30 30 d8 3d fb 74 06 3f 9b f1 3a 3f 30 91 b2 3e
       0.10556066 0.5252225 0.7302491 0.34876394
000050 10 06 e3 3d 78 ee a0 3e 0f 97 58 3f 90 d2 8c 3e
       0.11085141 0.31431937 0.846055 0.27504396
000060 28 1c 07 3f d7 65 0b 3f 13 19 15 3f a8 02 6f 3e
       0.5277734 0.5445227 0.58241385 0.23340857
000070 5f 46 15 3f 77 ec 70 3f
       0.583105 0.94110817

conv.4.2.bias f4 [30]
000000 00 00 00 00 00 00 00 00 00 00 00 00 00 00 00 00
       0.0 0.0 0.0 0.0
000010 00 00 00 00 00 00 00 00 00 00 00 00 00 00 00 00
       0.0 0.0 0.0 0.0
000020 00 00 00 00 00 00 00 00 00 00 00 00 00 00 00 00
       0.0 0.0 0.0 0.0
000030 00 00 00 00 00 00 00 00 00 00 00 00 00 00 00 00
       0.0 0.0 0.0 0.0
000040 00 00 00 00 00 00 00 00 00 00 00 00 00 00 00 00
       0.0 0.0 0.0 0.0
000050 00 00 00 00 00 00 00 00 00 00 00 00 00 00 00 00
       0.0 0.0 0.0 0.0
000060 00 00 00 00 00 00 00 00 00 00 00 00 00 00 00 00
       0.0 0.0 0.0 0.0
000070 00 00 00 00 00 00 00 00
       0.0 0.0

conv.4.2.running_mean f4 [30]
000000 00 00 00 00 00 00 00 00 00 00 00 00 00 00 00 00
       0.0 0.0 0.0 0.0
000010 00 00 00 00 00 00 00 00 00 00 00 00 00 00 00 00
       0.0 0.0 0.0 0.0
000020 00 00 00 00 00 00 00 00 00 00 00 00 00 00 00 00
       0.0 0.0 0.0 0.0
000030 00 00 00 00 00 00 00 00 00 00 00 00 00 00 00 00
       0.0 0.0 0.0 0.0
000040 00 00 00 00 00 00 00 00 00 00 00 00 00 00 00 00
       0.0 0.0 0.0 0.0
000050 00 00 00 00 00 00 00 00 00 00 00 00 00 00 00 00
       0.0 0.0 0.0 0.0
000060 00 00 00 00 00 00 00 00 00 00 00 00 00 00 00 00
       0.0 0.0 0.0 0.0
000070 00 00 00 00 00 00 00 00
       0.0 0.0
