service/predict_norms/files/gibka.pth (torch_old, 221161 bytes, 33 tensors)

conv.0.0.weight f4 [30, 1, 3, 3]
00000000: d299 7a3e 5109 6a3d f550 8fbe ad4a 47be
00000010: 0d53 38be 0680 a83e 88a5 5d3e 88ab da3d
00000020: 85aa 12be 8e23 853e 4baa 6abe 96b5 72be
00000030: 8284 bfbd d14c 80be 6074 5b3e 974b 5abd
00000040: b279 0b3e ba75 12be e0c1 80be cc1c 0d3e
00000050: acc1 813d 40cb f03d ac95 a33e 741d 54be
00000060: 76fa 8a3e 2713 a43e 53bc 2bbe e99f 9bbe
00000070: ecf4 4bbe 4b5b 04bd 830a 99bd 3631 89bd
00000080: 981c 21be fb70 5a3e 36f4 283e 5c0c a33e
00000090: 5b25 0cbd b623 a93d 8805 b5bc 9a52 a4be
000000a0: 6b6c 82be 46ed 9cbe b58e 553e 4c36 14be
000000b0: 475a 563e 9e20 a53e fde7 563e 67b6 423d
000000c0: 8b6c 383c 05c0 18be f6c6 61be 743a 783e
000000d0: 23e3 9ebe 86f2 a4bd 20ce 9c3e 604e df3d
000000e0: f99e 43be 353e 2ebe 872c 703e 1bc6 a33e
000000f0: 0b47 523e 04cf 523e a572 4c3e cdf9 703e
00000100: 9fd8 263e f31c 4abe a39f 0dbe f7ff 9b3e
00000110: fd53 1bbe 246a 433e 0a73 d1bd 7b6f 1dbe
00000120: 4fa1 2c3e 17f1 84bd a5e0 a53d 5f5c 17bd
00000130: 9f8b 393e 9305 563e aa60 a5bd 6179 743d
00000140: 4aac c93d 1540 573b 19c0 583e eee3 683c
00000150: 6cdb 4d3c c33f 5c3e ea64 713e 0397 873e
00000160: f752 ad3d 431b eebd aec7 913e b764 a13e
00000170: 3492 de3d dabb 4b3e 328e 0d3e b5de a23e
00000180: c501 ca3d 068e 84be 6200 a7be ea97 9abe
00000190: 2495 85be 02c0 c73d 997c 9d3e 08bd 583e
000001a0: 5fff 01be 1b42 a7be 378b 7b3e 9908 a8bc
000001b0: ff75 8f3e 10aa d23d 7e65 29be 369c e1bd
000001c0: 680a aa3e c354 77be 5a7a 9f3e 263c 01be
000001d0: 972e 3c3e 4413 d63d 0ba7 9b3e 6959 cf3d
000001e0: d82b 3d3e 4c76 1ebe d81e a33e 076e 7b3e
000001f0: 5de9 8b3d e9b3 e13d d4a9 703e 4ea8 b63b
00000200: 773b ec3d a111 85be 3146 5d3e ad93 f53d
00000210: e7e0 cebc 4f4c 21be 17fd 8f3e 19ed d8bd
00000220: ed57 4e3e e888 96bd fa12 813d 743c 1abd
00000230: 7bbe f9bd cb33 7fbd 4e58 733e 4cf0 a6be
00000240: 39fd 053e f2e6 ddbd 986f 503e 302f d03d
00000250: c85d 1b3e 45db 82be 6fa2 90be dbdf 633e
00000260: 9185 93bd 34fb a9be a0e6 203e 0a2b 493e
00000270: e61c cd3d 87f7 7fbe 0971 ad3d 29aa 2b3e
00000280: 7eff ecbd 6af5 a4be b2ce 9b3e dc61 613e
00000290: 0ed6 5f3e 084c e4bd 7707 863e 7a8e 203d
000002a0: c8ad 97bd ea3b c0bd a5eb 103e 0170 a13e
000002b0: 1ade ce3d 9c54 6fbe b79f 1a3c cc0f e03d
000002c0: 8c8f c43d debd 41be 15b5 16ba 370e 71bd
000002d0: df14 853e cd56 39be 2e19 ae3d e57c 99be
000002e0: c27e 88be 8a59 47be 2921 7dbe 8ce0 f1bb
000002f0: c3eb 22be 17c1 86be 0381 7e3e 9862 c1bc
00000300: 51fc 8b3c 6500 68be 2f9d a43e 5ee0 40bc
00000310: 5ada 91be 51a6 a2be 0e87 b53d 7807 593e
00000320: a2e0 6abe d544 f83d 563d c6bd f32c cebd
00000330: 0937 273e 08a1 a9bc b997 fdbd 18b5 5dbe
00000340: 77e8 87be 183c 4a3e b5a2 ef3d fccd 983e
00000350: f1fc 843e 8dae 663e 997a 3ebe 6669 993e
00000360: 1562 77be 2208 393e 4f2e 783e c777 443d
00000370: 91df 4a3e d502 11be a844 f63d 4604 ed3d
00000380: 0868 ec3c 7984 2abe a7f6 753e 492c fdbd
00000390: 3273 c5bd d7db 0bbe 051f 403e d1de 7ebb
000003a0: ab38 bdbd ea01 4b3e a0be 463e 8cc1 0cbe
000003b0: 58bd 85be e477 20be b0a5 00be 0fa9 7cbe
000003c0: ed0d 15be 3ca2 86be ea88 1b3e ea94 72bc
000003d0: 0f91 18be 1f83 9d3e da65 a7be 56f2 863e
000003e0: 41de 6b3e dd62 39be 6e60 133d e917 fabd
000003f0: 6249 513e f882 93bd 8775 c5bd eba4 563e
0.2447274 0.05713779 -0.27991453 -0.1946208 -0.18000431 0.32910174 0.21645176 0.10677248
-0.1432286 0.2600369 -0.22916524 -0.23702082 -0.09351446 -0.25058606 0.21431112 -0.053294744
0.13620642 -0.14302722 -0.25147915 0.13780516 0.06335768 0.11757517 0.31950128 -0.2071436
0.27144212 0.32045862 -0.16771059 -0.3039544 -0.19917649 -0.032313626 -0.07472708 -0.06698839
-0.15733564 0.21332161 0.16499409 0.31845367 -0.034215312 0.082587644 -0.022097364 -0.3209427
-0.2547334 -0.30649775 0.2085522 -0.14473838 0.20932876 0.32251447 0.20986934 0.047537234
0.011256347 -0.14917 -0.22048554 0.24241048 -0.31032667 -0.0805407 0.3062601 0.10903621
-0.19103612 -0.17015918 0.23454486 0.3198708 0.20534913 0.20586783 0.19965608 0.23532791
0.16293572 -0.19737606 -0.13830428 0.30468723 -0.15168758 0.19083458 -0.1022702 -0.15374558
0.1685841 -0.06491297 0.08099488 -0.036953326 0.18119667 0.20900564 -0.08075078 0.05968607
0.09847315 0.0032844592 0.2116703 0.014214499 0.012564521 0.21508698 0.23573652 0.264824
0.0846309 -0.116262935 0.28472656 0.31522152 0.1086773 0.19895878 0.13823774 0.31810537
0.09863619 -0.25889605 -0.3261748 -0.30194026 -0.26090348 0.097534195 0.30759123 0.2116586
-0.12695073 -0.32667622 0.24564825 -0.020511912 0.2801971 0.10286343 -0.16542622 -0.11016123
0.33211064 -0.24153428 0.31148034 -0.12620601 0.18377148 0.104528934 0.3040088 0.101244755
0.18473756 -0.15474814 0.3185947 0.24553691 0.0683162 0.11020643 0.23502284 0.0055742627
0.115347795 -0.25990012 0.21608807 0.119910575 -0.025253726 -0.15751766 0.2812278 -0.10592098
0.20150729 -0.073503315 0.063024476 -0.03765531 -0.121945344 -0.062305253 0.23764154 -0.32605207
0.13084878 -0.10835065 0.2035507 0.1016525 0.15172493 -0.25557914 -0.28248927 0.22253363
-0.0720321 -0.33199465 0.15712976 0.19645324 0.100152776 -0.24996768 0.08468825 0.1676413
-0.11572169 -0.32218486 0.30431134 0.22009987 0.21858999 -0.11147314 0.2617757 0.039198376
-0.07406193 -0.09386428 0.14152391 0.31530765 0.10100956 -0.2337212 0.009437493 0.10940513
0.09597692 -0.18920085 -0.0005749029 -0.058851447 0.25992486 -0.18099518 0.085008964 -0.299781
-0.2665921 -0.1946775 -0.24719681 -0.0073815044 -0.15910248 -0.2631919 0.24853902 -0.023606583
0.017088087 -0.226564 0.32151172 -0.011772243 -0.28486902 -0.31767514 0.0886365 0.21194255
-0.22937253 0.12122504 -0.09679668 -0.10067167 0.16329588 -0.020706668 -0.123824544 -0.21651113
-0.26544544 0.19749486 0.11700956 0.29844654 0.2597423 0.22527523 -0.18601455 0.29963225
-0.24158509 0.18069509 0.24236415 0.04796579 0.19811846 -0.14161237 0.12024814 0.11573081
0.0288582 -0.16652097 0.24019872 -0.12361962 -0.096411124 -0.13658081 0.18761833 -0.0038890133
-0.09239324 0.19824949 0.19408655 -0.13745707 -0.2612102 -0.15670735 -0.12563205 -0.24673866
-0.14556094 -0.2629565 0.15188947 -0.014806012 -0.14899085 0.307641 -0.32694894 0.26356763
0.23034002 -0.1810412 0.035980634 -0.12211592 0.2043815 -0.07202715 -0.09641557 0.20961349

conv.0.0.bias f4 [30]
00000000: db52 a13e 8f8e 7bbe 7e01 febd dac8 763e
00000010: 7716 633e 35e8 00be 64da c63c 9333 04be
00000020: ec11 a9bd 256a a4be 05a5 bc3d 79cc 3c3e
00000030: 7c44 023d a0d8 7c3e 1c83 8e3d b739 2abe
00000040: 84e2 dabd 850a dfbd a02d 993e 4995 863e
00000050: 4340 613e 8bb9 8f3e a5e2 553e 9751 fe3d
00000060: 68a5 883e c839 87be 86e6 3abe 8cf1 91be
00000070: 8991 be3d d727 133d
0.31508526 -0.245661 -0.12402628 0.24100056 0.22176538 -0.1258858 0.024274059 -0.12910299
-0.082553715 -0.32112232 0.092111625 0.18437375 0.031803593 0.24692011 0.06958601 -0.16623579
-0.10687736 -0.10890678 0.29917622 0.2628577 0.2199717 0.28071246 0.2088724 0.12417906
0.26688695 -0.2641127 -0.18252 -0.28504598 0.093051024 0.035926666

conv.0.2.weight f4 [30]
00000000: b35d df3e 63da 5f3d 07e7 393f 187d 013f
00000010: f3a3 423d 6486 e73e 2412 143f f318 573e
00000020: e59a 083f 36c5 7d3e 5512 5f3f 2886 893e
00000030: 8c3f 763f 8c6d 113e b5fd 5c3f 91a6 913c
00000040: 4343 253f 2494 793f 6e88 fa3e b0a6 4f3d
00000050: b73f 9c3d e6b2 ac3d e5e3 663f e5e9 763f
00000060: 9109 1a3f e6be 293f c1be c83e 869d 873e
00000070: dbaf a43c e4f0 cb3e
0.43626174 0.05465163 0.72618145 0.505815 0.047519635 0.4521972 0.5784018 0.21005611
0.5336135 0.24782261 0.8713735 0.26860166 0.96190715 0.14201945 0.86324626 0.01777962
0.6455576 0.9749167 0.48932213 0.050696075 0.0762934 0.0843256 0.9019149 0.96450645
0.6017085 0.6630691 0.39208034 0.26487368 0.020103386 0.39832222

conv.0.2.bias f4 [30]
00000000: 3d9c 4a37 2087 0439 5e2a dfb6 4302 3439
00000010: c06e 0cb8 b099 91b8 bd4b c1b8 a867 0eb8
00000020: 3e98 6a38 37cb fd38 47d0 4fb8 025e 8d37
00000030: 3f2d 93b8 8fa2 6d39 17b0 30b9 287c 70b8
00000040: 1730 9037 7db8 e338 5a00 d338 84f2 cab8
00000050: c477 1d39 00cb f0b5 e2b5 ccb8 a516 4ab7
00000060: 3ff4 4bb8 1051 6eb8 01ce 08b9 1bdd 0e39
00000070: 5661 ab37 6e8f b238
1.2076515e-05 0.00012638839 -6.65085e-06 0.0001716698 -3.3481745e-05 -6.942765e-05 -9.2170645e-05 -3.3951976e-05
5.5931734e-05 0.00012101832 -4.954662e-05 1.6852286e-05 -7.017934e-05 0.00022662639 -0.00016850267 -5.733609e-05
1.7188531e-05 0.00010858567 0.000100613295 -9.677283e-05 0.00015017303 -1.7940474e-06 -9.761356e-05 -1.2045411e-05
-4.8626443e-05 -5.6819117e-05 -0.00013046713 0.00013624543 2.0430114e-05 8.514417e-05

conv.0.2.running_mean f4 [30]
00000000: d0e0 fa3e 0e0c 17bf 9f21 fb3e 53b2 183e
00000010: f770 95be cb15 68bc d249 9b3f dee5 403d
00000020: e74c 053f cadb 143f cd05 783f e7e9 743d
00000030: 909b 1a3f 466e bf3f 83a0 193f 3b4f b1be
00000040: 1ea3 213c d3c6 bfbe 96f3 973f f1ef dc3e
00000050: a8b8 31bf ee85 46be 00e7 7e3e f78e 5c3f
00000060: e1d9 503f f6ba 6ebe 7f80 8abf 9208 51be
00000070: b236 ae3e 4e08 ecbd
0.48999643 -0.5900277 0.49049088 0.14911775 -0.29187748 -0.014165352 1.2131903 0.04709422
0.5207047 0.5814787 0.9688385 0.05979338 0.6039362 1.4955528 0.60010546 -0.3463076
0.00986555 -0.37456378 1.1871212 0.4315181 -0.6942239 -0.19387028 0.24892807 0.8615565
0.81582457 -0.23313507 -1.0820464 -0.20413426 0.34026104 -0.115250215

conv.0.2.running_var f4 [30]
00000000: 2f57 4c3b 2c6b 423c 43bd 013c 2516 953c
00000010: 0791 e53c 67a3 3e3c db06 613c 07db 0b3c
00000020: fedd 673b 57a8 023c acc3 8f3c 6982 3c3c
00000030: 654f be3b 7655 5b3c de24 713b c153 273c
00000040: f55c 843b 510a 323c 1921 103c 9895 8f3b
00000050: f824 3b3d a692 ac3c 6489 df3b 043b 0f3c
00000060: 1fdb 6c3b 96ae 7c3b b070 153d f4cc 443c
00000070: 85da 333b d0d9 643c
0.0031179895 0.011866372 0.007918659 0.018199036 0.028023256 0.011635638 0.013734545 0.008536107
0.003538012 0.007974706 0.017549358 0.011505702 0.0058078044 0.013387075 0.0036795656 0.01021284
0.0040394017 0.010866717 0.008796954 0.0043818466 0.045689553 0.021066021 0.006821798 0.008742098
0.0036141349 0.003855621 0.03648442 0.012011755 0.002744348 0.013967946

conv.1.0.weight f4 [20, 30, 3, 3]
00000000: bcb6 cb3a 7313 1ebd a7e1 e7bc f754 2f3d
00000010: cafc a5bc 0699 493d 6ee3 f4bb dde1 373c
00000020: c919 693b 6613 063d 2c22 57bd 55fe 503c
00000030: 402e 353d d6b9 a43c e129 16bd 104c 0ebd
00000040: 9ec1 f738 1e36 4d3c 0571 223c 8d46 f7bc
00000050: 1017 b0bc 1f62 8cbc 6a5c 213d abc4 be3c
00000060: 2f6b 513d 4520 5fbd 9fce cebc 8ae7 21bd
00000070: 1e97 b1bb 12ca 193d 38ab e93b b962 963b
00000080: 1a03 74bc db10 3e3d 87e1 1fbd 483d 333d
00000090: 93ba 4f3d e3b1 8abc bb4c 4abc 9eb1 793c
000000a0: 89bb 4dbd a687 acbb bf29 88ba 1f25 dcb9
000000b0: 5720 c43c b39a 75bd 4ec8 e1bc d80c 783b
000000c0: 8bbb 97ba a3ea fcbc 3059 66ba 9d82 043c
000000d0: 7806 1dbd c2b7 683d c260 07bd 2804 12bd
000000e0: d990 f4bc ee2d c9bc a3dd 11bd 51f0 20bb
000000f0: fc81 2e3d 4ba1 72ba 26ad fc3c 65a9 7fbc
00000100: 601c 29bc 2e68 55bd 7760 a73c a20e 273d
00000110: dfd2 ef3b 3c09 143c 0806 01bd 727e e8bc
00000120: 376e 183d 9a81 4f3d c9bd 79bc 3ccb 2e3c
00000130: feb4 af3c f6a0 353d 25dc 57bd e269 3dbd
00000140: e928 853b ddc8 453d 8a13 723d a243 f23c
00000150: 54fd 66ba 3953 02bd 65e6 e8b9 a412 1f3d
00000160: 35d2 243d 8182 2bbd 7ab5 6139 ffda 333d
00000170: 4c60 74bd 7403 b43c 2a49 9b3c b96b 193c
00000180: 6291 3b3c ca0e 01bd 3b5b 3d3d 1605 553d
00000190: e67d fdbc ee64 843c cb11 543d ba19 2c3d
000001a0: f9d2 55bc cbb7 57bd 4f34 09bd 9a4a 9bbc
000001b0: 2508 5e3d 76b2 db3c abd4 203b c6cd 523d
000001c0: b140 313d 393b 8e3c 3115 6abb d7a4 f5bc
000001d0: e672 30bd a4ee 33bd 2654 243b d00d 38bd
000001e0: d81c 5dbd 8d23 483d 4d52 3fbd fe68 0cbc
000001f0: 480f c1bc 7365 7d3c 6d12 683d 90e3 d0bc
00000200: 1f58 1c3d f0b9 0cbc 1a97 46bd 4f21 363d
00000210: a3f8 13bd be8a 753d 11dd 753d 9b84 fcbb
00000220: c322 a2bc a453 523d bd43 25bd c7ce 0e3d
00000230: 7258 54bd 92cc 6cbc f734 8ebc 8479 bb3b
00000240: a60a 643d 3cc0 5f3d 7e45 a43c 0ed5 34bc
00000250: 804b cfbc 6c09 023d 7b6d a23c 98ac 78bd
00000260: 4694 613d 4306 2a3d 5d9b 52bd ce8a 273d
00000270: aecc 823c ddf4 65bd 669c bfbc b074 13bd
00000280: a69d 563d d5de 2d3d 9e7b 373d 1c6f 573c
00000290: 495c ee3b d66a 6e3d ed08 3dbd 49f6 62bc
000002a0: 6b3b 863c bbce 76bd b0be 9fbc 74dd 963c
000002b0: 72f4 b5bc 55e6 363d 8d55 4d3d ff80 a3bc
000002c0: 8431 1bbd 7506 cdbc f330 8b3a 4072 5b3d
000002d0: 3bc8 383d 1045 b43c 83cf 88bc 3006 9fbc
000002e0: a2a4 b93c 94c5 44bd 1b29 42bd bc35 193d
000002f0: a2b9 f73c b5b1 0a3d 3c2c 233c c0ab 26bd
00000300: b9ec ac3b 3a47 08bd f031 ccbc 0e24 563d
00000310: 66bf 033d bd10 e33c cbd1 bebc a0a8 30b9
00000320: 4b23 a53c df96 1e3c daba 0abd c1f7 56bc
00000330: fe8d de3c 563d 00bd 7a0b 793d 5167 0c3d
00000340: f88e 64bd c963 f8bc 7d36 dd3c 29be e2bc
00000350: 3706 ef3c d685 44bd 3dc3 4c3d 74e7 ac3c
00000360: eb52 4bbd 5ba1 e9bc 5db4 343d 860c dcbc
00000370: 47d7 5e3d f87e 95bc fd0c 9e3c fbee f0ba
00000380: c97d 36bd c19b f6bc 1d06 77bd e84f 0c3c
00000390: 0870 65bd a293 54bd d6fb 643d f505 ca3b
000003a0: 2aa6 7ebc ba51 7c3c e94f 73bd 9d24 89bc
000003b0: 83ab 3d3c daae 77bd edc4 923b 632e b4bc
000003c0: d742 24bd 0b34 573d 8887 f0bb 5fd3 d83c
000003d0: e998 d93a f26e 2dbd 7b8a d93c e9c4 8fbc
000003e0: d96f 093d d915 eebc 09bd 283d 206d 7bbb
000003f0: ef8a ff3c 389b 80bc 1c33 53bd 01fa de3c
0.001554213 -0.038592767 -0.028305842 0.04280564 -0.02026214 0.0492182 -0.007473401 0.011223284
0.0035568348 0.032733344 -0.052522823 0.01275595 0.04423356 0.020108145 -0.036661033 -0.034740508
0.00011813942 0.01252511 0.009914641 -0.030185008 -0.021495372 -0.017136632 0.039394774 0.023287138
0.05112761 -0.054474134 -0.025245009 -0.039527453 -0.005419626 0.037546225 0.0071310066 0.0045894054
-0.014893318 0.046402793 -0.03903344 0.043759614 0.05071504 -0.016930526 -0.0123473955 0.015240101
-0.050227676 -0.005265194 -0.0010388418 -0.00041989327 0.023941202 -0.059961986 -0.027561333 0.0037849452
-0.0011576278 -0.030873602 -0.00087870937 0.008087781 -0.038336247 0.05681587 -0.03305126 -0.035648495
-0.029854225 -0.024558034 -0.03561176 -0.0024557302 0.04260443 -0.0009255602 0.030844282 -0.015604352
-0.0103217065 -0.052101307 0.02043174 0.04078544 0.007318839 0.009035405 -0.031499892 -0.028380606
0.037214484 0.050660707 -0.015243002 0.010668572 0.021448608 0.044342957 -0.05270018 -0.046243556
0.0040637148 0.04828726 0.059100665 0.029573265 -0.00088115525 -0.03181765 -0.00044422146 0.038836136
0.04023953 -0.041872505 0.00021525277 0.043910023 -0.05966215 0.021974303 0.018955786 0.009364062
0.011448236 -0.031508245 0.046229582 0.052006803 -0.030943822 0.016161408 0.05177478 0.042016722
-0.013050788 -0.052665513 -0.03349715 -0.018956471 0.054206986 0.026818495 0.0024540822 0.051465772
0.043274585 0.017362224 -0.0035718197 -0.029985828 -0.043078326 -0.043928757 0.002507457 -0.044935048
-0.053982586 0.04886203 -0.046709348 -0.008569954 -0.023566857 0.015466082 0.056658197 -0.025499135
0.038169976 -0.008589253 -0.048483945 0.04446536 -0.03612579 0.059946768 0.06002528 -0.0077062375
-0.019791966 0.051349297 -0.040347803 0.034865167 -0.05184216 -0.01445307 -0.01735924 0.005721273
0.055674218 0.05462669 0.020052668 -0.011037124 -0.025304556 0.031747267 0.019827595 -0.060711473
0.055073045 0.041509878 -0.051417697 0.04090386 0.01596674 -0.056141723 -0.023390006 -0.035999954
0.05239644 0.042448837 0.044795625 0.013149049 0.007274185 0.058207355 -0.04615109 -0.013852664
0.016385755 -0.060255747 -0.019500107 0.018416144 -0.022211287 0.044653255 0.050130416 -0.019958971
-0.03788902 -0.025027493 0.0010619446 0.053575754 0.04511283 0.022005588 -0.016700512 -0.01941213
0.02266151 -0.048039988 -0.047402482 0.03740476 0.030239884 0.03386088 0.009959277 -0.040691137
0.005277243 -0.033271052 -0.024926156 0.05228048 0.032164954 0.027717942 -0.023293396 -0.00016847486
0.02015843 0.009679525 -0.0338696 -0.013120593 0.027167317 -0.031308495 0.06080196 0.034278218
-0.055800408 -0.030321019 0.027003521 -0.027678566 0.029177768 -0.0479792 0.04999088 0.02110646
-0.049639624 -0.028519323 0.04411732 -0.02686144 0.054404523 -0.01824902 0.019293303 -0.0018381769
-0.04455355 -0.030103566 -0.060308564 0.008563973 -0.056015044 -0.051898606 0.055904232 0.006165261
-0.015542546 0.0154003445 -0.05940238 -0.016741091 0.011576536 -0.060469486 0.004479042 -0.021994775
-0.040102806 0.052539866 -0.0073403753 0.026467977 0.0016601357 -0.042342134 0.02655529 -0.017549949
0.03355393 -0.029063152 0.041195903 -0.0038364604 0.031194178 -0.015699014 -0.051562414 0.02721882

conv.1.0.bias f4 [20]
00000000: b95f 8ebc 2b77 693d 2183 04bd 4ba2 58bd
00000010: ba2f 85bc 3200 393d 7b0d 4cbd e73b ef3b
00000020: 595d 1d3d 5ff9 913b 35ea 67bc db81 54bd
00000030: ca0f 7cbc 570f 393d 352d 5f3c c4e0 743d
00000040: a17b c3bc 4f66 48bd 2595 b33c 9812 ef3c
-0.017379628 0.056998413 -0.032351617 -0.05288915 -0.01625811 0.045166202 -0.049817543 0.007300842
0.0384191 0.004454776 -0.01415496 -0.051881652 -0.015384624 0.045180645 0.013621618 0.059784666
-0.023862662 -0.048925694 0.021921704 0.02918367

conv.1.2.weight f4 [20]
00000000: 982e 353f d02b 863e 9b87 033f bffb 4a3e
00000010: a1e2 e23e 2de4 7f3f 9f2a 473f 1204 4f3f
00000020: effc 123f 1637 7c3d c6da 733f b2db 133f
00000030: a208 403f 45c7 463f 1a09 9b3e 803b 6c3f
00000040: 0729 3e3e 5ad9 233f 56a8 5b3d 3ecb 5b3f
0.7077422 0.262053 0.5137879 0.19822596 0.4431353 0.99957544 0.7779941 0.80865586
0.57417196 0.06157597 0.95255697 0.57757103 0.7501317 0.7764781 0.3028038 0.9227829
0.18570338 0.6400353 0.053627335 0.85857

conv.1.2.bias f4 [20]
00000000: a095 8838 be0d e438 c23d 66b8 a835 29b9
00000010: 446e 0137 8003 9ab6 beca 21b8 4047 d8b8
00000020: 7fb1 72b8 ac69 d237 423f f338 a364 d2b8
00000030: 2fdd 3db9 b52f db37 9f90 1bb9 ffa2 a9b7
00000040: 09e7 9237 fc3e 0db8 1505 1138 b405 50b8
6.512855e-05 0.00010874447 -5.489379e-05 -0.00016137084 7.714672e-06 -4.589965e-06 -3.857421e-05 -0.00010312954
-5.7862602e-05 2.5083158e-05 0.000115989256 -0.000100323254 -0.00018106842 2.612905e-05 -0.00014835827 -2.022227e-05
1.751214e-05 -3.367568e-05 3.4575427e-05 -4.9596376e-05

conv.1.2.running_mean f4 [20]
00000000: 2a20 0b3e 4958 433e c417 103e 30d9 ea3d
00000010: ec11 0b3e dcfd 4a3e 700d f23d bfde 2c3e
00000020: cff2 473e bc17 273e ff3a ff3d 1643 b93d
00000030: c90f 1d3e 077a 413e 1d27 093e 0ff1 3b3e
00000040: 64f9 203e 9375 a33d 97f9 313e f98c 503e
0.13586488 0.19076647 0.14071566 0.114672065 0.13581055 0.19823402 0.11818969 0.16881846
0.19526218 0.16317648 0.124624245 0.09045999 0.15338053 0.18894206 0.13393827 0.18353675
0.15720135 0.0798141 0.17380367 0.20366277

conv.1.2.running_var f4 [20]
00000000: 0134 8a3d d937 9c3d ef66 c83d 9a4a a33d
00000010: d622 073e 17de b23d c3f9 e33d 4a71 523e
00000020: fc0e 683d b52b 643d 5b0b d33d 9e5f e13d
00000030: abbc 2c3e 6c15 2d3e fece 953d 54c3 133d
00000040: 3b56 373e b928 3d3d 7318 703d 596f d93d
0.067482 0.076278396 0.09785258 0.079732135 0.13196883 0.087337665 0.11131623 0.20551029
0.056654915 0.055705745 0.103049 0.11004566 0.16868846 0.16902703 0.07314871 0.03607495
0.17903988 0.046181414 0.058617067 0.10616941

conv.2.0.weight f4 [30, 20, 3, 3]
00000000: 3e75 8e3c 2437 4e3d 385d 00bd 52eb 6fbd
00000010: a358 683c b9b6 353d 5582 38bd ea59 f93c
00000020: d22d ebbb 1e23 11ba dd51 923d dd06 533d
00000030: 29a4 5cbd 7c9d 69bd b5ae e53c 655a 25bd
00000040: a0a8 19bc 73f0 63bd a470 663c 8c1f 883d
00000050: 16ad 3cbd c689 f83c 6276 e2bc d3b9 803d
00000060: aa94 c73c 660d 7b3d bfae 273d d579 713d
00000070: 3e8c aebb dbdb 0c3d 651a 8b3d 204a 2abd
00000080: d311 1f3d 6501 5d3d c1df b23c a37f 3abc
00000090: 8623 ddb9 4d4b 273d 0b8b 92bd dcb5 023d
000000a0: c1cd 78bd cf77 203d 57bf eb3c a4e6 a23c
000000b0: e78b 043d 6e7e 233d 528d 723d 7ce3 5abd
000000c0: 8df9 203d 953e 78bd 5a90 3f3d 9edd 2a3d
000000d0: 031b f5bb 7dc9 e2bc c843 573d 8b6b 483d
000000e0: 5763 0cbd 6476 47bd e3ed 883d 587a fa3a
000000f0: 0278 653d f4ae 7e3c 694d 4c3d 515f 8abd
00000100: b674 d33c edd0 0dbd 4039 c6bc f878 483d
00000110: 0940 3c3d 5020 8dbd 9eb9 3abd 11bd 7b3d
00000120: 003a 89bd 8884 cc3b 6df1 c4bc 927d 173d
00000130: bf0a 183d 173a 553d 552a 813b fc7b 80bd
00000140: ceea 903d d966 123d 75e3 f73b cf5a 663d
00000150: 5c79 7fbd c850 ea3b 5674 81bc f44f 58bd
00000160: 1e17 39bd 1cd5 24bd 0112 e4bc 6733 853d
00000170: a299 5ebd 7283 1d3d 8a35 5cbd b264 27bd
00000180: ca10 e7bc 16b8 e83c 2ad5 743d cd18 8b3d
00000190: e82b c3bc a2d4 963a 0aaf c73c c8e3 7b39
000001a0: db6f 5a3c f9f8 9d3b 5108 84bd d572 76bd
000001b0: 29bc 49bd 3e32 b03b af7e 79ba 53a4 2e3d
000001c0: 2125 9f3c 77f4 213d ed7a 6c3d 1bc6 943d
000001d0: a43d 8ebd 8c74 75bd fbba 563d 009c 28bd
000001e0: 4ac5 573d 56e9 c93c 53f0 793d 0cfd fe3c
000001f0: d3cc 853d 3b77 3fbb 5546 543d 32ac 1a3d
00000200: 79d3 9dbc e588 0a3d b9fb d83c 9ba3 db3c
00000210: 27fe 3cbd 6c53 473d fb5f 283d 62ef 09bd
00000220: d032 863d f3a2 783d 4b8c a5bc a728 2bbd
00000230: dfcb 5e3d bceb 6dbc b6ea 2d3d c23e 01bd
00000240: f90b 46bd 1557 2d3d 6dd2 813c 28d6 35bc
00000250: 5356 fa3c 657d 56bd e510 8e3c 9eda 27bd
00000260: 373b 3f3d 593e bebc d0e4 db3b 049c 89bd
00000270: 650a 7abb 2e7b 173b 0e93 2abc a467 82bd
00000280: ea01 6cbd 4819 883d 9913 88bb 5af2 14bb
00000290: c675 6fbc 87a2 3abc 5dba 77ba c055 6f3d
000002a0: 3e93 7e3d 087e 8abd 0bbf 8c3d 71d0 7b3d
000002b0: a30e b13c e57d e5bc 9be6 b9bc 679d 963d
000002c0: b774 343d db79 243d f6f8 e23b 03f7 83bd
000002d0: f0f5 bbbc ff51 153d f814 f83c 3984 c2bb
000002e0: 3867 74bc 8932 7cbc e0a0 8b3d a944 293d
000002f0: 69d5 f3bb cb47 81bd 7757 3fbd 2753 7cbd
00000300: 9cbc 8b3b 87f5 123d 30fe 82bd feae 2e3d
00000310: b4cd 57bd 2f17 ddbb b663 e23c 8940 403b
00000320: 4daf ee3c e35f 933d d1fe 6e3c dc71 a53c
00000330: e86c 413d 6e46 383d afe5 2bbb 80b5 273c
00000340: fef2 1f3c 1db3 67bd 497c 263c 0202 2e3d
00000350: 2abd 66bd 21a5 79bd adba 92bd 5156 553d
00000360: 2535 083d 4260 6c3c 1130 153d a753 4cbd
00000370: 6d7d 893d cd0e 583d ac31 7dbc cfcd 73bd
00000380: 3e92 e1bc f546 7ebd dcd5 42bd 1f42 94bb
00000390: 7fac 0aba 9561 523d 6f87 57bb 6137 c4bb
000003a0: 1cec 4f3d b17d 67bd f20f c13c 8751 763d
000003b0: 87d8 84bc ba7b 6d3d f8c7 6a3d c26c 6b3d
000003c0: 44a0 323d 45cf 4cbd 9bb7 7c3d 40cf 9bbc
000003d0: 0ba1 de3c 6370 2bbc f217 62bd 83d8 6abd
000003e0: bcf8 7fbd 0a1d 86bd d6f9 77bd ee42 963d
000003f0: 6679 f83c e928 293d f26c c73a b8c8 f7bc
0.01738989 0.050345555 -0.0313389 -0.05857403 0.014181289 0.04436371 -0.04504617 0.030438382
-0.007177093 -0.0005536544 0.071445204 0.051520217 -0.053867493 -0.057034954 0.028037408 -0.04036941
-0.009378582 -0.055649232 0.014064942 0.06646642 -0.046063505 0.030339133 -0.02764434 0.06285443
0.02436288 0.061292075 0.040938135 0.05895408 -0.0053267768 0.034389358 0.06792144 -0.041574597
0.038835358 0.053956408 0.02183521 -0.01138297 -0.00042178872 0.040843297 -0.071554266 0.031911716
-0.060743097 0.03917676 0.028777761 0.019885369 0.032359984 0.039915495 0.059216805 -0.053439602
0.03930049 -0.060606558 0.046768524 0.041715257 -0.0074800267 -0.027683968 0.052554876 0.048930686
-0.034274425 -0.04869689 0.06685998 0.0019109948 0.05602265 0.015544642 0.04987851 -0.067564614
0.025812488 -0.034623075 -0.02419722 0.04894349 0.045959506 -0.06890929 -0.045587175 0.061459605
-0.06700516 0.006241385 -0.024040902 0.036984988 0.037119623 0.052057352 0.003941814 -0.06273648
0.070760354 0.035742614 0.007564957 0.056238946 -0.062371597 0.007150743 -0.015802544 -0.052810624
-0.045188062 -0.0402423 -0.027840616 0.06503945 -0.054345734 0.038455434 -0.053761996 -0.040867515
-0.028206248 0.028408092 0.0597736 0.0679184 -0.023824647 0.0011507461 0.024375457 0.0002402208
0.0133323325 0.0048209396 -0.06446899 -0.060168106 -0.04925171 0.005377083 -0.00095174735 0.04263718
0.019426884 0.03953978 0.05773442 0.07264348 -0.06945351 -0.0599256 0.052424412 -0.0411644
0.052678384 0.024647396 0.061020207 0.031126522 0.06533208 -0.0029215354 0.051824886 0.037761874
-0.019265877 0.03382196 0.026487218 0.026811412 -0.046140816 0.04866354 0.04110716 -0.03367556
0.065526605 0.060702275 -0.020208498 -0.041786816 0.054393645 -0.0145215355 0.042460166 -0.03155399
-0.04835126 0.042319376 0.01584741 -0.011098422 0.03055874 -0.05236568 0.01734204 -0.040979974
0.04668733 -0.023223089 0.006710626 -0.06719211 -0.0038153168 0.0023114192 -0.010411037 -0.06367424
-0.057619013 0.06645447 -0.004152727 -0.002272746 -0.014615482 -0.011391289 -0.00094500725 0.058431387
0.06215214 -0.0676232 0.06872376 0.061478082 0.021613425 -0.028014133 -0.02269297 0.07354241
0.04405662 0.040155273 0.006926651 -0.06443598 -0.02294442 0.03645515 0.030283436 -0.0059361723
-0.014917187 -0.015392908 0.06817794 0.041325245 -0.007441212 -0.063125215 -0.046714272 -0.061602738
0.0042644273 0.035878684 -0.06396139 0.042647354 -0.05268641 -0.0067471485 0.027635437 0.002933534
0.029136324 0.07196023 0.01458712 0.020195894 0.047223 0.044989042 -0.0026229431 0.010236144
0.009762524 -0.0565673 0.010161468 0.042482384 -0.056332745 -0.060948495 -0.07164512 0.05208427
0.033253808 0.0144272465 0.036422793 -0.049884465 0.06713376 0.05274849 -0.015453737 -0.059522446
-0.027535554 -0.06207939 -0.047567233 -0.004524484 -0.0005289986 0.051362593 -0.0032887121 -0.005988047
0.05076228 -0.056516353 0.023567174 0.060136344 -0.01621653 0.057979323 0.05731961 0.057476766
0.043609872 -0.050002355 0.061698537 -0.019019723 0.0271764 -0.010463807 -0.055198617 -0.057335388
-0.06249307 -0.065485075 -0.060540996 0.073369846 0.030331325 0.04129878 0.0015214963 -0.030247077

conv.2.0.bias f4 [30]
00000000: 89dc 6cbd 5f9b c3bb 0a68 5e3d 5ff8 e33c
00000010: e2e1 54bd db06 ffbb 8077 6c3d 8fab cd3b
00000020: b103 46bd bcbe 343d 4425 01bd 0b76 593d
00000030: d332 393d f232 2cbd be0e 82bd 1aec 7ebd
00000040: 90e5 3cbd a4a2 fe3b cc8b 7d3d 54a3 073c
00000050: 1f07 f63c e6ab e73b ab25 0fbd 7ab8 84bc
00000060: 7163 633d b1cd 573d 304b 1e3c 340c 4bbd
00000070: d4e7 c03b e9fd 04bd
-0.057827506 -0.0059694494 0.054298438 0.027828394 -0.05197323 -0.0077827997 0.05773115 0.006276555
-0.048343364 0.04412721 -0.03152968 0.05309109 0.045214485 -0.042040773 -0.06350468 -0.062236883
-0.046117365 0.007770853 0.0619009 0.008278687 0.030032692 0.0070700524 -0.034948032 -0.016201247
0.055514757 0.052686397 0.009661481 -0.049572185 0.005887011 -0.03246871

conv.2.2.weight f4 [30]
00000000: 00c7 223f c2a1 493f d0b3 813e 4f00 053e
00000010: e500 373f 4f8b 3b3f 0227 653f e494 663f
00000020: 84f0 023e 582b 863e 9468 8b3d 71e2 873e
00000030: 980c 743e 5632 503f d4db 6d3e 4aa6 d03e
00000040: c3d3 0b3d 85dc 793f 4e27 f33e cff8 2b3f
00000050: 307c 7a3f 4bde 243f e05f b83c 35dc 4f3e
00000060: 0217 263f f16b 2c3f 3db1 623f 7aa5 633f
00000070: 2e4b 143f 462e 663f
0.635849 0.7876245 0.253325 0.12988399 0.7148574 0.73259443 0.89512646 0.9007094
0.12787062 0.26204944 0.06807056 0.2653995 0.23832929 0.81326807 0.23228389 0.40751868
0.0341375 0.9760211 0.47490925 0.67176527 0.97845745 0.6440169 0.022506654 0.20298846
0.6487886 0.67352206 0.88551694 0.8892437 0.57927215 0.8991436

conv.2.2.bias f4 [30]
00000000: 4ce0 81b8 2fd0 44b9 9dc5 b138 d434 6038
00000010: 047d d638 bc33 bcb8 faa1 0439 7805 0b38
00000020: 09b7 3239 4af2 94b8 6b27 6db8 fc25 0238
00000030: b005 a0b8 71ac 9d37 491a 7db6 e78f 0f39
00000040: 7fd2 1939 5c50 0c38 daa5 02b8 73dc 1eb7
00000050: b3d2 b9b8 f0dc 8438 f229 9c37 9265 40b8
00000060: d299 0438 b333 1639 f129 a438 e481 0837
00000070: f766 4337 ce28 cb38
-6.192978e-05 -0.00018769571 8.476826e-05 5.345496e-05 0.00010227601 -8.974175e-05 0.00012648842 3.3145276e-05
0.00017043589 -7.10232e-05 -5.6541914e-05 3.102979e-05 -7.630454e-05 1.8796158e-05 -3.7715238e-06 0.0001369115
0.00014669633 3.345344e-05 -3.1148877e-05 -9.468861e-06 -8.860733e-05 6.335403e-05 1.8616181e-05 -4.5870962e-05
3.161451e-05 0.00014324374 7.8279416e-05 8.136474e-06 1.1646879e-05 9.687395e-05

conv.2.2.running_mean f4 [30]
00000000: b63c 503e 394f 403e 6e1c 7a3e 2535 873e
00000010: 9603 263e 407c 4e3e 30b7 973e 851b 5c3e
00000020: 334a 1e3e b63e 8b3e 942c 143e fabc 873e
00000030: f422 603e 642e 5a3e e519 eb3d 6193 f43d
00000040: d064 103e 5143 813e a943 7c3e 248b 733e
00000050: 9082 633e 0aa8 793e 3280 2e3e 740d 323e
00000060: 5eaa 773e 4e7a 9f3e d87a 583e 9805 233e
00000070: cdfb 553e e73c 553e
0.2033566 0.18780221 0.24424908 0.26407734 0.16212305 0.20164585 0.29631948 0.21494873
0.15457992 0.27196282 0.1447013 0.26511365 0.21888334 0.21306759 0.11479548 0.11942173
0.14100957 0.2524667 0.24635185 0.23783547 0.22217774 0.24380508 0.1704109 0.17387944
0.24186084 0.31148 0.21140611 0.15920103 0.20896836 0.20824014

conv.2.2.running_var f4 [30]
00000000: b334 b33e b4bf 393e d55e 233e 7f5a fd3d
00000010: bfa7 7c3d 9f0a ba3d 6b3c d53d fb1f ad3d
00000020: faa4 4f3d a03f 723d 5508 363d 42fe 903d
00000030: e03e ac3d d6af ee3d aac9 593d 0a18 4c3d
00000040: 9ccd 923d ff09 b63d 387d 233d cf38 a63e
00000050: 0120 513d b21c 3d3e e40c 9a3d cafe 6d3d
00000060: b99b bd3d 2337 c33e e4f1 393d ea7d 523d
00000070: f92f 543d 4c19 a23d
0.35001144 0.18139535 0.15954144 0.123707764 0.061683413 0.09084057 0.104119144 0.084533654
0.050694443 0.05914271 0.04444154 0.07079746 0.0841043 0.11654632 0.053170837 0.049827613
0.07168123 0.08888625 0.03991434 0.32465217 0.051055912 0.18467978 0.0752199 0.058104314
0.09258217 0.38128003 0.0453967 0.051389612 0.051803563 0.07914981

conv.3.0.weight f4 [20, 30, 3, 3]
00000000: 4047 54bd 38ef 76bd 4d47 9cbc 263d 6e3d
00000010: 10fd 083c 2d4e 2dbd db31 77bc a909 2f3d
00000020: ae03 6b3c fc1a 12bd 808f e23c e981 34bd
00000030: 5893 873c d72a 29bd 888d 483d 5ac7 43bd
00000040: ffd9 f9bc 87d5 29bd 99c0 ee3c 63e7 3a3d
00000050: a431 abbc a472 d6bc 8b23 3c3d 21c3 4ebd
00000060: acf0 023d ac44 95bc 4ec1 48bc 6085 8bbc
00000070: 5e6b c33c 503b cfbc 3c4d 2c3c c498 073b
00000080: 046f 743d f384 9ebc d3d3 90bc c14e 1abd
00000090: 55e6 983c b1b3 383d f028 4fbc ebeb aa3c
000000a0: a963 d53c 6d24 3bbd c1a4 75bd 5cd6 9f3c
000000b0: 8ef7 ccbc bd06 0ebc b238 43bd 331d 683d
000000c0: 9137 8a3b 7e39 48bd 3350 2b3d b3f5 6d3d
000000d0: a59d 8f3b 6807 44bb 14d6 30bd ac41 1b3b
000000e0: 1038 043d dc5a d03b 0161 383c 7a12 28bc
000000f0: 8998 f9bc 704a ef39 3476 033d 44e4 d63b
00000100: 36b7 c03c 4def 9fbc 84fa 113d 2f5e 223d
00000110: 182d 083c dc2c f1bc 1452 493d eacd 673d
00000120: ee82 65bd 6c59 60bc 0333 29bd af79 82bc
00000130: 5244 19bc 7a09 293d 5b60 eb3b 9154 723d
00000140: 3eb4 aabc a563 a23c 2c51 44bd 24d5 2bbd
00000150: f3cc 4dbd 485a 8d3c 8959 813c 8c8d e3bc
00000160: a337 1f3d 57ad 463d 25a4 743d ac55 903c
00000170: 184f 113d 1a61 b8bc 0777 1fbd d240 e43b
00000180: 093f c03c 2761 52bd e87e 753d 1279 223d
00000190: 9b8a 013d 5b7c e0bc 99c2 013d f503 a1bc
000001a0: f78a b038 2fb5 2abc 44b6 ab3c 4559 df3b
000001b0: f28f 5b3d e5fe d3bc 3778 e6ba e962 bebb
000001c0: 23c4 18bd 0766 333c 7ff9 e8bb d55c 8dbc
000001d0: 9401 303c 9a01 503d b927 533d eec5 c53c
000001e0: f3a6 c5bc fac7 da3c 65ff bd3b 9f63 acbc
000001f0: 5b9c da3c f8aa e9bb afa1 ca3c e2b9 57bd
00000200: f6b8 29bd e340 3bbc 1a46 fbbb 36c5 51bd
00000210: 3d26 ecbc 027b 92bc 1005 3ebd 4a5a 063d
00000220: b421 d7bc 0ced 79bd f240 163c c850 ef3c
00000230: 0d45 adbc b125 613c b96d 84bc 1db7 60bd
00000240: 70d8 e5bc 24fb 2c3d dd0e 58bd e638 5a3d
00000250: ef98 66bd 9cad b53c 0db9 693d 07c2 23bd
00000260: d2c6 473d 1dec 0abd 027a 1ebd d491 65bd
00000270: b30b ae3a 19e9 0fbd 514a 0cbd 1d88 1b3d
00000280: 60c2 44bd 0a0d 603c 431c 89bc 1e7f 7d3b
00000290: 845d 9c3c 3ef4 803c a2a6 393c b8f7 abbc
000002a0: 624b 68bd 9179 52bd 52de 303c 44b8 02bd
000002b0: 0343 e73a ee3d 6d3d 88f7 e0bc 00ce 24bd
000002c0: 17cd 993c 1e82 b13b df28 1abd fc5e 89bc
000002d0: 950e 8a3c 592b 203d d5af 39bd 7757 1bbd
000002e0: b6de 763d f863 53bd 935d 283d 65ef 3d3c
000002f0: 7060 6c3d d530 cabb 4b14 fa3c c32c 5fbd
00000300: f635 0bbd f77d 53bd 956d 6bbc 16ea 20bc
00000310: fd9d 103d 968f a8bc d24a e53c da0b 1ebc
00000320: 45f7 0e3d 4126 0b3d d5c1 383d 3a93 7fbc
00000330: 98e6 12bd 18ed 933c 988a 023d a440 77bd
00000340: 72bd 25bc eda4 603c 4aee b83b f713 95bc
00000350: 5ac8 f9bc 7bec ecbc 5f85 d8ba a4a8 b0bc
00000360: 2ce2 30bd 0f90 c93c e585 513d b04d 9c3c
00000370: 88c1 303d fa13 4c3d d9a8 04bd b611 10b9
00000380: ae11 36bd 315f c8bc 5e86 7ebc b08f 6a3d
00000390: 72d6 183d 138e fabc 3fff 66bd 9c58 f2bc
000003a0: 49b6 04bd 9ec9 63bd a47d 51bd 0df0 423d
000003b0: 002b 033a 8894 77bc 8b0e 2c3d 53c2 44bd
000003c0: e02f abbc 9a4c 5e3d 5c77 a3bc bb5b 2d3c
000003d0: def7 32bd 2e3f e8bc fef5 cfbc 7a80 67bd
000003e0: be6d 3b3d e677 0f3d 6119 75bd 40b1 743c
000003f0: adc7 4ebd e8bd 523d ce2b 5e3d f3cc 633d
-0.05182576 -0.06028673 -0.019076968 0.058163784 0.008361116 -0.042310882 -0.01508757 0.042733822
0.014344139 -0.035670266 0.027656317 -0.044069204 0.016549751 -0.04130062 0.0489631 -0.04779754
-0.030499456 -0.0414634 0.029144572 0.045630824 -0.020897694 -0.026177712 0.045932334 -0.05047906
0.031967804 -0.018221222 -0.012253119 -0.017031372 0.023854908 -0.025296837 0.010516461 0.002069042
0.059676185 -0.019350505 -0.01767913 -0.03767276 0.018664518 0.045093242 -0.012644038 0.020864448
0.026048498 -0.045689035 -0.059971575 0.019511394 -0.025020387 -0.008668599 -0.04766149 0.05666847
0.00421805 -0.048882954 0.04182453 0.058095645 0.0043828064 -0.002991164 -0.04317291 0.0023690267
0.032280028 0.0063584875 0.011253596 -0.010258311 -0.030468242 0.00045641093 0.03209515 0.006557973
0.023524862 -0.019523287 0.0356393 0.0396406 0.008311532 -0.029440336 0.04915054 0.05659286
-0.056033067 -0.013693195 -0.041308414 -0.015927164 -0.009354668 0.041268803 0.0071831173 0.05916268
-0.0208379 0.019822905 -0.047928974 -0.041951314 -0.050244283 0.017254964 0.015789764 -0.027777456
0.03887142 0.048505154 0.059726853 0.017618977 0.03547582 -0.02250724 -0.038931873 0.006965735
0.023467558 -0.051362183 0.05993548 0.039666243 0.031626325 -0.027403047 0.031679723 -0.019655207
8.418218e-05 -0.010419174 0.020960934 0.0068160617 0.053604074 -0.02587838 -0.0017583434 -0.005810131
-0.037296426 0.010949618 -0.0071098204 -0.01725618 0.010742564 0.050782777 0.051551554 0.024142232
-0.02412746 0.026706684 0.0057982677 -0.021043597 0.026685884 -0.0071309768 0.0247353 -0.052667506
-0.041436158 -0.011429044 -0.007668269 -0.051213466 -0.028826827 -0.01788092 -0.046391547 0.03280095
-0.026261188 -0.06101708 0.009170758 0.029213324 -0.02115109 0.0137418965 -0.016165601 -0.05486213
-0.028057307 0.042231694 -0.05274855 0.05327692 -0.056298193 0.02217751 0.057061244 -0.03997996
0.048773594 -0.03391658 -0.038690574 -0.056047276 0.0013278633 -0.03513441 -0.03425056 0.037971605
-0.048036933 0.013674984 -0.016737109 0.0038680504 0.01908756 0.015741464 0.011331232 -0.020992145
-0.056712516 -0.051385466 0.010795193 -0.03191401 0.0017643872 0.05792039 -0.027461782 -0.04023552
0.018774552 0.0054171225 -0.037636634 -0.016768925 0.016852656 0.03910384 -0.045333702 -0.03792521
0.060270987 -0.05160901 0.041104864 0.011592721 0.057709157 -0.006170372 0.030527255 -0.054486047
-0.033987008 -0.0516338 -0.014369388 -0.009821435 0.03530692 -0.02057628 0.027989779 -0.00964638
0.034903783 0.03397203 0.045106728 -0.015599066 -0.035864443 0.018057391 0.031870455 -0.06036438
-0.010115968 0.013711196 0.0056436406 -0.018197997 -0.030491043 -0.028921356 -0.001651924 -0.02156479
-0.043184444 0.024604825 0.051153082 0.019080013 0.043153316 0.04982374 -0.03238759 -0.00013739508
-0.044450454 -0.024459453 -0.015534965 0.057265937 0.037313886 -0.030585324 -0.056395765 -0.029583268
-0.032400403 -0.0556122 -0.05114521 0.04759221 0.0005003661 -0.015111096 0.042006057 -0.048036885
-0.020896852 0.05427227 -0.019954376 0.010580952 -0.043693416 -0.028350439 -0.025385853 -0.05651901
0.045758955 0.035026453 -0.059838656 0.014934838 -0.050483394 0.05145064 0.054240994 0.055615377

conv.3.0.bias f4 [20]
00000000: 3fc7 803c 8063 24bd 55a0 093d 0518 90bb
00000010: de18 2bbd e15a 60bd bb1a 1bbd 9eb6 09bd
00000020: 5bea 77bd efd0 bbba 4a87 b7bc 67c6 afbb
00000030: 84d2 683d c70f 3dbd 93db 2c3d dd5a b3bc
00000040: 1c3f 223d d748 6e3d c7e2 6b3d 8ad1 1c3c
0.015720008 -0.040133953 0.03360017 -0.0043973946 -0.041771762 -0.05477417 -0.03786729 -0.033621423
-0.060526233 -0.0014329235 -0.022403378 -0.0053642276 0.05684139 -0.046157625 0.04220159 -0.021893913
0.039610967 0.058174934 0.05758932 0.009571442

conv.3.2.weight f4 [20]
00000000: 86fc 303e 9128 573f 03b2 d03e 5fb5 363f
00000010: 5ddd 1d3f aa17 6c3f a45a 193f bb48 d23e
00000020: cdb3 db3e d812 0f3f c507 b43e 61e5 0a3d
00000030: 1282 6f3f 4ae1 183f d953 433f fbf9 f53e
00000040: 257d a73e 45f7 663e 9084 6e3e c764 593f
0.1728383 0.84046274 0.40760812 0.713705 0.616659 0.9222361 0.5990393 0.41071114
0.42910615 0.5588813 0.35162178 0.03391016 0.93557847 0.59718764 0.76299816 0.48042282
0.32712665 0.22555263 0.23292756 0.849194

conv.3.2.bias f4 [20]
00000000: fd56 07b9 7ef1 4b38 c98f a538 4728 c3b7
00000010: 7bc1 ddb8 fe18 03b9 23f7 29b9 0693 4eb8
00000020: 392d 5538 c4cc f9b8 09b5 01b9 7cd1 9137
00000030: e150 f0b7 5708 85b7 c8b9 5f38 833e c938
00000040: d576 d6b8 f1f7 9238 ac7d 4639 a651 3637
-0.00012907009 4.862388e-05 7.894595e-05 -2.3264567e-05 -0.0001057414 -0.00012502444 -0.00016209162 -4.9251154e-05
5.0825274e-05 -0.00011911386 -0.0001236984 1.7382896e-05 -2.8647892e-05 -1.5858719e-05 5.3340365e-05 9.5960706e-05
-0.000102264494 7.008005e-05 0.00018929568 1.0867056e-05

conv.3.2.running_mean f4 [20]
00000000: 6dac a23e 21ad 583e a707 963e cd3b 703e
00000010: 970b 4b3e ccb8 303e a996 603e 6746 573e
00000020: 4d20 e43d 9703 903e e90b 4a3e d77c 863e
00000030: f1a7 9d3e c1fe 193e 330c 9c3e 9c9e 983e
00000040: 9170 a23e ae57 8f3e 39bc 963e 9a40 903e
0.31772175 0.21159793 0.29302713 0.23460312 0.1982864 0.17257994 0.21932472 0.2102295
0.111389734 0.2812774 0.19731106 0.2626712 0.30792192 0.15038587 0.30478057 0.2980851
0.31726506 0.27996582 0.29440477 0.28174287

conv.3.2.running_var f4 [20]
00000000: 2984 743d 448d 223d ea8d 473d dcca e43d
00000010: 3e91 873d d3d6 003e e60e 173d 48c5 213e
00000020: cb7c 2f3e 4345 7b3d e489 473d ed66 c43d
00000030: 09ca 563d 5ea4 c83d c404 3a3d af7f 663d
00000040: b813 9c3d 343e 1d3d ecc2 463d 8f07 6d3d
0.05969635 0.039685503 0.048719324 0.11171505 0.066194996 0.12581949 0.036879443 0.15797913
0.17137448 0.06134535 0.048715487 0.09589944 0.05243877 0.097969756 0.0454147 0.056274112
0.076209486 0.0383894 0.048525736 0.057868537

conv.4.0.weight f4 [30, 20, 3, 3]
00000000: da9a b43c b334 373d 402e 3cbc 026f d2bc
00000010: 19b5 f43c d092 71bd 9f7b a13c 3abb 8bbd
00000020: 595f 583d 19a9 853c bd8b 25bd a621 63bd
00000030: 7851 25bd 1236 103b a0d8 2bbd 104a cdb9
00000040: 2e08 29bd 1dad 96bc 92ec 04bd b666 3c3d
00000050: 64d5 2c3c a032 5b3d c802 e4bb 4c48 4dbd
00000060: 6110 523d 5602 71bd ef62 3dbd 1b34 713d
00000070: 4d84 713d a4ff a73c 0576 8abd 5d44 63bc
00000080: 9f5f c63b e86e 8ebd e81f 8b3c e129 09bd
00000090: 8ee6 043d e164 913a 36b2 343b 9bfe f1bb
000000a0: 7506 4a3d 8729 1ebd d8e0 513d 4efe 36bd
000000b0: 7565 86bd 809e 143d 8902 cabc b74e 403d
000000c0: 0ce4 e6bc 294b dbbb c867 4abc 5ce9 33bd
000000d0: fed0 863d b835 5abc dc7c ad3c de66 0fbd
000000e0: 5bcc 10bc 356b c03b db6f 74bc 08f4 85bd
000000f0: fc3d 87bd 5ef5 c83c 1ef6 0abd 2a8e e53c
00000100: f144 b8bc 6f57 0a3d 2555 f03c f784 28bd
00000110: 56f0 953c 64c4 733d ea27 f33c beee 9dbb
00000120: 90ed 2d3d e066 c03c 3d5c dcbc 614b 8bbc
00000130: d226 443c 92e0 54bd acfd 08bd f20f de3c
00000140: b429 083d d5e4 76bd 5abd b3bc 3491 52ba
00000150: baaf eabc 1b7f 683d 83c6 fdbc a855 76bd
00000160: 545f 9ebb 6520 3ebc 14ad 75bd 0d69 2f3d
00000170: 9e5c 92bd 97a4 bbbb bc55 71bd edb0 393d
00000180: 7188 5e3d 5e81 673d 65c3 8bbd 7d96 8e3d
00000190: d041 e73b 2055 1bbc dc80 0cbc 57d1 8bbd
000001a0: de04 3c3c 0a7b 8bbd 2a97 743d ac50 823d
000001b0: cc28 c8bc ada8 eb3c 3aee 08bc 79de 14bd
000001c0: 2ec5 3fbd 5043 303d 9df0 d5bc 2625 edbc
000001d0: 6b3b 803d ce92 993d 9abf 303c bd6e 6ebb
000001e0: 28e1 f4bb e473 0e3c ab46 55bc 97b2 b53c
000001f0: 7649 7fbc c206 953d ca55 a8bc e7a4 17bd
00000200: 8e61 31bd 459e 7e3c 1a2f 843d dbae 893c
00000210: f2f8 2cbd 085b 863d ec4a 183d 217c cdbb
00000220: 0218 febc b110 7bbc d727 83bd b46f 023d
00000230: d4c9 7b3d 8434 1b3d 592c 62bc 4a4a 08bd
00000240: 7bc6 01bd 6c34 c8bc 158e 593d 0b4d 2a3d
00000250: afbf 633d 8a07 f3bc ff9e 843d 170e 073d
00000260: 12d4 3bbd 699d 08bd c13c 653a b50a 96bd
00000270: 201f d4ba 0982 013d 97f5 ecbc 4a5d a03c
00000280: a982 803d 5cd6 3fbd a530 95bd ff42 2cbc
00000290: 7646 323d 422a cbbc 9ef6 8bbd c3bb 5bbd
000002a0: 1e8f 8dbd e716 6bbd bbdf 0ebd 28c1 8fbd
000002b0: 5727 8dbd cd0f d53b 53ea 0d3d ac19 2ebd
000002c0: eb54 8fbd 9e06 82bd 7f23 0c3d db56 963d
000002d0: 78aa 5e3d 997d 1dbc b596 ec3a fafd d4bc
000002e0: b728 0b3d 5630 333d 1c85 77bd a0ab 793d
000002f0: 3a83 d33c 08d4 3cbd 66f0 273b d40c 7f3d
00000300: 0da9 973d 922d 253b 3d64 293d 2f4e ee3c
00000310: 7fa5 b13c 835b 85bd b65c 193d d74b 06bd
00000320: 5ebe 07bc 222e 65bd 4bbe f43c 2d5a 3cbd
00000330: c0dc 303d b822 97bd 776a 373d ca13 93bc
00000340: 08fd 303d ee4d 1abd 5715 753d ab44 ce3c
00000350: f5ba 02bd a0e4 8abb 729c 5cbd d113 4dbd
00000360: 9fa5 da3c 541c 3cbd d934 973d 1b59 76bd
00000370: 32af 383d b238 91bd 12fd 5c3d 3df9 423c
00000380: b8aa 41bd 75ca 7fbd 78b8 83bd d164 c1bc
00000390: 1a76 8cbd 4107 1abd b062 67bd 9075 2bbd
000003a0: 7bc0 3b3c 7e52 45bd 9857 a73b e675 7fbd
000003b0: 38b1 c7bc df0d 11bd 43e5 11bd 09ae 863d
000003c0: 6d3f 443c f15e 1e3d 4dfa 02bd 665d babc
000003d0: 5eb4 823d 58e3 603d db5a 1f3d ec1e b0bc
000003e0: 55d0 493b 2107 6e3d b0a5 b13a fb2b ac3c
000003f0: 2856 65bc 18ad 623d b394 27bb b00c e93c
0.022046495 0.044727992 -0.011485636 -0.025687698 0.02987151 -0.058977902 0.019712267 -0.0682282
0.052825306 0.016315984 -0.040416468 -0.05545201 -0.040360898 0.0022004885 -0.041954637 -0.00039155828
-0.041267566 -0.018393094 -0.032452174 0.04599639 0.010548923 0.053515077 -0.0069583394 -0.050117776
0.05128515 -0.05884012 -0.04623693 0.058887582 0.058964062 0.020507641 -0.06760792 -0.01387128
0.0060538794 -0.069547474 0.016982988 -0.033487204 0.032446437 0.0011092686 0.0027572042 -0.0073850877
0.049322564 -0.038613822 0.05123982 -0.044676118 -0.0656232 0.03628397 -0.024659412 0.04695007
-0.028184913 -0.0066923094 -0.012353845 -0.04392372 0.06582831 -0.013318472 0.021177702 -0.03501021
-0.008837785 0.005872155 -0.014919247 -0.06540686 -0.066036195 0.024531063 -0.033926122 0.02802189
-0.022493811 0.03377479 0.029337475 -0.04114243 0.018303078 0.059513465 0.029682118 -0.00481972
0.042462885 0.023486555 -0.026899451 -0.017003717 0.011972146 -0.05197198 -0.033445045 0.027107213
0.033242896 -0.060276825 -0.021940876 -0.0008032501 -0.028648246 0.056761842 -0.030978447 -0.060140282
-0.0048331413 -0.011604403 -0.059979513 0.042824794 -0.071465716 -0.0057264077 -0.058919653 0.045334745
0.05432934 0.05651986 -0.06824378 0.06962297 0.007057406 -0.009480745 -0.008575644 -0.06827038
0.01147577 -0.06810577 0.059714474 0.06363043 -0.024433516 0.028766954 -0.008357579 -0.03634498
-0.046818905 0.043032944 -0.02611571 -0.028948378 0.06261333 0.07498704 0.010787869 -0.0036381923
-0.00747313 0.008694623 -0.013017337 0.022179885 -0.015581479 0.072766796 -0.02054872 -0.037022498
-0.043305926 0.015540664 0.064542964 0.01680701 -0.0422296 0.065603316 0.037180826 -0.006270901
-0.031017307 -0.015323804 -0.06404083 0.03184481 0.061471775 0.03789188 -0.013804519 -0.033273973
-0.031683426 -0.02443906 0.053114016 0.04157738 0.055602726 -0.02966668 0.064756386 0.03297242
-0.045856543 -0.033353243 0.000874471 -0.07326261 -0.0016183592 0.03161815 -0.0289257 0.019575734
0.062749214 -0.04683529 -0.07284669 -0.01051402 0.043524228 -0.024800424 -0.06834148 -0.05364586
-0.06912063 -0.05739489 -0.034881335 -0.070192635 -0.06892269 0.0065021277 0.034647297 -0.04250495
-0.06998619 -0.063489184 0.03421354 0.07340785 0.05436179 -0.009612464 0.0018050285 -0.026000012
0.033974376 0.04374727 -0.060429677 0.06095469 0.02581941 -0.046100646 0.0025625466 0.062268093
0.07405291 0.0025204164 0.04135536 0.029090015 0.02168536 -0.06511595 0.03744193 -0.03278717
-0.008285133 -0.0559522 0.029875895 -0.045984436 0.043179274 -0.07379669 0.044779267 -0.017953772
0.04321006 -0.037671976 0.059834804 0.025179228 -0.031916577 -0.00423868 -0.053860135 -0.050067727
0.026690302 -0.045925453 0.07383127 -0.06014357 0.045088954 -0.07090892 0.053952284 0.011900243
-0.04728195 -0.062448937 -0.06431669 -0.023607643 -0.068584636 -0.037604574 -0.0564906 -0.041860163
0.011459465 -0.048174374 0.0051068775 -0.062368296 -0.024376497 -0.03541362 -0.03561903 0.06576163
0.0119780125 0.038664762 -0.031976987 -0.022749614 0.063820586 0.054904312 0.038905006 -0.02149912
0.0030794342 0.058112267 0.0013553407 0.021017065 -0.013997592 0.055340856 -0.002557081 0.028448433

conv.4.0.bias f4 [30]
00000000: c982 06bc e223 b6bc a324 85bd d872 27bd
00000010: ef51 61bd 0fea 883d 13bd 933d 4277 633d
00000020: fbc1 cb3c 3154 3abc 02b4 473d 128a fe3c
00000030: db14 0dbd f00d 3a3c 3de4 123c 869f 103d
00000040: a9cf 8ebc 864c 29bd 688a d1bb 16e4 8fbd
00000050: 88db 6dbd 47cd 71bd bf25 8a3d 234f 323d
00000060: 4fe4 60bd 344f b13c a068 9a3c 7690 3bbd
00000070: 8d5e 373d 704e 89bd
-0.008209893 -0.022233907 -0.065011285 -0.040881008 -0.05500978 0.06685268 0.072137974 0.055533655
0.02487277 -0.011372612 0.048755653 0.031071696 -0.034443717 0.011355862 0.008965549 0.035308383
-0.017433004 -0.041332744 -0.006394673 -0.07025926 -0.05807069 -0.05903366 0.06745481 0.043532502
-0.054905232 0.021644212 0.018848717 -0.045792066 0.044767905 -0.06704414

conv.4.2.weight f4 [30]
00000000: 06d5 ef3e 88d4 043f 8209 353f 4271 613e
00000010: 77fd 4a3f fa6e 693f 4257 063f ad53 9f3d
00000020: 052f c93d af02 6a3e 5bae 513f c6eb 6a3f
00000030: 4f69 d83d b14a 0b3e ecf9 e33e 7b9d 343f
00000040: ccef 753f edec bb3e 7827 243e ce60 7f3f
00000050: d691 113f ce5a 543f 5f77 743f 98ea 353f
00000060: adc1 543f 7150 8f3c ef98 463f 35f0 593f
00000070: a382 0c3f 58de 443e
0.4684221 0.51886797 0.7071763 0.2201586 0.79293007 0.9118496 0.52476895 0.07779632
0.098234214 0.22852586 0.8190667 0.9176601 0.10566961 0.13602711 0.44526613 0.70552796
0.96069026 0.36704198 0.16030681 0.9975709 0.56863153 0.82951057 0.95494646 0.71061087
0.83108026 0.017494412 0.7757711 0.8513215 0.54886836 0.19225442

conv.4.2.bias f4 [30]
00000000: 759d 76ba 9745 adbb 6012 dfbb 1db6 b9bb
00000010: 88cf c4ba 6caf 583b fd43 c13b 7973 943b
00000020: 3ca3 9d3a 5787 453b ec02 723b e634 e83b
00000030: a808 19ba 23c3 b7bb 3e26 4dbb bb02 d83b
00000040: c6a5 d0ba 71ed b53b 9ee7 b23b cdc5 cc3b
00000050: c488 2b3b 9e33 d13b 3f99 e7bb 18a3 d4bb
00000060: e353 a33b 7e6e ee3a f724 d23b 10a9 eabb
00000070: 1df6 d0bb aa4c df3b
-0.0009407618 -0.005287837 -0.0068076104 -0.0056674615 -0.0015015462 0.0033063544 0.0058979974 0.004530367
0.0012026797 0.0030140483 0.003692801 0.007086384 -0.00058377767 -0.005607979 -0.0031303312 0.0065921224
-0.0015918545 0.005551987 0.00545974 0.0062491656 0.0026174048 0.006384327 -0.007067829 -0.006489169
0.0049843653 0.0018190888 0.006413098 -0.007161267 -0.0063769952 0.006814559

conv.4.2.running_mean f4 [30]
00000000: a5ad 8e3e fc6f 643e b90e ab3e 33d7 453e
00000010: 916f 5d3e 2c68 023f 02f1 c43e 0462 9e3e
00000020: 51a1 873e c79f b03e 1534 793e 152b 9a3e
00000030: 4f04 8a3e a654 a83e 22f2 a93e be59 993e
00000040: 3cc2 bf3e 6747 6a3e ade0 6d3e c4cc 493e
00000050: eafa 913e 5866 253e deff c43e dc58 983e
00000060: 74f7 5f3e 2374 673e 0c06 8a3e 3c82 953e
00000070: b1b8 df3e 38fc 4c3e
0.27866855 0.22308344 0.3340967 0.19320373 0.2162459 0.50940204 0.38465124 0.30934155
0.26490262 0.344969 0.24336274 0.30110994 0.26956412 0.32877082 0.33192545 0.2995128
0.37452877 0.228788 0.23230238 0.19707018 0.28511745 0.16152322 0.3847646 0.29755294
0.2187174 0.22602896 0.26957738 0.29200923 0.43695596 0.20018089

conv.4.2.running_var f4 [30]
00000000: 2152 803d 6766 0b3d ef2b 283d 8fbf d43d
00000010: 45f5 7f3d b2bb 793d bdd0 dd3d 13b0 8a3d
00000020: 150f 153d 8e51 a93d 717a 6a3d 5043 923d
00000030: 7496 523d b62d 133d 1121 a73d 129a f03d
00000040: 61f0 b53d 1569 fa3c 8690 753d abe7 523d
00000050: e197 513d 4d84 ac3d bb7d 363d c7fa 0c3d
00000060: 8acc 943d 2ce0 423d b536 833d a535 923d
00000070: 09b9 0b3d df8d ed3d
0.06265665 0.034033205 0.041057523 0.103880994 0.062489767 0.060970016 0.10830829 0.06771865
0.036391336 0.082675084 0.057245675 0.07141745 0.051413015 0.035932265 0.08160604 0.117481366
0.08883739 0.030567685 0.05995228 0.051490467 0.051170234 0.08423672 0.0445535 0.034418847
0.07265575 0.04757707 0.06406919 0.07139138 0.03411201 0.115993254
