service/predict_norms/files/profilnaya.pth (torch_old, 221215 bytes, 33 tensors)

conv.0.0.weight f4 [30, 1, 3, 3]
-0.28041574 0.03741795 0.26405904 0.22654106 -0.2820529 -0.2432278 0.17989977 0.17999719
-0.010492041 -0.15228342 0.13463819 -0.22763836 0.073135026 -0.06131624 -0.056289252 0.15554343
0.21013066 0.008324154 -0.2553304 -0.059524477 0.19062343 0.031579077 -0.25273117 0.33000952
-0.03450022 -0.33247748 -0.15842709 -0.19326884 0.103186116 -0.30404338 0.21300705 0.008435716
0.2322342 0.0681068 0.26441437 0.022330672 -0.025546124 -0.1914881 -0.3275007 -0.14670454
0.17234969 0.25104043 0.2702984 0.27747196 -0.04153599 -0.230814 0.33042094 -0.32736787
0.29078463 -0.1540528 0.2724969 -0.21090148 0.1475933 0.003651458 0.32899222 -0.18259895
0.32886484 -0.31679034 -0.08404021 -0.30341896 -0.06477632 0.19984642 0.029867554 0.069862515
0.040123366 0.044721108 -0.2769305 0.3071531 0.08924813 0.030147465 0.15636517 -0.16594438
-0.31125826 -0.24142331 0.32657692 0.29197547 0.23214199 0.013397556 -0.24230808 -0.29031625
0.1896122 0.09705795 0.21294728 -0.14070685 -0.30750015 0.16496263 0.12227841 -0.1655684
0.23484235 -0.3107529 -0.25994173 -0.107783005 -0.17649354 0.08272089 -0.10800788 -0.10322827
0.32561198 0.28237718 -0.21807382 -0.17086352 -0.25664535 0.20415801 -0.23574251 -0.18408012
-0.03055828 -0.025810888 0.24408172 0.089559436 0.018433167 -0.11123688 0.1922111 0.30616713
-0.015636465 -0.044258427 0.13553654 -0.31161255 -0.14471424 -0.056609187 0.14624181 0.13799275
-0.13232544 -0.3175173 -0.25867546 0.30163544 -0.10783393 0.137472 -0.16272426 -0.23399368
0.3076336 0.24089009 0.13627364 -0.09401817 -0.31225473 -0.23194748 -0.29710272 -0.06791166
0.15993176 0.019907057 -0.10679069 0.034406997 -0.1263491 -0.28395385 0.13820037 0.11830956
0.26303747 -0.035718013 0.27255857 0.17243794 -0.2445672 0.30593196 0.2644801 -0.17146856
-0.29412434 0.20672017 0.25453556 -0.26118425 -0.10301975 -0.08834685 -0.007834988 -0.11547869
0.2485146 -0.018721007 -0.16244729 0.25847593 0.25162095 0.257109 -0.050198477 0.08745558
0.15226151 -0.17327043 0.03906705 -0.027660085 -0.10072207 0.19022043 -0.19878034 0.22750305
0.012316128 -0.010049477 -0.10616333 0.26105744 -0.31737444 0.30862626 -0.30264124 0.27181998
-0.045898896 -0.17764273 0.10518608 -0.28889808 0.3216926 0.3301899 0.1793096 -0.10424709
-0.2335074 0.17272955 0.09369085 -0.2432679 0.27866232 0.21262476 -0.12573111 -0.048571367
-0.025712056 0.1486519 0.028223084 -0.29894003 -0.07461211 0.056176413 -0.23710217 -0.30541876
0.05909938 -0.13045457 0.11808697 -0.018785479 -0.32795355 0.029320573 -0.278517 -0.1084711
0.15744898 -0.008756672 0.31186736 0.21925889 -0.124703415 0.00012391307 0.13427152 -0.2870545
-0.12351908 0.11165163 0.31559962 0.22409977 0.0864882 -0.1868329 0.11324621 0.17729786
0.32141638 -0.043753963 0.14101782 0.1815347 -0.12799448 -0.2934197 -0.12227484 0.23360439
-0.32984716 -0.13369256 -0.24679461 0.23684876 -0.3183613 -0.27250123 -0.2696911 -0.27443504
-0.0446614 0.07108217 -0.2629496 0.30582207 0.28841564 -0.20262364 -0.027860217 0.010092788
00000000: a792 8fbe 9043 193d bf32 873e 61fa 673e
00000010: 3d69 90be b510 79be a537 383e 2f51 383e
00000020: cfe6 2bbc 2ff0 1bbe 98de 093e 081a 69be
00000030: d1c7 953d bd26 7bbd 8f8f 66bd c746 1f3e
00000040: 7e2c 573e 0862 083c abba 82be f0cf 73bd
00000050: ca32 433e 1059 013d fb65 81be 02f7 a83e
00000060: 1a50 0dbd 7d3a aabe b63a 22be 44e8 45be
00000070: 3e53 d33d 93ab 9bbe 851e 5a3e f535 0a3c
00000080: cdce 6d3e 947b 8b3d 5261 873e d0ee b63c
00000090: 1b46 d1bc 7515 44be 2cae a7be b739 16be
000000a0: 707c 303e 5f88 803e 8d64 8a3e ce10 8e3e
000000b0: a421 2abd 815a 6cbe ef2c a93e c39c a7be
000000c0: b9e1 943e 04c0 1dbe b784 8b3e 8ff6 57be
000000d0: b322 173e 4d4d 6f3b ab71 a83e 38fb 3abe
000000e0: f960 a83e 5832 a2be 461d acbd bb59 9bbe
000000f0: 72a9 84bd 8aa4 4c3e cdac f43c 1414 8f3d
00000100: 6658 243d 7b2d 373d d6c9 8dbe 2c43 9d3e
00000110: b9c7 b63d d1f7 f63c 311e 203e 53ed 29be
00000120: 3e5d 9fbe ac37 77be 1735 a73e cf7d 953e
00000130: a1b6 6d3e 6c81 5b3c 9c1f 78be 55a4 94be
00000140: b329 423e 52c6 c63d da0e 5a3e 7515 10be
00000150: a970 9dbe f7eb 283e 1a6d fa3d c38a 29be
00000160: 837a 703e 011b 9fbe 1517 85be 56bd dcbd
00000170: b9ba 34be 9269 a93d 3c33 ddbd 5869 d3bd
00000180: 9db6 a63e be93 903e be4e 5fbe d9f6 2ebe
00000190: 0567 83be cc0e 513e 7c66 71be 807f 3cbe
000001a0: 5c55 fabc 5b71 d3bc 8ff0 793e f06a b73d
000001b0: 2701 973c 29d0 e3bd fdd2 443e f0c1 9c3e
000001c0: 0b18 80bc 5348 35bd 17ca 0a3e ae8b 9fbe
000001d0: f82f 14be 09df 67bd 6ac0 153e f94d 0d3e
000001e0: 5280 07be a191 a2be 1c71 84be f66f 9a3e
000001f0: 09d8 dcbd 76c5 0c3e 30a1 26be 0a9c 6fbe
00000200: 2782 9d3e e4ab 763e 518b 0b3e 998c c0bd
00000210: dadf 9fbe a483 6dbe d91d 98be 4515 8bbd
00000220: 27c5 233e 2014 a33c 14b5 dabd 5aee 0c3d
00000230: a961 01be 6662 91be 6684 0d3e 484c f23d
00000240: d9ac 863e 0d4d 12bd cc8c 8b3e 9293 303e
00000250: d36f 7abe 1da3 9c3e f069 873e 7495 2fbe
00000260: 7797 96be 74ae 533e 7c52 823e f1b9 85be
00000270: 05fc d2bd 31ef b4bd 525e 00bc 1780 ecbd
00000280: 9c7a 7e3e cc5c 99bc 9558 26be f556 843e
00000290: 76d4 803e caa3 833e eb9c 4dbd e91b b33d
000002a0: 71ea 1b3e ce6d 31be c504 203d 6797 e2bc
000002b0: 5f47 cebd 25c9 423e 138d 4bbe 8ff6 683e
000002c0: 96c9 493c 90a6 24bc 296c d9bd 52a9 853e
000002d0: e77e a2be 4304 9e3e cbf3 9abe fd2b 8b3e
000002e0: 7b00 3cbd fae7 35be cd6b d73d 73ea 93be
000002f0: e4b4 a43e a70e a93e f09c 373e 807f d5bd
00000300: 901c 6fbe 04e0 303e fde0 bf3d 381b 79be
00000310: d4ac 8e3e 4eba 593e a8bf 00be c5f2 46bd
00000320: 17a2 d2bc 3438 183e 1934 e73c ab0e 99be
00000330: 3cce 98bd 3d19 663d e9ca 72be d95f 9cbe
00000340: 3112 723d e295 05be 95d7 f13d 01e4 99bc
00000350: 87e9 a7be b331 f03c c899 8ebe 1926 debd
00000360: 4e3a 213e 2578 0fbc 14ad 9f3e 6785 603e
00000370: 8164 ffbd a9ee 0139 797e 093e cff8 92be
00000380: 92f7 fcbd 9ca9 e43d 4696 a13e 697a 653e
00000390: ba20 b13d 2051 3fbe a1ed e73d 928d 353e
000003a0: b090 a43e 5b37 33bd fa66 103e 3be4 393e
000003b0: fc10 03be 1b3b 96be 3b6b fabd fd35 6f3e
000003c0: bae1 a8be b4e6 08be bab7 7cbe 7b88 723e
000003d0: 4100 a3be 4885 8bbe f414 8abe c082 8cbe
000003e0: dfee 36bd 8793 913d 54a1 86be b694 9c3e
000003f0: 37ab 933e 927c 4fbe 1c3b e4bc 395c 253c

conv.0.0.bias f4 [30]
-0.18215966 -0.033694044 0.03557182 0.097644545 0.2705609 -0.32332137 0.07725091 0.17231013
-0.0038844082 0.0057829684 0.012140673 0.093776636 -0.20848083 0.22343393 0.26897362 -0.05956544
-0.03269417 0.0760895 -0.13728763 -0.1496391 -0.009505909 0.019587314 -0.10597663 -0.2984779
-0.26010728 0.020527719 -0.2528226 -0.015804257 0.25125262 0.20590785
00000000: 1088 3abe c402 0abd c2b3 113d ddf9 c73d
00000010: f586 8a3e 618a a5be ba35 9e3d 1172 303e
00000020: 8e91 7ebb 0e7f bd3b ace9 463c f70d c03d
00000030: 007c 55be ddcb 643e e9b6 893e e4fa 73bd
00000040: 52ea 05bd d0d4 9b3d 2195 0cbe fe3a 19be
00000050: acbe 1bbc 9375 a03c 460a d9bd 18d2 98be
00000060: c82c 85be bf29 a83c f771 81be ee77 81bc
00000070: 2fa4 803e 82d9 523e

conv.0.2.weight f4 [30]
0.8382859 0.68087417 0.543563 0.888137 0.09708166 0.9764231 0.9868279 0.6589543
0.13809828 0.35141718 0.33126533 0.83668905 0.99182236 0.54642326 0.5782772 0.5823118
0.33523673 0.66690785 0.7334343 0.36004317 0.33995536 0.046550654 0.49982327 0.93816507
0.65044075 0.07139355 0.43458116 0.8344678 0.62329143 0.11723681
00000000: e899 563f c54d 2e3f f226 0b3f f25c 633f
00000010: c0d2 c63d ddf6 793f c1a0 7c3f 3bb1 283f
00000020: a369 0d3e f4ec b33e 9c9b a93e 4131 563f
00000030: 12e8 7d3f 65e2 0b3f f909 143f 6312 153f
00000040: 26a4 ab3e 79ba 2a3f 5ac2 3b3f 9457 b83e
00000050: a10e ae3e e6ab 3e3d d6e8 ff3e 962b 703f
00000060: 4983 263f c836 923d 6c81 de3e af9f 553f
00000070: 0790 1f3f da19 f03d

conv.0.2.bias f4 [30]
-2.4864612e-05 4.6531106e-05 -1.666975e-05 -4.2096535e-06 2.7992992e-06 -1.1851142e-05 -3.095703e-05 -2.7847305e-05
-2.9458715e-05 3.1935066e-05 -2.4456776e-05 1.1641985e-06 -4.932947e-05 1.3804203e-05 8.489021e-06 -1.9479798e-05
1.3624556e-05 1.2356439e-05 1.5286587e-05 -1.6506185e-05 4.7192457e-06 8.84801e-06 -8.327695e-06 -1.6607533e-05
2.8370716e-05 -7.911562e-06 -2.0775826e-05 -1.1146552e-05 1.0416568e-05 1.998228e-05
00000000: 5994 d0b7 652a 4338 04d6 8bb7 a640 8db6
00000010: 98db 3b36 44d4 46b7 dcd7 01b8 a299 e9b7
00000020: 1c1e f7b7 04f2 0538 8728 cdb7 8e41 9c35
00000030: 1de7 4eb8 9a98 6737 116c 0e37 8c68 a3b7
00000040: 0695 6437 804e 4f37 b23b 8037 c376 8ab7
00000050: 035a 9e36 ea71 1437 2db7 0bb7 6850 8bb7
00000060: a6fd ed37 e6bb 04b7 bf47 aeb7 1402 3bb7
00000070: d2c2 2e37 9f9f a737

conv.0.2.running_mean f4 [30]
-0.07904355 0.079190016 -0.41125545 0.52385414 0.5378438 -0.16915472 0.06573371 0.47860166
0.025280936 -0.027595568 -0.200476 -0.19940646 -0.1405944 0.13058417 -0.27978057 -0.12988845
0.5229604 0.22043821 0.51028234 0.111086436 -0.08230181 0.7028555 -0.6061533 -1.1480765
0.049074244 1.1004316 -0.850285 -0.7274713 0.21017873 0.31552085
00000000: 96e1 a1bd 602e a23d 1390 d2be 4e1b 063f
00000010: 22b0 093f e536 2dbe 659f 863d 470b f53e
00000020: f719 cf3c 1a10 e2bc 9549 4dbe 3531 4cbe
00000030: faf7 0fbe dbb7 053e 663f 8fbe 7a01 05be
00000040: bce0 053f 8eba 613e dda1 023f 4981 e33d
00000050: da8d a8bd 57ee 333f dd2c 1bbf 2cf4 92bf
00000060: 1302 493d f1da 8c3f 47ac 59bf 8f3b 3abf
00000070: 1839 573e f38b a13e

conv.0.2.running_var f4 [30]
0.0076295356 0.0070165563 0.037384637 0.009357556 0.015442502 0.005978358 0.018829579 0.0040520583
0.01650739 0.015199269 0.027530687 0.025491338 0.012455915 0.020069284 0.040945165 0.01081735
0.013759112 0.0058842013 0.0058566923 0.004405887 0.013955403 0.008421294 0.02409663 0.044906862
0.011511963 0.014965218 0.043669403 0.0627683 0.013080842 0.011852357
00000000: 2f01 fa3b 24eb e53b a220 193d 6f50 193c
00000010: 8c02 7d3c 1ae6 c33b 7d40 9a3c 21c7 843b
00000020: 823a 873c 5b06 793c 0988 e13c 36d3 d03c
00000030: e513 4c3c 5768 a43c 1eb6 273d 413b 313c
00000040: e66d 613c 42d0 c03b 7fe9 bf3b 425f 903b
00000050: 34a5 643c 78f9 093c 4c66 c53c 42f0 373d
00000060: ac9c 3c3c ac30 753c b0de 323d ab8c 803d
00000070: 0751 563c 6330 423c

conv.1.0.weight f4 [20, 30, 3, 3]
-0.033202473 0.0010877905 -0.018103084 0.0020899365 -0.0033738376 0.0425699 0.052567083 -0.020666853
-0.021815997 0.022633774 0.017562175 -0.00019906629 0.04250836 0.015961785 0.034674764 -0.029102674
-0.03846713 -0.004192624 -0.04542086 0.03000366 0.006726339 -0.004966715 -0.030629728 -0.00977238
-0.022276657 -0.053166803 -0.019869156 0.053288072 0.033976607 0.05345876 0.05302863 -0.0013046238
0.019018373 0.044503205 0.015521587 0.05394923 -0.010119076 0.05771421 0.036552213 -0.016858265
-0.024407785 -0.051300988 0.033854973 -0.023991661 0.019787299 0.020081019 0.031096635 -0.0031867218
0.038840033 -0.059867505 0.02268854 0.028376907 0.03552163 0.025594633 -0.027310893 0.025901543
0.015750987 -0.059484556 -0.031099124 0.0421448 -0.038112752 -0.03547349 0.04069776 0.042376548
0.0069052577 0.04420214 -0.030489001 -0.032984458 -0.042634435 0.019613089 0.010469615 0.004850084
0.058799982 0.047905456 -0.009267622 0.043477308 0.0038223101 0.014895149 -0.0036181575 -0.028871609
0.019631965 0.023571534 -0.032717895 -0.04869522 0.047390077 0.002495065 0.0573706 0.01324965
0.021755338 0.002900721 0.014204883 -0.010373821 0.014258084 -0.05203587 -0.0097923875 -0.0002626768
-0.043885604 0.01781644 0.044908583 -0.022517568 0.051439025 0.045535456 0.029562026 0.013894219
0.050720293 0.030450067 0.019518405 -0.03707647 -0.040784728 0.019338498 0.04887139 0.056578647
0.003142947 0.02311086 0.03734226 0.026350759 -0.03756693 -0.019538287 0.05241678 0.03820519
0.01818927 -0.016012797 -0.052437562 0.043730542 0.027573045 -0.032230254 0.030268943 -0.016385455
-0.010879676 -0.03687652 -0.059076373 -0.017326916 0.030117346 -0.04067061 -0.0014776668 0.03414414
-0.03888142 -0.058756806 0.000922769 0.04064701 -0.02804566 0.039026536 -0.023848496 0.01685143
-0.010144977 0.048987906 0.021732828 0.021610834 0.046485912 -0.043874826 0.037457526 -0.010135643
0.029387662 0.04002216 0.01746377 -0.00011837768 0.015096848 -0.043393116 -0.019263394 0.017645124
0.058333185 -0.0068374923 -0.051903654 0.014323507 -0.005217848 0.05827419 -0.02215539 0.02322349
-0.02261741 0.019978844 0.05029263 0.009706544 -0.015779888 0.031540494 0.013017145 0.04115348
0.006503352 -0.020767545 -0.059308026 0.017856438 0.04835178 -0.058324415 0.01901928 -0.044770285
-0.03150783 0.025050804 -0.034585517 -0.018733226 0.021067124 -0.035262983 0.0038656872 -0.040089022
-0.03557227 -0.06019023 -0.02109258 0.029283091 0.018506862 0.04170601 0.037541877 -0.022770049
0.027416885 0.05477931 -0.03985718 -0.008105836 -0.051902868 -0.039858345 -0.0068292324 0.04449588
0.032335173 -0.049180917 -0.03336637 -0.035346925 0.014127231 -0.007871606 0.030075874 -0.028062133
-0.011186927 0.015634337 -0.014978472 -0.056889772 0.021250198 0.059595317 0.024994023 -0.0283069
-0.0036118573 0.025938075 0.024001775 -0.02107336 0.021323504 -0.060237776 -0.036669344 0.056382466
-0.032514773 0.049538348 -0.0019965146 0.014834368 0.050683588 0.026000714 0.036116373 -0.05819055
-0.051186364 0.046228815 -0.04698918 -0.018424727 -0.058568202 0.024784775 -0.02308333 0.027338337
0.056124177 0.03549948 -0.00053529773 -0.020030243 -0.06010816 -0.012777616 0.037839532 0.049331304
00000000: 51ff 07bd 3194 8e3a eb4c 94bc 51f7 083b
00000010: 9a1b 5dbb c75d 2e3d 9550 573d 884d a9bc
00000020: 76b7 b2bc 776a b93c 8dde 8f3c 73bc 50b9
00000030: 3f1d 2e3d 4ac2 823c 2007 0e3d bb68 eebc
00000040: b68f 1dbd 4762 89bb 390b 3abd 3cca f53c
00000050: 9f68 dc3b d3bf a2bb 32eb fabc 551c 20bc
00000060: 897d b6bc 6fc5 59bd a4c4 a2bc 9844 5a3d
00000070: 0e2b 0b3d 93f7 5a3d 8c34 593d e9ff aaba
00000080: 6bcc 9b3c fe48 363d 414e 7e3c def9 5c3d
00000090: 7bca 25bc bc65 6c3d c6b7 153d 581a 8abc
000000a0: d6f2 c7bc fc20 52bd 83ab 0a3d 298a c4bc
000000b0: f918 a23c f380 a43c 5fbe fe3c 52d8 50bb
000000c0: ba16 1f3d a137 75bd 51dd b93c b076 e83c
000000d0: 217f 113d d6ab d13c 18bb dfbc 792f d43c
000000e0: 3708 813c 14a6 73bd 97c3 febc 07a0 2c3d
000000f0: 1e1c 1cbd a64c 11bd b2b2 263d 0893 2d3d
00000100: 8045 e23b 4e0d 353d 12c4 f9bc b61a 07bd
00000110: 72a1 2ebd a1ab a03c c088 2b3c 74ed 9e3b
00000120: 40d8 703d 8338 443d 39d7 17bc 4315 323d
00000130: b97f 7a3b c80a 743c 9c1e 6dbb 2784 ecbc
00000140: 37d3 a03c 1719 c13c 3303 06bd a474 47bd
00000150: 191c 423d 3f84 233b 6ffd 6a3d 0f15 593c
00000160: 4038 b23c 061a 3e3b 99bb 683c f5f6 29bc
00000170: bd9a 693c 9023 55bd 4070 20bc e2b7 89b9
00000180: 64c1 33bd c8f3 913c 10f2 373d c376 b8bc
00000190: bab1 523d 6383 3a3d 102c f23c 94a4 633c
000001a0: 15c0 4f3d 6b72 f93c 10e5 9f3c 7fdd 17bd
000001b0: e30d 27bd c56b 9e3c 5e2d 483d 03bf 673d
000001c0: e7f9 4d3b fc52 bd3c 33f4 183d 8cdd d73c
000001d0: c8df 19bd c20e a0bc fab2 563d 0c7d 1c3d
000001e0: aa01 953c 452d 83bc c5c8 56bd cc1e 333d
000001f0: dee0 e13c df03 04bd 93f6 f73c ca3a 86bc
00000200: ab40 32bc d50b 17bd 11fa 71bd 2df1 8dbc
00000210: a7b8 f63c 3a96 26bd 45ae c1ba bada 0b3d
00000220: 2042 1fbd faaa 70bd fbe5 713a 7b7d 263d
00000230: 03c0 e5bc 4ada 1f3d ec5d c3bc 030c 8a3c
00000240: 1e37 26bc 8ba7 483d 0b09 b23c 3409 b13c
00000250: 0368 3e3d 17b6 33bd 106d 193d f80f 26bc
00000260: 65be f03c 47ee 233d 2e10 8f3c 8841 f8b8
00000270: c558 773c fbbc 31bd 44ce 9dbc 828c 903c
00000280: c7ee 6e3d 0b0d e0bb ed98 54bd 25ad 6a3c
00000290: 7bfa aabb ebb0 6e3d 387f b5bc 303f be3c
000002a0: 2648 b9bc acaa a33c a5ff 4d3d 3208 1f3c
000002b0: d344 81bc 9b30 013d dd45 553c 8d90 283d
000002c0: 121a d53b b320 aabc f9ec 72bd aa47 923c
000002d0: 840c 463d 95e5 6ebd 52ce 9b3c 0c61 37bd
000002e0: 5b0e 01bd 5837 cd3c 8ba9 0dbd 6c76 99bc
000002f0: f694 ac3c eb6f 10bd 7857 7d3b 6334 24bd
00000300: 3bb4 11bd 088a 76bd 59ca acbc 18e3 ef3c
00000310: b49b 973c ecd3 2a3d 83c5 193d 4188 babc
00000320: 6099 e03c 4560 603d 4841 23bd 57ce 04bc
00000330: 1a98 54bd 8142 23bd c1c7 dfbb 5041 363d
00000340: e371 043d ee71 49bd 2dab 08bd f0c7 10bd
00000350: e775 673c e9f7 00bc ae61 f63c 8fe2 e5bc
00000360: 5f49 37bc 9513 803c 4468 75bc 4005 69bd
00000370: e514 ae3c 381a 743d 44c0 cc3c dfe3 e7bc
00000380: e9b4 6cbb 167c d43c 5f9f c43c 0aa2 acbc
00000390: a1ae ae3c e3bb 76bd 9832 16bd 4df1 663d
000003a0: 362e 05bd b9e8 4a3d f5d7 02bb d90b 733c
000003b0: 9899 4f3d 73ff d43c c3ee 133d 3759 6ebd
000003c0: cba8 51bd 6d5a 3d3d ba77 40bd 74ef 96bc
000003d0: 36e5 6fbd 7109 cb3c 4019 bdbc a6f4 df3c
000003e0: 77e2 653d e767 113d 3953 0cba 7716 a4bc
000003f0: f933 76bd 3559 51bc a0fd 1a3d 9f0f 4a3d

conv.1.0.bias f4 [20]
0.03370194 0.039620467 0.03295244 -0.03990382 -0.011538828 -0.022064857 -0.041441448 0.02906061
0.034113098 -0.043190207 -0.0011156801 -0.024093332 0.029195039 -0.0140038775 0.027025284 -0.05934201
0.030585838 -0.010185236 0.06048787 -0.042846106
00000000: 0c0b 0a3d 1249 223d 23f9 063d 3072 23bd
00000010: 5a0d 3dbc 5cc1 b4bc 82be 29bd 8410 ee3c
00000020: 2dba 0b3d 37e8 30bd 033c 92ba 615f c5bc
00000030: 6f2a ef3c 8570 65bc 2164 dd3c 9c10 73bd
00000040: 278f fa3c fadf 26bc 21c2 773d 667f 2fbd

conv.1.2.weight f4 [20]
0.7054332 0.33519295 0.5411726 0.24372283 0.0637142 0.36777487 0.062453028 0.36022973
0.26662666 0.54552174 0.5850785 0.9744396 0.035692476 0.5510736 0.90651774 0.06339239
0.6982269 0.20113218 0.1538086 0.07647343
00000000: 4597 343f 699e ab3e 4a8a 0a3f 7a92 793e
00000010: 977c 823d fd4c bc3e bfce 7f3d 0870 b83e
00000020: 4a83 883e 50a7 0b3f b4c7 153f e074 793f
00000030: 4632 123d 2913 0d3f 8c11 683f dfd3 813d
00000040: 00bf 323f 98f5 4d3e 0080 1d3e 1a9e 9c3d

conv.1.2.bias f4 [20]
1.1619693e-05 1.5697538e-05 2.881649e-05 -2.422318e-05 2.930363e-06 1.3231774e-05 3.822868e-05 -3.3990473e-05
2.6247513e-05 -2.7890803e-05 -6.3066323e-06 -1.5511225e-05 -1.949226e-06 9.207398e-06 -4.7143976e-06 -3.8386082e-05
-3.1507214e-05 -1.1405034e-05 -4.25105e-05 5.302928e-06
00000000: 34f2 4237 35ae 8337 f1ba f137 e232 cbb7
00000010: 41a7 4436 09fe 5d37 bc57 2038 fe90 0eb8
00000020: 1b2e dc37 0bf7 e9b7 8f9d d3b6 1a1e 82b7
00000030: 73cf 02b6 7979 1a37 5e30 9eb6 be00 21b8
00000040: 9d26 04b8 3f58 3fb7 4d4d 32b8 ceef b136

conv.1.2.running_mean f4 [20]
0.20585002 0.22013898 0.17797053 0.12658957 0.16090457 0.13644846 0.09858253 0.23206374
0.20684794 0.11700315 0.20548148 0.17441626 0.20043477 0.14966057 0.17068475 0.16530678
0.19222492 0.17381682 0.28268316 0.119804025
00000000: 59ca 523e 1d6c 613e e83d 363e b2a0 013e
00000010: 2bc4 243e 25b9 0b3e a3e5 c93d 1ea2 6d3e
00000020: f2cf 533e 599f ef3d bd69 523e 2d9a 323e
00000030: c63e 4d3e 9f40 193e fcc7 2e3e 2e46 293e
00000040: 9cd6 443e 09fd 313e d9bb 903e d05b f53d

conv.1.2.running_var f4 [20]
0.18448669 0.13857721 0.05966982 0.057290126 0.11340625 0.17604314 0.030318206 0.28047332
0.16380396 0.057823054 0.19372137 0.07114979 0.18863152 0.14405623 0.036435105 0.47847423
0.11611714 0.26458886 0.11138442 0.20559382
00000000: 14ea 3c3e 2fe7 0d3e 5768 743d 0da9 6a3d
00000010: 8941 e83d a744 343e e35d f83c 339a 8f3e
00000020: 3abc 273e ded7 6c3d e55e 463e fbb6 913d
00000030: 9f28 413e 7a83 133e fa3c 153d 93fa f43e
00000040: d3ce ed3d 3178 873e 841d e43d 3087 523e

conv.2.0.weight f4 [30, 20, 3, 3]
0.00026114404 -0.037693623 -0.051675804 -0.050432127 0.052525304 0.023591774 0.062395275 -0.033991512
0.036908917 -0.047701363 -0.06319336 0.021085411 0.029891817 0.04030286 -0.051264226 -0.06664475
-0.010562433 -0.029048007 0.07471644 0.035414465 0.009917323 -0.067046694 -0.066566184 -0.037536006
-0.016682258 0.029140847 0.070995145 -0.06669 0.03164967 -0.04556222 -0.06132537 0.014901736
0.061620753 0.06940301 0.023109732 0.07357748 -0.034375787 -0.042068362 0.069813 0.062200256
0.0011844954 0.03436633 0.024378978 -0.07063051 -0.02604006 -0.070094414 0.0012042981 -0.021255765
0.0020882434 -0.047120523 0.07231444 0.022566523 0.0051960484 0.025252098 -0.035323415 -0.059379417
0.020542966 0.05753753 -0.016815612 -0.004803404 9.7255266e-05 0.03696682 0.07261759 -0.07149209
0.0069335564 0.057627145 -0.058201376 0.022700174 0.068047784 0.052061252 0.035098977 0.017215837
0.05931371 0.006164113 -0.06178427 0.064394884 0.022202719 0.0065549347 -0.011134431 0.05219937
0.03379894 -0.008504222 0.07227759 -0.010917596 -0.032553695 -0.056673836 0.011381461 0.04799549
-0.007554115 -0.0050355783 0.038780347 0.04900068 0.059541516 0.07234434 -0.06281261 -0.058718726
0.066190116 -0.050373998 -0.010737372 -0.008187342 -0.028204074 0.054760054 -0.05962242 -0.056415357
-0.0479155 0.04073172 0.073866814 -0.04006569 0.06436377 -0.055067297 -0.035033036 0.05628752
-0.036882892 0.063530326 0.072788164 -0.049402557 0.018105034 0.071655616 0.047707822 -0.06807518
0.030593801 -0.05871126 -0.052483313 0.02926493 0.07216266 -0.069716915 0.012044027 -0.026643885
0.05656953 -0.054089017 0.012115052 -0.0022524262 0.026071697 -0.06025756 0.04918558 -0.017983101
-0.017579263 -0.045433614 0.05621357 0.030027837 0.05552206 0.024570642 0.033083808 -0.012173825
0.012556047 0.0066592 0.051735215 -0.005345024 -0.071748026 0.024986874 -0.045115188 0.008331905
0.02595511 -0.06256958 -0.04839578 -0.043120857 -0.049977303 0.023892695 0.034469724 0.06284108
0.07269654 -0.028223863 -0.007831434 0.059324954 0.009519861 -0.07368895 -0.007132817 -0.06355348
-0.013276326 0.04339571 0.07368291 -0.044598736 -0.021313814 -0.05924374 0.028323794 0.06561408
-0.044335905 -0.02733725 0.034677792 0.018072646 -0.06921761 -0.052152973 -0.0009302659 0.005185828
0.020415183 0.010098383 0.021138795 0.053417712 -0.009400938 -0.036146723 0.0023705745 -0.009121988
-0.043790393 -0.037411984 0.019542906 -0.027551094 -0.0224564 0.019034972 0.030403184 -0.06285363
0.019195955 -0.053672202 0.04829995 -0.06019811 -0.04823609 -0.037886553 0.06665093 -0.026872283
0.01138606 -0.020603381 -0.04757902 -0.022246985 0.019890536 0.06770561 0.06789958 0.051759772
-0.030202715 0.050799813 -0.037510186 0.048820566 -0.015215719 -0.042092457 0.050580688 0.047881596
0.050949406 -0.06217746 -0.004910827 -0.019404238 0.006668474 0.04397976 0.030309005 0.034183364
0.020452563 -0.0105263665 0.014339264 0.021974402 -0.0031122575 -0.0062445127 0.013646319 0.023777382
-0.018110063 0.06569723 -0.005445101 -0.05768425 -0.038992602 -0.040078003 0.0638362 -0.014103582
0.07027957 0.06812521 0.07002415 0.061172865 0.066194795 0.005555055 -0.0020797714 -0.016957602
00000000: 29ea 8839 a164 1abd 02aa 53bd eb91 4ebd
00000010: c624 573d 8943 c13c 3092 7f3d af3a 0bbd
00000020: ce2d 173d 8162 43bd 856b 81bd 50bb ac3c
00000030: afdf f43c 9d14 253d 70fa 51bd 0b7d 88bd
00000040: 0e0e 2dbc 16f6 edbc ef04 993d c20e 113d
00000050: 447c 223c c74f 89bd da53 88bd 5bbf 19bd
00000060: 3ba9 88bc c9b8 ee3c e765 913d c494 88bd
00000070: 16a3 013d 739f 3abd 5030 7bbd 6926 743c
00000080: 0b66 7c3d 2a23 8e3d 9f50 bd3c caaf 963d
00000090: a0cd 0cbd e04f 2cbd 1efa 8e3d b2c5 7e3d
000000a0: 1241 9b3a b5c3 0c3d 6cb6 c73c bba6 90bd
000000b0: f751 d5bc a98d 8fbd 8ad9 9d3a 9220 aebc
000000c0: e9da 083b 7301 41bd 9819 943d 6edd b83c
000000d0: 9d43 aa3b 7ddd ce3c 49af 10bd d537 73bd
000000e0: b949 a83c 79ac 6b3d e5c0 89bc e065 9dbb
000000f0: 86f5 cb38 856a 173d 88b8 943d 726a 92bd
00000100: e332 e33b 710a 6c3d 9164 6ebd b7f5 b93c
00000110: a35c 8b3d 2e3e 553d f2c3 0f3d 3a08 8d3c
00000120: eff2 723d 54fc c93b 8111 7dbd 77e1 833d
00000130: 7ae2 b53c c7ca d63b 306d 36bc 02cf 553d
00000140: c270 0a3d 4b55 0bbc 4606 943d b7df 32bc
00000150: 0657 05bd d322 68bd 4f79 3a3c eb96 443d
00000160: 8288 f7bb 7e01 a5bb 24d8 1e3d f0b4 483d
00000170: cee1 733d 4529 943d e6a3 80bd 0c83 70bd
00000180: af8e 873d f754 4ebd cdeb 2fbc 3424 06bc
00000190: 3b0c e7bc 144c 603d a436 74bd ca13 67bd
000001a0: 0b43 44bd 4ed6 263d 7c47 973d ec1b 24bd
000001b0: 27d1 833d 3f8e 61bd cd7e 0fbd be8d 663d
000001c0: 8412 17bd 301c 823d f611 953d 565a 4abd
000001d0: 0251 943c 2ec0 923d 4769 433d 006b 8bbd
000001e0: da9f fa3c 387b 70bd bef8 56bd 02bd ef3c
000001f0: 04ca 933d bec7 8ebd 5054 453c 4744 dabc
00000200: 74b5 673d 728c 5dbd 367e 463c 719d 13bb
00000210: 5094 d53c a2d0 76bd d276 493d 4c51 93bc
00000220: 6302 90bc 9918 3abd 3340 663d f0fc f53c
00000230: 196b 633d 5f48 c93c e382 073d b974 47bc
00000240: e1b7 4d3c 6b35 da3b 4ee8 533d 5025 afbb
00000250: a1f0 92bd 46b1 cc3c b4ca 38bd 8b82 083c
00000260: d09f d43c 7b24 80bd a73a 46bd 7f9f 30bd
00000270: 00b5 4cbd 9dba c33c 2030 0d3d d3b2 803d
00000280: ece1 943d bb35 e7bc 6a4f 00bc b9fe 723d
00000290: 31f9 1b3c 3bea 96bd 68ba e9bb 5428 82bd
000002a0: f284 59bc b3bf 313d 11e7 963d 2aad 36bd
000002b0: 4f9a aebc 90a9 72bd 4d07 e83c ad60 863d
000002c0: 9199 35bd 5ef2 dfbc 4d0a 0e3d 160d 943c
000002d0: f6c1 8dbd 5b9e 55bd 16dd 73ba e1ed a93b
000002e0: be3d a73c b073 253c 442b ad3c 88cc 5a3d
000002f0: 6406 1abc 960e 14bd a45b 1b3b 6474 15bc
00000300: 8e5d 33bd 4f3d 19bd 7218 a03c d5b2 e1bc
00000310: 7cf6 b7bc 3bef 9b3c 1910 f93c 67b9 80bd
00000320: d640 9d3c 62d7 5bbd 2bd6 453d 4b92 76bd
00000330: 3593 45bd ee2e 1bbd 4880 883d 4323 dcbc
00000340: 998c 3a3c 6cc8 a8bc 38e2 42bd 4f3f b6bc
00000350: 7af1 a23c 3da9 8a3d ef0e 8b3d 0e02 543d
00000360: af6b f7bc 7713 503d 48a4 19bd 13f8 473d
00000370: 5a4b 79bc 2469 2cbd b22d 4f3d 7e1f 443d
00000380: 53b0 503d cbad 7ebd 01eb a0bb a3f5 9ebc
00000390: 3783 da3b 1f24 343d 974a f83c db03 0c3d
000003a0: 228c a73c c876 2cbc 3bef 6a3c a903 b43c
000003b0: 04f7 4bbb c59e ccbb cf94 5f3c c9c8 c23c
000003c0: 8e5b 94bc 458c 863d d16c b2bb 5246 6cbd
000003d0: b5b6 1fbd d528 24bd 8ebc 823d b612 67bc
000003e0: bcee 8f3d 3b85 8b3d d268 8f3d 6690 7a3d
000003f0: 2391 873d 2e07 b63b c64c 08bb abea 8abc

conv.2.0.bias f4 [30]
0.005320773 -0.025545051 -0.006502912 0.0017212305 -0.035456605 -0.024673441 -0.0035616774 0.015513862
-0.009344549 -0.026370244 0.06490179 -0.040518716 0.03477697 0.009747862 -0.06762834 -0.0037736262
-0.0027413252 -0.008568735 -0.030444719 -0.047182444 -0.042669367 0.06783445 0.0006300081 0.031412028
-0.031970188 0.031444862 -0.030394848 -0.04633694 -0.027589686 -0.0023072537
00000000: e159 ae3b db43 d1bc 6116 d5bb e99a e13a
00000010: f23a 11bd f51f cabc 086b 69bb da2d 7e3c
00000020: e119 19bc 6906 d8bc 3beb 843d f4f6 25bd
00000030: 4c72 0e3d 7fb5 1f3c ba80 8abd f14e 77bb
00000040: cea7 33bb e163 0cbc 3467 f9bc 6142 41bd
00000050: 13c6 2ebd caec 8a3d 2127 253a e6a9 003d
00000060: 2cf3 02bd 54cc 003d 9efe f8bc cecb 3dbd
00000070: c403 e2bc 4b35 17bb

conv.2.2.weight f4 [30]
0.2940737 0.4513808 0.7082884 0.72894186 0.16799371 0.43297637 0.37387097 0.25924236
0.47975197 0.94738203 0.3489284 0.32313198 0.17921074 0.13336203 0.88097364 0.1721631
0.57665515 0.38584292 0.5863285 0.8007289 0.14204966 0.15772471 0.6125602 0.099701
0.45088488 0.05906018 0.26648 0.84284014 0.22792807 0.51281047
00000000: d490 963e 621b e73e 6352 353f ef9b 3a3f
00000010: 8b06 2c3e 14af dd3e 046c bf3e 6abb 843e
00000020: 0da2 f53e a187 723f bea6 b23e 8e71 a53e
00000030: 0583 373e 0e90 083e 7d87 613f 864b 303e
00000040: ac9f 133f 348d c53e a019 163f 92fc 4c3f
00000050: 7775 113e 9682 213e bfd0 1c3f 0a30 cc3d
00000060: 62da e63e 16e9 713d 1170 883e 5fc4 573f
00000070: fa65 693e 8c47 033f

conv.2.2.bias f4 [30]
-2.4832865e-05 8.8396455e-06 -1.4512646e-06 -3.14128e-05 -3.8569933e-06 -1.0432433e-05 -1.2727697e-05 3.0226527e-05
1.8769777e-05 -3.4153207e-05 3.6553254e-06 -4.593314e-06 -3.4856734e-05 1.4220971e-05 5.643867e-05 -2.4775518e-05
1.2605866e-05 -6.7604624e-06 -2.8909873e-05 -1.5907632e-05 -3.800654e-05 -4.4621836e-05 -1.1775261e-05 1.9731178e-05
-4.1987128e-06 -1.8348454e-05 1.5150456e-05 1.7101063e-06 1.8563776e-05 1.5898416e-06
00000000: 2c50 d0b7 fd4d 1437 12c9 c2b5 3dc1 03b8
00000010: 526b 81b6 f506 2fb7 0b89 55b7 f98e fd37
00000020: ca73 9d37 ba3f 0fb8 034e 7536 4420 9ab6
00000030: 2233 12b8 9b96 6e37 8fb8 6c38 05d5 cfb7
00000040: c87d 5337 eed7 e2b6 7b83 f2b7 6171 85b7
00000050: 3669 1fb8 5528 3bb8 5c8e 45b7 6284 a537
00000060: abe2 8cb6 01eb 99b7 b72e 7e37 ce86 e535
00000070: 68b9 9b37 8b62 d535

conv.2.2.running_mean f4 [30]
0.1862403 0.16080084 0.15860812 0.15856715 0.13694422 0.1359006 0.206346 0.23139141
0.16306512 0.14291248 0.22164465 0.14981884 0.23106302 0.18922055 0.10793123 0.18741117
0.17829533 0.15292867 0.15684414 0.10092407 0.12722768 0.23580122 0.2261931 0.21106508
0.16310416 0.22176908 0.12787028 0.15262981 0.17851125 0.21307953
00000000: c7b5 3e3e faa8 243e 2b6a 223e 6d5f 223e
00000010: 1b3b 0c3e 8729 0b3e 5e4c 533e dff1 6c3e
00000020: 8bfa 263e a657 123e d1f6 623e 1c6a 193e
00000030: c99b 6c3e 08c3 413e 0c0b dd3d b7e8 3f3e
00000040: 0d93 363e 5599 1c3e c09b 203e 47b1 ce3d
00000050: f947 023e e075 713e 2a9f 673e 7221 583e
00000060: c704 273e 6f17 633e 6df0 023e fd4a 1c3e
00000070: a7cb 363e 8531 5a3e

conv.2.2.running_var f4 [30]
0.058426157 0.082873285 0.12034903 0.061893985 0.05901877 0.049283743 0.074492164 0.104129605
0.037842676 0.05248138 0.035873212 0.028674131 0.08120859 0.13088441 0.04206358 0.074564815
0.059829466 0.043470886 0.06210908 0.02535933 0.059516534 0.049568933 0.14449632 0.03601976
0.10704678 0.05521339 0.065979496 0.05328402 0.0934934 0.18271467
00000000: 4450 6f3d 78b9 a93d 8d79 f63d 8c84 7d3d
00000010: aabd 713d c0dd 493d 598f 983d e741 d53d
00000020: ec00 1b3d b7f6 563d caef 123d 03e6 ea3c
00000030: b050 a63d 9006 063e dc4a 2c3d 70b5 983d
00000040: be0f 753d 870e 323d 1766 7e3d 5fbe cf3c
00000050: 9cc7 733d cb08 4b3d d8f6 133e 7589 133d
00000060: 583b db3d 7027 623d 4220 873d 5840 5a3d
00000070: 7879 bf3d 8e19 3b3e

conv.3.0.weight f4 [20, 30, 3, 3]
-0.03674855 0.06087692 -0.041782636 0.038909942 -0.050498147 0.04019538 -0.017318746 -0.054556444
0.051636625 -0.012564278 -0.06053142 0.008366818 0.003629993 -0.047704022 0.038132194 0.059559233
0.058657926 -0.010505466 0.053958602 0.060446188 0.013858706 -0.053927097 -0.03359708 -0.034712333
-0.036690854 0.019214338 -0.053837907 -0.009256871 0.059381235 -0.014721931 0.046913207 -0.05347521
-0.030850489 0.056309722 0.05182289 -0.04518619 0.010814075 -0.044453576 -0.028937703 0.004275271
0.022126446 0.048849206 0.009417446 0.012891529 0.04992737 -0.028107591 0.04035413 -0.022485923
0.035725392 0.023056896 0.029163057 0.0128399255 -0.003997498 0.0134420395 0.048835963 0.030175421
-0.03208169 -0.0019725056 -0.013303631 -0.026838753 0.026891313 0.008818203 0.027266145 -0.025493594
0.034914386 0.018732307 0.06085144 0.029994208 -0.05537185 0.011603841 -0.036082067 0.05523717
0.039184473 0.021870786 0.010601015 -0.056472156 0.0075116456 0.010280667 -0.05386004 0.030987361
-0.009284934 0.018504495 0.030519256 0.018029734 -0.056560073 0.054162852 0.016998183 0.04994509
-0.0067230104 0.0016501894 0.021565767 0.010143607 -0.041286148 -0.017079316 0.022056269 0.029409425
-0.060354836 -0.02667862 0.023369908 0.011346251 -0.058151904 0.039578285 -0.039957266 -0.041328926
0.03078795 -0.006978907 0.006567252 0.058648806 0.0054203896 -0.009251035 0.037286762 0.03317452
-0.020284984 -0.044678144 -0.0035923522 -0.05634135 -0.009968308 -0.034053754 -0.0052203983 -0.016231123
-0.041209005 0.030983074 0.042438425 -0.035825774 0.038312495 0.012411561 -0.03518182 0.02673701
0.006293939 0.037437733 -0.05888033 0.05697973 -0.030071765 -0.014792076 0.055555362 -0.049394783
-0.0034987729 -0.023756113 0.012133289 -0.04797054 -0.05277438 0.0078059207 -0.04848618 -0.02179311
0.028691165 -0.05172411 -0.021831691 -0.012571887 -0.056879096 -0.008606235 0.040885095 0.004456611
0.029550126 -0.038246103 0.0010804455 -0.058919933 -0.0059617287 -0.020700492 -0.0021643788 -0.050052617
0.05293813 0.036507927 0.023666503 0.021540498 -0.025780251 -0.04560913 0.027083667 0.05631076
-0.04981913 0.013514745 0.045499418 -0.0007854477 0.050014377 0.033230107 0.053754997 0.060030386
0.04005984 0.0025961795 -0.059210896 -0.051277705 -0.05908616 0.012665894 -0.041109707 0.022204671
-0.0042338283 0.03356489 -0.024497904 -0.019261057 -0.015246388 0.029802002 -0.05049686 0.043288775
-0.016429516 0.03357466 -0.010531899 -0.011563053 0.042109367 -0.046871305 0.015203543 0.023663916
0.0057734204 -0.048605513 0.030180354 -0.010021396 -0.0062745316 -0.044797428 0.019758504 0.015917813
0.02033986 -0.05117983 -0.0060269795 -0.004098707 0.0008485129 -0.05543848 0.05208441 0.057635978
0.0395807 0.046281848 0.038661636 0.04224733 0.016092416 0.00915981 0.011937776 -0.031492822
0.05265011 -0.060324118 -0.05791663 -0.057442896 -0.01614856 -0.02573315 -0.05633224 -0.005268026
0.055497702 -0.021606216 -0.052365027 -0.04224001 -0.05089271 -0.03088025 -0.02362714 0.049910445
0.04470504 -0.005797364 -0.029569801 -0.053872023 0.032885175 0.04740811 0.054905377 -0.0015341234
-0.057474647 0.05817667 -0.059287872 -0.043243118 0.00887904 -0.05409451 -0.026623538 0.0023057193
00000000: a685 16bd 145a 793d 4524 2bbd 0860 1f3d
00000010: 25d7 4ebd e9a3 243d 0be0 8dbc 9476 5fbd
00000020: ed80 533d 67da 4dbc cbef 77bd fa14 093c
00000030: 2de5 6d3b 4b65 43bd 8130 1c3d 62f4 733d
00000040: 4b43 703d 1e1f 2cbc b203 5d3d 6c96 773d
00000050: a00f 633c a9e2 5cbd 179d 09bd 852e 0ebd
00000060: 2649 16bd 6367 9d3c 2385 5cbd 22aa 17bc
00000070: bd39 733d 4134 71bc 1028 403d d208 5bbd
00000080: 2aba fcbc 06a5 663d 3d44 543d 2815 39bd
00000090: 852d 313c f414 36bd c30e edbc 9317 8c3b
000000a0: 8542 b53c 1b16 483d a24b 1a3c fe36 533c
000000b0: a480 4c3d e441 e6bc 5f4a 253d 6634 b8bc
000000c0: ca54 123d d1e1 bc3c 5de7 ee3c 8d5e 523c
000000d0: 72fd 82bb 003c 5c3c 3808 483d 7232 f73c
000000e0: 1768 03bd 2745 01bb 79f7 59bc f2dc dbbc
000000f0: 2c4b dc3c 397a 103c 405d df3c f1d7 d0bc
00000100: 6302 0f3d 7f74 993c 5c3f 793d 6ab6 f53c
00000110: 98cd 62bd 091e 3e3c caca 13bd 5f40 623d
00000120: e67f 203d 5d2a b33c e1af 2d3c 594f 67bd
00000130: 4024 f63b 3e70 283c 589c 5cbd 35d9 fd3c
00000140: d61f 18bc bd96 973c 8503 fa3c 18b3 933c
00000150: 89ab 67bd ded9 5d3d c63f 8b3c 3993 4c3d
00000160: b34c dcbb 2b4b d83a b1aa b03c 5f31 263c
00000170: aa1b 29bd ece9 8bbc 59af b43c 09ec f03c
00000180: a236 77bd 1f8d dabc 4072 bf3c a0e5 393c
00000190: b130 6ebd d71c 223d 3baa 23bd 8548 29bd
000001a0: 0337 fc3c 51af e4bb 1a32 d73b bb39 703d
000001b0: 869d b13b a791 17bc 01ba 183d 01e2 073d
000001c0: b22c a6bc 6e00 37bd ab6d 6bbb 30c6 66bd
000001d0: 1d52 23bc f37b 0bbd e00f abbb 22f7 84bc
000001e0: c6ca 28bd 37d0 fd3c ead3 2d3d 0cbe 12bd
000001f0: 90ed 1c3d dc59 4b3c d01a 10bd 9307 db3c
00000200: 633d ce3b 4f58 193d 802c 71bd 9463 693d
00000210: 1059 f6bc 775a 72bc 058e 633d 2f52 4abd
00000220: ab4b 65bb 2e9c c2bc b4ca 463c c27c 44bd
00000230: f329 58bd cfc8 ff3b 7299 46bd 7787 b2bc
00000240: bc09 eb3c a9dc 53bd 60d8 b2bc 51fa 4dbc
00000250: 0efa 68bd 2a01 0dbc 2177 273d c308 923b
00000260: 1b13 f23c f2a7 1cbd bc9d 8d3a 0756 71bd
00000270: 9b5a c3bb 1494 a9bc 40d8 0dbb f903 4dbd
00000280: a7d5 583d 5689 153d 41e0 c13c b375 b03c
00000290: 1b31 d3bc a4d0 3abd 91de dd3c 1da6 663d
000002a0: 250f 4cbd f36c 5d3c 995d 3a3d 81e6 4dba
000002b0: e0db 4c3d 4b1c 083d 332e 5c3d 6ce2 753d
000002c0: c915 243d aa24 2a3b 2087 72bd 9208 52bd
000002d0: 5404 72bd 9c84 4f3c a762 28bd 92e6 b53c
000002e0: edbb 8abb 577b 093d d4af c8bc 5dc9 9dbc
000002f0: fccb 79bc 5423 f43c ccd5 4ebd 924f 313d
00000300: 3197 86bc 9585 093d fc8d 2cbc f672 3dbc
00000310: df7a 2c3d 20fc 3fbd 4818 793c d4da c13c
00000320: f62e bd3b 9316 47bd ca3c f73c c830 24bc
00000330: 969a cdbb 827d 37bd 96dc a13c 1366 823c
00000340: c79f a63c f1a1 51bd f87d c5bb 724e 86bb
00000350: bd6e 5e3a 7613 63bd 7656 553d b413 6c3d
00000360: 5f1f 223d 0992 3d3d aa5b 1e3d 890b 2d3d
00000370: 3ed4 833c 0713 163c a996 433c 9efe 00bd
00000380: a4a7 573d 6c16 77bd fd39 6dbd 3e49 6bbd
00000390: fc49 84bc 54ce d2bc a3bc 66bd 689f acbb
000003a0: 8f51 633d 85ff b0bc b67c 56bd dc03 2dbd
000003b0: e074 50bd 94f8 fcbc b48d c1bc e56e 4c3d
000003c0: a21c 373d d0f7 bdbb 5e3c f2bc e9a8 5cbd
000003d0: 9bb2 063d 022f 423d 76e4 603d a414 c9ba
000003e0: 896a 6bbd a94a 6e3d d7d7 72bd b21f 31bd
000003f0: 6579 113c 3492 5dbd 9b19 dabc 8d1b 173b

conv.3.0.bias f4 [20]
0.052445035 -0.04732367 -0.02779822 0.005276327 0.056824125 0.046470698 0.043830886 -0.012304129
0.015663039 -0.009965251 -0.019197844 0.017359061 -0.011660496 0.04766194 -0.026267445 -0.042689845
0.05312922 0.03944115 -0.048333764 -0.055474952
00000000: 9bd0 563d 77d6 41bd 18b9 e3bc 0ae5 ac3b
00000010: 6ac0 683d 0f58 3e3d 0488 333d 4297 49bc
00000020: c64f 803c 4b45 23bc cc44 9dbc 9734 8e3c
00000030: aa0b 3fbc 2b39 433d d32e d7bc 8cdb 2ebd
00000040: 069e 593d 0b8d 213d a0f9 45bd b439 63bd

conv.3.2.weight f4 [20]
0.18586239 0.25028154 0.427831 0.23878714 0.34678915 0.3544691 0.21369042 0.76806253
0.65607125 0.22981875 0.77434474 0.45944032 0.85325843 0.7986399 0.6713545 0.11518919
0.6060387 0.27840763 0.10486285 0.6091895
00000000: b652 3e3e e724 803e aa0c db3e 9e84 743e
00000010: 598e b13e f97c b53e a9d1 5a3e bf9f 443f
00000020: 49f4 273f 9b55 6b3e 753b 463f c33b eb3e
00000030: 256f 5a3f aa73 4c3f e3dd 2b3f 4fe8 eb3d
00000040: 5a25 1b3f 728b 8e3e 55c2 d63d d8f3 1b3f

conv.3.2.bias f4 [20]
7.449776e-05 -2.462204e-05 -2.5489237e-05 -1.467498e-06 2.1432485e-05 -1.6787188e-05 -3.613733e-06 7.915513e-06
-2.465946e-05 3.6725723e-05 1.9053079e-05 -4.6945974e-05 1.8121242e-05 -6.7335124e-05 1.8914708e-06 1.7383363e-05
2.5678569e-06 -8.196656e-06 -2.2367969e-05 -1.7820485e-05
00000000: ae3b 9c38 6e8b ceb7 b8d1 d5b7 d9f6 c4b5
00000010: e9c9 b337 36d2 8cb7 7683 72b6 dfcc 0437
00000020: cadb ceb7 f209 1a38 2dd4 9f37 dbe7 44b8
00000030: 1203 9837 4536 8db8 71de fd35 7dd2 9137
00000040: 7253 2c36 5f84 09b7 d9a2 bbb7 337d 95b7

conv.3.2.running_mean f4 [20]
0.2784955 0.17109972 0.20196873 0.21947469 0.2550813 0.26313597 0.28237468 0.18255208
0.25526938 0.18536916 0.18335709 0.19460109 0.15933238 0.27063128 0.24224858 0.16417186
0.26859197 0.25762543 0.16011636 0.10413753
00000000: f696 8e3e c434 2f3e e4d0 4e3e f9bd 603e
00000010: 049a 823e c2b9 863e 6a93 903e efee 3a3e
00000020: abb2 823e 6ad1 3d3e f6c1 3b3e 8245 473e
00000030: 0728 233e 2f90 8a3e 0310 783e ab1c 283e
00000040: e384 893e 7be7 833e 8bf5 233e 0f46 d53d

conv.3.2.running_var f4 [20]
0.07050227 0.09479445 0.043266647 0.039193626 0.03370121 0.097981215 0.06879114 0.031942826
0.070636824 0.050761607 0.038592596 0.024151782 0.03954057 0.1360225 0.084896386 0.035588246
0.040949225 0.04049115 0.037615355 0.027690124
00000000: 7e63 903d 9823 c23d 5e38 313d 7f89 203d
00000010: 480a 0a3d 60aa c83d 5fe2 8c3d 7bd6 023d
00000020: 0aaa 903d 67eb 4f3d 4513 1e3d f5d9 c53c
00000030: 4bf5 213d 7b49 0b3e 28de ad3d fbc4 113d
00000040: 60ba 273d 0cda 253d 8f12 1a3d 66d6 e23c

conv.4.0.weight f4 [30, 20, 3, 3]
-0.059156816 0.02984807 -0.035578378 0.050975673 -0.0061321333 -0.06343722 -0.06502381 -0.05795474
-0.06633314 0.024542049 0.037414584 0.007206924 -0.059682984 -0.055297524 -0.009994644 0.028700044
0.04699609 0.013111101 -0.0040073837 -0.054045912 0.04943823 0.012403129 0.0014593808 0.031435166
0.025023831 0.00842777 -0.055977445 0.054208647 -0.009019526 -0.06624756 -0.06917002 -0.048362274
0.04349402 0.071430475 -0.033966664 0.045189373 0.043271527 -0.032579158 -0.0146149555 4.220975e-05
-0.02835221 -0.05303824 0.06850831 0.040504918 0.02793176 0.022273138 0.054544117 -0.03423706
-0.0112174675 -0.017324602 -0.05809919 0.047167566 0.009525867 0.0022334983 -0.01026746 0.010775916
0.0047356156 -0.052540734 0.06596109 0.066109456 0.020633044 0.059824735 -0.014850845 -0.01419104
-0.015880926 0.01276598 0.0097535085 -0.027003935 -0.008793224 -0.045928426 0.01096122 0.031583283
0.0062297424 -0.06794682 0.07262043 0.05410289 0.07392578 0.02450051 0.039616276 -0.053977862
0.0573156 0.017581517 0.02481522 0.012315119 -0.009636068 0.025649477 -0.06411904 -0.00948243
0.056292847 -0.006481849 -0.0018290028 0.062240034 -0.05081656 -0.035930537 -0.06544926 -0.009783164
-0.02053882 -0.03216979 0.011011308 -0.06611641 -0.030661648 0.047010332 -0.03542361 0.010495325
-0.04898893 -0.032371968 0.06333022 -0.05554214 0.031142747 -0.05652156 -0.019519866 0.02941231
0.062055796 -0.032387152 -0.03841412 0.027203877 -0.06880585 -0.028235225 0.04146525 -0.06892135
-0.018389944 0.03313227 -0.00046025036 0.006957978 0.059958953 -0.020666571 0.00034975808 0.018446164
-0.051435057 -0.047600724 0.058132254 0.07192588 -0.024292355 0.04084775 -0.067288525 0.052584868
0.04800838 -0.057494946 0.044318955 0.052921444 0.03378816 0.05273049 0.067513555 0.07206347
0.03770002 0.022151295 0.023408826 0.04581682 0.0071699475 0.06957423 0.04354038 0.02929535
0.05769909 0.07313516 -0.05051618 0.027694035 0.03191677 -0.06585467 -0.002968232 -0.0338285
0.061563652 -0.025642112 0.03925796 -0.057255246 0.022398435 -0.017732935 -0.021905795 0.008253718
0.021518664 0.038933273 -0.006564639 0.014724545 -0.031195717 -0.06277003 -0.055837262 -0.027600324
0.010501521 -0.059009172 0.010760909 -0.016388185 -0.03145106 -0.039014835 0.03646569 -0.023535332
-0.038818657 -0.025216393 -0.014141162 0.029836593 0.023510968 0.020323757 0.047199644 0.05611183
0.012800774 0.06691404 0.02197905 -0.029159078 -0.015180549 -0.015272191 -0.07166006 -0.039484873
-0.04262243 0.014658718 -0.021541277 0.020906234 0.012713668 -0.017948953 0.010030774 -0.041991923
-0.032675646 0.060024206 0.034236632 0.044294473 0.0019561956 -0.0135791125 -0.035984766 0.02939769
0.03583992 -0.060561277 0.025073553 -0.005761914 -0.03137713 0.025600744 0.020405628 -0.06814184
-0.055018235 -0.03761378 0.02288219 -0.071642734 -3.5429373e-05 -0.04330479 0.060230065 -0.06688505
0.061553977 0.027664216 0.03413621 0.07024236 -0.028490262 0.041359015 0.06198578 0.00802334
-0.035722997 -0.053399805 -0.0035205854 0.01610252 -0.029240945 0.05064943 -0.027757747 0.052691646
-0.018378928 -0.03270558 0.046577543 -0.066105075 0.072889864 -0.026062384 0.07111922 -0.049155943
00000000: 6b4e 72bd f183 f43c a2ba 11bd decb 503d
00000010: 10f0 c8bb 60eb 81bd 342b 85bd f361 6dbd
00000020: abd9 87bd 680c c93c 0940 193d 0f28 ec3b
00000030: 2576 74bd a87f 62bd 93c0 23bc 5b1c eb3c
00000040: f97e 403d f2cf 563c 5f50 83bb 3f5f 5dbd
00000050: be7f 4a3d 7e36 4b3c b248 bf3a 29c2 003d
00000060: c7fe cc3c a114 0a3c 9b48 65bd e309 5e3d
00000070: a2c6 13bc cdac 87bd 03a9 8dbd 8517 46bd
00000080: c926 323d 244a 923d a120 0bbd 7e18 393d
00000090: 7c3d 313d b971 05bd 9173 6fbc 600a 3138
000000a0: e542 e8bc a03e 59bd 164e 8c3d 7ce8 253d
000000b0: 25d1 e43c 2876 b63c a769 5f3d 293c 0cbd
000000c0: 78c9 37bc 53ec 8dbc 6bf9 6dbd c732 413d
000000d0: 6212 1c3c e25f 123b d938 28bc 788d 303c
000000e0: 392d 9b3b f434 57bd 9c16 873d 6564 873d
000000f0: a106 a93c c80a 753d f550 73bc 8981 68bc
00000100: b718 82bc 6728 513c 2ecd 1f3c 5b37 ddbc
00000110: 7411 10bc 721f 3cbd b096 333c 795d 013d
00000120: de22 cc3b b427 8bbd 05ba 943d fe9a 5d3d
00000130: 6666 973d 4bb5 c83c ad44 223d e417 5dbd
00000140: c3c3 6a3d 1d07 903c 4a49 cb3c 5ac5 493c
00000150: 99e0 1dbc da1e d23c d850 83bd 325c 1bbc
00000160: 5493 663d b165 d4bb 26bb efba 68ef 7e3d
00000170: 0625 50bd e62b 13bd 430a 86bd 9049 20bc
00000180: 0741 a8bc 78c4 03bd c668 343c 0a68 87bd
00000190: 232e fbbc e88d 403d 5918 11bd 95f4 2b3c
000001a0: 9ea8 48bd 7898 04bd 46b3 813d 2880 63bd
000001b0: 131f ff3c 2783 67bd 20e8 9fbc 16f2 f03c
000001c0: 382e 7e3d 64a8 04bd 2058 1dbd aada de3c
000001d0: 15ea 8cbd 8f4d e7bc 77d7 293d a326 8dbd
000001e0: 82a6 96bc b4b5 073d c24d f1b9 c0ff e33b
000001f0: 8597 753d f14c a9bc bc5f b739 691c 973c
00000200: 91ad 52bd faf8 42bd 161c 6e3d e04d 933d
00000210: c300 c7bc f84f 273d 91ce 89bd 3b63 573d
00000220: 6fa4 443d d27f 6bbd cb87 353d 28c4 583d
00000230: 7465 0a3d edfb 573d 8c44 8a3d 0396 933d
00000240: 566b 1a3d a276 b53c dec3 bf3c 6baa 3b3d
00000250: e1f1 ea3b ef7c 8e3d 6657 323d cdfc ef3c
00000260: e255 6c3d e3c7 953d 0eea 4ebd 9ade e23c
00000270: 29bb 023d d0de 86bd ab86 42bb c18f 0abd
00000280: 2b2a 7c3d 680f d2bc f4cc 203d 7a84 6abd
00000290: ec7c b73c a944 91bc c873 b3bc 9a3a 073c
000002a0: e947 b03c 7f78 1f3d 2f1c d7bb 383f 713c
000002b0: 298e ffbc 938d 80bd 9db5 64bd 131a e2bc
000002c0: 920e 2c3c 9ab3 71bd 864e 303c 8440 86bc
000002d0: d4d2 00bd 05ce 1fbd 0c5d 153d 2bcd c0bc
000002e0: 5000 1fbd 9c92 cebc 55b0 67bc df6b f43c
000002f0: 139a c03c 027e a63c 6a54 413d 85d5 653d
00000300: 56ba 513c 3a0a 893d 690d b43c 05df eebc
00000310: d6b7 78bc 3638 7abc 82c2 92bd e4ba 21bd
00000320: db94 2ebd 1f2b 703c 5577 b0bc 8d43 ab3c
00000330: fd4c 503c af09 93bc 1e58 243c b9ff 2bbd
00000340: e6d6 05bd f1db 753d b63b 0c3d 1f6e 353d
00000350: 8433 003b ed7a 5ebc c364 13bd 6dd3 f03c
00000360: e1cc 123d 1a0f 78bd 0d67 cd3c 70ce bcbb
00000370: 4e85 00bd a7b8 d13c b429 a73c f38d 8bbd
00000380: cd5a 61bd e810 1abd 6e73 bb3c 6db9 92bd
00000390: 009a 14b8 5d60 31bd cdb3 763d 07fb 88bd
000003a0: 0620 7c3d 11a0 e23c 69d2 0b3d 3adb 8f3d
000003b0: 6964 e9bc 1268 293d cde4 7d3d 5474 033c
000003c0: 4752 12bd c1b9 5abd 9fb9 66bb 6fe9 833c
000003d0: b58a efbc c775 4f3d 3764 e3bc 32d3 573d
000003e0: 688f 96bc 49f6 05bd 18c8 3e3d 1962 87bd
000003f0: 4847 953d c880 d5bc f4a6 913d be57 49bd

conv.4.0.bias f4 [30]
0.011921829 -0.029047318 0.0065444014 -0.05165108 0.01881746 -0.037800476 0.0047968198 -0.004218062
-0.05184057 0.019770801 0.036246877 -0.034822978 0.020962175 0.006929065 0.0037374336 0.059068143
0.051326755 0.05346985 0.055845674 0.06555485 -0.006550722 -0.033621687 -0.060934957 -0.03944228
0.0038460845 -0.04394908 -0.00048338258 0.052313484 -0.061593164 -0.024950681
00000000: c653 433c a4f4 edbc 6b72 d63b 1590 53bd
00000010: 1327 9a3c acd4 1abd a42e 9d3b ab37 8abb
00000020: c756 54bd 60f6 a13c 9b77 143d 8aa2 0ebd
00000030: deb8 ab3c 360d e33b bbef 743b 70f1 713d
00000040: 013c 523d 3403 5b3d 6fbe 643d 9f41 863d
00000050: 70a7 d6bb e5b6 09bd ef96 79bd 3a8e 21bd
00000060: 970e 7c3b f303 34bd 836e fdb9 aa46 563d
00000070: 1d49 7cbd 5f65 ccbc

conv.4.2.weight f4 [30]
0.16310453 0.24663936 0.08285661 0.7826372 0.21518344 0.7893111 0.37744015 0.08374103
0.87777513 0.7468931 0.93000686 0.064745605 0.87599564 0.87095755 0.16932525 0.08763607
0.5794782 0.62302876 0.6846363 0.8841977 0.90822196 0.020776626 0.8653822 0.35779396
0.21538934 0.25787532 0.21730772 0.25088722 0.8660986 0.6847554
00000000: e004 273e 078f 7c3e bab0 a93d e95a 483f
00000010: 0c59 5c3e 4b10 4a3f d63f c13e 6b80 ab3d
00000020: dfb5 603f 6334 3f3f ee14 6e3f 5899 843d
00000030: 4041 603f 13f7 5e3f 9963 2d3e 8a7a b33d
00000040: af58 143f d07e 1f3f 5344 2f3f c85a 623f
00000050: 3c81 683f be33 aa3c b089 5d3f c530 b73e
00000060: 068f 5c3e 3c08 843e ea85 5e3e 4a74 803e
00000070: a3b8 5d3f 214c 2f3f

conv.4.2.bias f4 [30]
0.0015773495 0.006232222 -0.0062599406 0.00555078 0.0057415925 0.0030367954 0.004243087 -0.0062409765
-0.0058397874 -0.0021000055 -0.0021260174 -0.0018295208 0.0055861548 -0.0031481676 -0.005083805 0.0057701934
-0.00604494 0.005907216 0.0021745549 0.0024715774 -0.0021984412 -0.0035789781 -0.0018428458 0.0054144333
-0.0062334957 0.0029168758 0.0058967588 -0.000532381 -0.005343526 -0.005070752
00000000: 11bf ce3a ab37 cc3b 3020 cdbb 51e3 b53b
00000010: f823 bc3b f904 473b 9809 8b3b 1b81 ccbb
00000020: b05b bfbb 3fa0 09bb a754 0bbb 88cc efba
00000030: 100c b73b 7d51 4ebb 0c96 a6bb e413 bd3b
00000040: a214 c6bb 5291 c13b fa82 0e3b 30fa 213b
00000050: b913 10bb 4a8d 6abb a58b f1ba 8f6b b13b
00000060: 5a42 ccbb 0e29 3f3b 9939 c13b 7c8f 0bba
00000070: bf18 afbb 8d28 a6bb

conv.4.2.running_mean f4 [30]
0.32705617 0.24132852 0.2979399 0.26291376 0.32074717 0.14857267 0.25719061 0.23049732
0.2019579 0.2487252 0.27669075 0.21581483 0.2388836 0.29005632 0.35606965 0.2882633
0.36860806 0.2921663 0.28527528 0.31942746 0.35423598 0.281432 0.1592015 0.2833771
0.43213022 0.2249196 0.24339716 0.23634028 0.22381185 0.20023799
00000000: e873 a73e d31e 773e 948b 983e a29c 863e
00000010: f938 a43e 6f23 183e 7dae 833e 7d07 6c3e
00000020: 0dce 4e3e d2b1 7e3e 69aa 8d3e 90fe 5c3e
00000030: e79d 743e 4382 943e c34e b63e 3f97 933e
00000040: 32ba bc3e d296 953e 9a0f 923e ff8b a33e
00000050: 6b5e b53e db17 903e b805 233e ce16 913e
00000060: 2c40 dd3e 5351 663e 1b3d 793e 3003 723e
00000070: ef2e 653e 300b 4d3e

conv.4.2.running_var f4 [30]
0.04961196 0.058521666 0.06280994 0.044232868 0.053791825 0.044400666 0.027430933 0.042413767
0.07539346 0.033907585 0.03467518 0.03420403 0.035490483 0.060858533 0.057609238 0.046473954
0.05352703 0.036422282 0.032349173 0.06986961 0.06252047 0.0469386 0.039103474 0.081375346
0.104233354 0.09766487 0.041101743 0.053493753 0.041464902 0.048916195
00000000: e935 4b3d 6ab4 6f3d 7fa2 803d 862d 353d
00000010: d154 5c3d 79dd 353d d6b6 e03c 0fba 2d3d
00000020: e367 9a3d aee2 0a3d 9007 0e3d 8619 0c3d
00000030: 785e 113d cc46 793d aaf7 6b3d 795b 3e3d
00000040: 293f 5b3d 882f 153d 9180 043d cc17 8f3d
00000050: bb0a 803d b042 403d f72a 203d 1ea8 a63d
00000060: 4c78 d53d 8504 c83d 4d5a 283d 441c 5b3d
00000070: 1ad7 293d 595c 483d
