service/models/predict_norms/files/termicheskaya.pth (torch_old, 221203 bytes, 33 tensors)

conv.0.0.weight f4 [30, 1, 3, 3]
0.29119197 0.12902568 0.040313236 -0.07542895 0.2767228 0.30743077 0.31805745 -0.21956167
-0.20672752 0.117925376 -0.13186403 -0.13164648 0.21467309 -0.07739105 0.17675927 0.13378738
0.2952161 -0.09316389 -0.06823916 0.01487149 0.32723996 -0.08949549 0.051477026 0.014481591
-0.05597259 0.23829862 0.15160851 0.28371346 -0.07995551 0.15485905 0.2629866 -0.09321111
-0.2452081 -0.29484808 0.19189484 -0.11750842 0.18669575 -0.023051314 0.042079728 0.03480194
-0.18835206 -0.293788 -0.08134594 -0.13510701 -0.15786676 0.012309127 -0.18374269 -0.30574453
-0.047550242 0.2685927 0.012337832 -0.16646282 0.25295597 -0.1145531 0.28519958 -0.05119115
0.27794552 -0.11041783 -0.043171942 -0.11601653 -0.018812824 -0.07542276 0.15711121 0.064256094
-0.124917336 -0.18030298 -0.13422647 0.15139814 0.24567029 0.09338521 0.32046768 -0.30209315
-0.1430425 -0.17654778 0.20339897 0.070653126 -0.048743784 -0.247475 -0.20217219 -0.17214993
-0.18507251 -0.22458345 0.11221393 -0.1366707 -0.024544375 -0.25821418 0.022828626 -0.2529696
-0.3036006 0.24101022 0.24386732 -0.0792918 0.13493082 -0.15205805 0.28901264 -0.1913118
-0.06099295 -0.24560855 -0.29545912 -0.1517725 0.15456866 0.25156575 -0.28704908 0.16905181
0.18098848 -0.03960014 -0.296528 0.052732255 0.09790762 0.032664657 0.0033376217 0.21941638
-0.18702786 0.29462802 0.14606024 0.08257454 -0.03543421 0.236193 -0.27705854 -0.14381573
0.22151597 0.043642525 -0.16456446 0.19686472 -0.3259425 -0.10313706 0.12514599 0.22083963
-0.1331605 0.2675412 -0.31086907 -0.04902309 -0.026248038 -0.04770259 -0.13635916 0.18381181
0.09206668 0.081304565 -0.15081342 0.26373506 0.1881859 -0.19165562 -0.25654453 -0.17398362
-0.1501103 0.11884162 -0.32938492 0.0060427496 -0.024410276 -0.065588236 -0.13469423 0.08229549
-0.28576732 -0.27140075 0.07585826 -0.272679 -0.23339668 -0.19721676 -0.10272682 0.14064685
0.2640696 -0.13452902 -0.20600201 -0.22363335 0.15474938 0.05852942 -0.075840876 -0.2260822
0.13597696 0.24686304 0.0678817 0.14825365 -0.22466464 -0.10073354 0.3091579 -0.045421667
0.11924464 -0.17385645 -0.23118034 0.0063794996 -0.020691846 -0.3268228 -0.2131543 0.02981748
-0.15786818 0.28068694 0.1836214 0.30679476 -0.23035307 -0.12733677 -0.033988014 0.31295007
0.17355444 0.0441664 0.24980338 0.12176256 0.121788695 0.16045913 0.12458332 0.19556145
0.22198221 0.031508863 -0.23278607 0.31189397 -0.020989714 -0.2721666 0.17169006 -0.01754342
-0.13433534 -0.19814287 -0.005862145 -0.20210755 0.076999284 -0.32266676 -0.04585229 0.054951176
0.31390816 -0.07662006 -0.26698875 0.17994493 0.1325511 0.13671127 -0.046268396 0.30545196
-0.14166692 0.3050597 0.014134186 0.21436377 0.22682485 -0.25637645 -0.16623056 -0.23994973
0.26468083 -0.035877053 -0.23073985 -0.11464537 0.32680097 -0.09843219 0.07610477 -0.23133472
0.09225286 0.14207688 0.019850545 0.18354698 0.14200892 0.25016907 -0.10742009 -0.32409072
-0.17553347 0.2069534 -0.31972605 -0.29709932 -0.10882406 0.15060683 -0.20646614 0.07665364
00000000: 1d17 953e 4f1f 043e 7e1f 253d 7e7a 9abd
00000010: 9cae 8d3e 9167 9d3e 6dd8 a23e c6d4 60be
00000020: 61b0 53be dc82 f13d 5d07 07be 56ce 06be
00000030: 43d3 5b3e 337f 9ebd 6200 353e 8fff 083e
00000040: 9126 973e b6cc bebd f9c0 8bbd 8da7 733c
00000050: ff8b a73e 6949 b7bd 93d9 523d 3244 6d3c
00000060: 8443 65bd 8e04 743e 433f 1b3e e442 913e
00000070: b7bf a3bd 5f93 1e3e 2ea6 863e 77e5 bebd
00000080: d517 7bbe 54f6 96be 1580 443e 41a8 f0bd
00000090: 2c2d 3f3e 1cd6 bcbc cb5b 2c3d 7b8c 0e3d
000000a0: 5ddf 40be 616b 96be b398 a6bd 7e59 0abe
000000b0: d3a7 21be 38ac 493c 0b27 3cbe 8c8a 9cbe
000000c0: 0bc4 42bd fb84 893e 9e24 4a3c 3b75 2abe
000000d0: 7283 813e d19a eabd ae05 923e d0ad 51bd
000000e0: e04e 8e3e be22 e2bd 10d5 30bd 139a edbd
000000f0: 5a1d 9abc 3f77 9abd c3e1 203e b398 833d
00000100: a9d4 ffbd 58a1 38be aa72 09be 1d08 1b3e
00000110: fe90 7b3e bf40 bf3d 5714 a43e f4ab 9abe
00000120: bc79 12be f1c8 34be d247 503e 96b2 903d
00000130: 90a7 47bd 166a 7dbe 3a06 4fbe 1248 30be
00000140: a683 3dbe 34f9 65be 6bd0 e53d 67f3 0bbe
00000150: 4911 c9bc a634 84be 1903 bb3c 3b85 81be
00000160: 8a71 9bbe 62cb 763e 5bb8 793e bd63 a2bd
00000170: 4e2b 0a3e 1bb5 1bbe 77f9 933e 3ee7 43be
00000180: bed3 79bd cf80 7bbe 6b46 97be 406a 1bbe
00000190: 3f47 1e3e 3acd 803e 19f8 92be eb1b 2d3e
000001a0: 0b55 393e c233 22bd 85d2 97be c7fd 573d
000001b0: ca83 c83d 60cb 053d 00bc 5a3b b0ae 603e
000001c0: 3b84 3fbe 7cd9 963e d190 153e d71c a93d
000001d0: 7623 11bd 94dc 713e 9eda 8dbe 6e44 13be
000001e0: 15d5 623e 81c2 323d 9683 28be e896 493e
000001f0: efe1 a6be 8639 d3bd 4526 003e c923 623e
00000200: 3a5b 08be 29fb 883e 3b2a 9fbe 70cc 48bd
00000210: 2006 d7bc ca63 43bd bca1 0bbe 2a39 3c3e
00000220: 758d bc3d 0283 a63d d56e 1abe 4808 873e
00000230: ceb3 403e 5f41 44be ce59 83be c328 32be
00000240: 84b6 19be 3c63 f33d 24a5 a8be 4202 c63b
00000250: 0ff8 c7bc 2053 86bd 49ed 09be 8a8a a83d
00000260: 1850 92be 0af5 8abe 935b 9b3d 959c 8bbe
00000270: 8aff 6ebe 31f3 49be 7062 d2bd ba05 103e
00000280: 2134 873e fac1 09be 31f2 52be 2400 65be
00000290: 9f76 1e3e 8cbc 6f3d 7652 9bbd 1882 67be
000002a0: 8b3d 0b3e aac9 7c3e 9005 8b3d cecf 173e
000002b0: 7d0e 66be 634d cebd f249 9e3e 120c 3abd
000002c0: 8936 f43d 6d07 32be 8aba 6cbe 1f0b d13b
000002d0: f281 a9bc 5155 a7be 1f45 5abe ca43 f43c
000002e0: 32a8 21be 33b6 8f3e 4007 3c3e 3414 9d3e
000002f0: ade1 6bbe 9264 02be 0437 0bbd fe3a a03e
00000300: 41b8 313e d4e7 343d 75cc 7f3e a65e f93d
00000310: 5a6c f93d 664f 243e 8a25 ff3d 4341 483e
00000320: 4e4f 633e 700f 013d 795f 6ebe 91b0 9f3e
00000330: 9ff2 abbc 6c59 8bbe 85cf 2f3e 38b7 8fbc
00000340: 348f 09be f7e5 4abe 3d17 c0bb 48f5 4ebe
00000350: cdb1 9d3d 9434 a5be 9ccf 3bbd 7c14 613d
00000360: 92b8 a03e faea 9cbd c0b2 88be 7c43 383e
00000370: 7abb 073e 0afe 0b3e ee83 3dbd 3364 9c3e
00000380: 2211 11be c930 9c3e 1393 673c 2d82 5b3e
00000390: c644 683e c643 83be 5838 2abe 62b5 75be
000003a0: 3f84 873e d1f3 12bd 1147 6cbe 31cb eabd
000003b0: 7552 a73e d196 c9bd d1dc 9b3d 02e3 6cbe
000003c0: 11ef bc3d 9a7c 113e 9c9d a23c bdf3 3b3e
000003d0: c96a 113e 2916 803e 10ff dbbd 38ef a5be
000003e0: 0cbf 33be 98eb 533e 22b3 a3be 671d 98be
000003f0: 26df debd ad38 1a3e dc6b 53be 95fc 9c3d

conv.0.0.bias f4 [30]
-0.043688655 0.10840323 0.022880524 -0.19041675 0.33229697 -0.07574533 -0.13812 0.3203453
0.29024535 -0.035856538 -0.16663797 -0.31506076 -0.32420582 0.29061007 0.19905421 0.08316682
0.23614614 0.22258045 -0.25801185 0.091977686 -0.09055865 0.31117433 -0.2587365 0.005437365
0.09109929 -0.1847194 0.0042300927 0.12044543 -0.094649896 0.16368443
00000000: e0f2 32bd 8302 de3d f06f bb3c 9cfc 42be
00000010: d422 aa3e 5e20 9bbd 546f 0dbe 4d04 a43e
00000020: 0a9b 943e 4ede 12bd 25a3 2abe a54f a1be
00000030: 4efe a5be d8ca 943e ded4 4b3e 5e53 aa3d
00000040: 4bd0 713e 21ec 633e 211a 84be cc5e bc3d
00000050: d076 b9bd 3e52 9f3e 1c79 84be ec2b b23b
00000060: 4492 ba3d 1527 3dbe 979c 8a3b 18ac f63d
00000070: ced7 c1bd e49c 273e

conv.0.2.weight f4 [30]
0.31398663 0.5406835 0.31599602 0.029411787 0.7389522 0.19930507 0.07203812 0.0869546
0.38384548 0.36366242 0.12400562 0.111175984 0.5291622 0.8037176 0.6283364 0.70422375
0.39423192 0.53921366 0.14623627 0.67232215 0.6392175 0.9516771 0.42733335 0.2901998
0.37063938 0.832514 0.89834636 0.5498046 0.33331108 0.8100066
00000000: dbc2 a03e 3c6a 0a3f 3bca a13e fdf0 f03c
00000010: f92b 3d3f a116 4c3e b988 933d 4115 b23d
00000020: 6587 c43e f631 ba3e a9f6 fd3d 3cb0 e33d
00000030: 2d77 073f 70c0 4d3f a8da 203f 0248 343f
00000040: c4d8 c93e e809 0a3f f6be 153e 4e1d 2c3f
00000050: c2a3 233f 1ca1 733f 70cb da3e 1195 943e
00000060: 72c4 bd3e a31f 553f 07fa 653f ffbf 0c3f
00000070: c0a7 aa3e 985c 4f3f

conv.0.2.bias f4 [30]
2.8499046e-05 6.658252e-05 2.4330086e-05 -2.8997576e-05 -1.8374862e-05 1.1744771e-05 0.00021445846 4.6892685e-05
-0.00022714613 0.00015860998 -1.8936506e-05 3.5050358e-05 -7.790887e-05 6.082085e-06 -4.452114e-05 0.00014700317
0.00017611477 -7.442241e-05 -6.980414e-05 6.112226e-05 -3.079622e-05 0.00013529873 0.00027810657 9.6479125e-05
-4.9282775e-05 9.9608815e-06 9.287094e-06 3.3495202e-05 0.00015386783 7.160263e-05
00000000: 3c11 ef37 38a2 8b38 7618 cc37 d23f f3b7
00000010: b723 9ab7 680b 4537 41e0 6039 a3ae 4438
00000020: 132e 6eb9 8b50 2639 d6d9 9eb7 0903 1338
00000030: 0263 a3b8 b614 cc36 36bc 3ab8 dd24 1a39
00000040: 73ab 3839 3a13 9cb8 d063 92b8 c32e 8038
00000050: 302b 01b8 fade 0d39 d5ce 9139 d654 ca38
00000060: fab4 4eb8 a91d 2737 c4cf 1b37 337d 0c38
00000070: 9557 2139 5f29 9638

conv.0.2.running_mean f4 [30]
0.8115175 0.6155642 0.6063888 -0.10226525 -0.23218328 -0.30506322 0.17874965 0.47579515
-0.548109 -0.7960103 -0.47962758 -0.2504555 0.32471028 0.022877684 0.1383754 0.14448592
-0.48215026 -0.44298986 -0.300803 -0.062155843 -0.20218106 1.3182203 0.28371078 -0.7326401
0.6360073 0.15588984 0.01024838 -0.2635693 0.032440744 0.098017775
00000000: 9cbf 4f3f 9e95 1d3f 4c3c 1b3f 7270 d1bd
00000010: 74c1 6dbe 3f31 9cbe 260a 373e 6c9b f33e
00000020: df50 0cbf 55c7 4bbf bf91 f5be b43b 80be
00000030: 6d40 a63e fb69 bb3c 48b2 0d3e 1ef4 133e
00000040: 66dc f6be 91cf e2be da02 9abe 2097 7ebd
00000050: 8d08 4fbe 71bb a83f 8a42 913e 4d8e 3bbf
00000060: 60d1 223f 96a1 1f3e d2e8 273c 8ef2 86be
00000070: 96e0 043d 8bbd c83d

conv.0.2.running_var f4 [30]
0.0058756913 0.0028655098 0.0031672684 0.005997555 0.018660452 0.011360748 0.0023342473 0.0045929044
0.022527065 0.024856012 0.015698882 0.010673549 0.0019851334 0.01724349 0.0070348387 0.011285751
0.021588461 0.025266929 0.0062320884 0.010587671 0.012299927 0.005640618 0.0050122333 0.018160393
0.0046212054 0.0037906023 0.0050291116 0.025442319 0.003064901 0.007835098
00000000: df88 c03b 47cb 3b3b f291 4f3b 2387 c43b
00000010: cedd 983c 6e22 3a3c 2cfa 183b 1380 963b
00000020: ae8a b83c d69e cb3c f19a 803c 1ce0 2e3c
00000030: 0319 023b 3842 8d3c 8184 e63b dfe7 383c
00000040: 49da b03c 97fc ce3c 8c36 cc3b e977 2d3c
00000050: a285 493c efd4 b83b a93d a43b 1bc5 943c
00000060: 7b6d 973b c16b 783b 3fcb a43b 696c d03c
00000070: 82dc 483b c85e 003c

conv.1.0.weight f4 [20, 30, 3, 3]
-0.029580433 0.049394645 -0.036409467 -0.023137687 0.02532859 0.018539974 0.0050986274 -0.032412436
0.03429 0.023642858 -0.0019888266 0.05802053 0.012575979 -0.0058994154 -0.058644343 0.01543852
0.03218575 -0.022821657 0.03742509 0.059843544 -0.011708578 0.029404655 0.017255226 -0.040074036
0.029721832 -0.021356544 0.03870469 0.04166327 -0.037530288 0.056471746 0.0062328107 0.016565874
-8.1598264e-05 0.04531194 -0.041747235 0.031564858 0.028146425 -0.0068616206 -0.019993588 0.018773424
0.013840675 0.045679368 -0.048873927 0.027043888 0.048045196 0.009888837 -0.014522376 -0.043248698
-0.0056052953 -0.004531598 0.055594917 0.028172709 0.057656385 0.040691935 -0.050613362 0.009606933
0.043194737 0.029412236 0.043666285 0.004638325 -0.002090061 -0.045640986 0.011562923 0.039782528
0.020783918 0.059192948 -0.026925517 0.013124061 -0.038481522 0.022343932 0.033789933 0.011660085
-0.014107043 0.048846696 0.03482884 0.06068277 0.0012235132 0.027263757 0.012777799 -0.057588354
0.022076674 0.0010202901 -0.022036871 0.037922215 0.017662216 -0.0029591355 -0.05796763 0.03520344
-0.02469525 0.038323555 -0.036553428 0.04498668 -0.026029568 0.0022762846 0.021441443 -0.052352473
0.044149354 0.005141973 0.007717235 0.036827113 -0.040246982 0.020149417 0.05163798 0.007589044
0.043991193 0.036970332 0.055243615 0.052964628 -0.032785602 0.016767696 -0.0074902396 -0.033421773
-0.026927354 0.0021770322 0.019376617 0.018995846 0.006640039 -0.02966278 -0.028740475 0.025566041
0.031847157 0.0002369014 -0.000327245 0.019356728 -0.034012277 -0.05412699 -0.02011323 -0.015269242
-0.01572008 0.03838266 0.015728528 -0.010130996 0.018174566 0.054543447 -0.018161207 0.023969727
0.0054610902 0.010624783 -0.012747503 -0.011324974 -0.028965637 -0.024662113 -0.035003178 0.0074482067
-0.058466133 -0.05782278 -0.024193456 0.05050823 -0.036367867 -0.0083122095 0.05710208 0.037513494
-0.018497497 -0.01767577 0.036261547 0.02415769 -0.044672027 -0.03290478 -0.037160702 0.03387853
-0.054256987 -0.0008264489 -0.021139137 -0.05423914 0.058797922 0.011298096 -0.0035304276 0.05274445
0.040923305 0.056037195 -0.040018365 0.036614552 -0.033320848 0.012879563 0.04347092 -0.029807296
-0.014695738 0.01649902 0.04249161 -0.032268725 0.04078008 -0.058804035 -0.030595526 0.054787904
-0.04701196 -0.016976139 0.037237674 -0.0077681835 -0.027717704 -0.0408138 -0.041243292 -0.044493742
0.0035276518 0.033257727 0.035454746 0.017183725 -0.034056596 -0.056529187 -0.0054296847 -0.043348886
-0.014755221 -0.007346918 -0.010829446 -0.033813734 -0.04198732 -0.026665242 -0.043050088 -0.056871496
0.025168652 -0.020867262 -0.04337889 0.033571444 -0.0540585 0.0067469985 0.008293382 0.044480357
0.0029405362 -0.053633977 -0.023425955 0.035953898 -0.012538751 -0.040623207 -0.028095108 -0.00061673624
-0.020257356 0.020324668 0.0017479373 -0.017486736 0.0018245826 0.017116293 -0.02366817 0.034400076
-0.05499558 -0.053979702 0.01930964 0.009724879 -0.010450488 0.038783893 -0.016282275 -0.0116039
-0.054933265 0.015151453 0.016015688 0.029563937 -0.05728799 -0.004017008 -0.014264843 -0.007628629
0.0034085673 -0.05085608 -0.03673845 0.050149024 0.033342976 -0.019702053 -0.018794876 0.018640148
00000000: aa52 f2bc 0a52 4a3d 1822 15bd 3f8b bdbc
00000010: e77d cf3c 25e1 973c 6312 a73b e7c2 04bd
00000020: ac73 0c3d abae c13c f956 02bb efa6 6d3d
00000030: 7b0b 4e3c e24f c1bb 0d35 70bd d9f1 7c3c
00000040: 34d5 033d 7cf4 babc 0d4b 193d 811e 753d
00000050: 56d5 3fbc 08e2 f03c d55a 8d3c ac24 24bd
00000060: 337b f33c ebf3 aebc cf88 1e3d 1ba7 2a3d
00000070: 5cb9 19bd eb4e 673d 9b3c cc3b 28b5 873c
00000080: bc1f abb8 0399 393d 26ff 2abd 274a 013d
00000090: 5593 e63c 72d7 e0bb 98c9 a3bc b9ca 993c
000000a0: 00c4 623c 4a1a 3b3d 0730 48bd 258b dd3c
000000b0: 0acb 443d ca04 223c 42ef 6dbc 8c25 31bd
000000c0: a0ac b7bb cd7d 94bb 7fb7 633d 74ca e63c
000000d0: 1a29 6c3d 96ac 263d f54f 4fbd 6666 1d3c
000000e0: f7ec 303d eef1 f03c 6bdb 323d 17fd 973b
000000f0: 68f9 08bb 0bf2 3abd 6a72 3d3c 01f3 223d
00000100: 0943 aa3c 4e74 723d e792 dcbc 4d06 573c
00000110: cd9e 1dbd 9f0a b73c 5067 0a3d f109 3f3c
00000120: 3a21 67bc 7913 483d b0a8 0e3d 7f8e 783d
00000130: 4a5e a03a 3e58 df3c f959 513c c4e1 6bbd
00000140: 24da b43c 41bb 853a ab86 b4bc 5354 1b3d
00000150: 5ab0 903c 0eee 41bb 776f 6dbd 7b31 103d
00000160: b14d cabc 29f9 1c3d 0cb9 15bd f443 383d
00000170: f63b d5bc b82d 153b f7a5 af3c 8c6f 56bd
00000180: f4d5 343d ff7d a83b dce0 fc3b 07d8 163d
00000190: 05da 24bd 6410 a53c 5982 533d 84ad f83b
000001a0: 1c30 343d 346e 173d 2147 623d 70f1 583d
000001b0: 324a 06bd 685c 893c af70 f5bb 45e5 08bd
000001c0: c196 dcbc 8aac 0e3b b6bb 9e3c 2d9d 9b3c
000001d0: af94 d93b 5cff f2bc 2571 ebbc e06f d13c
000001e0: 2a72 023d bc68 7839 1592 abb9 0092 9e3c
000001f0: 7550 0bbd 43b4 5dbd 80c4 a4bc d82b 7abc
00000200: 66c7 80bc 2337 1d3d 1dd9 803c 7afc 25bc
00000210: d4e2 943c f368 5f3d d0c6 94bc 295c c43c
00000220: f2f2 b23b 9213 2e3c e7da 50bc 628c 39bc
00000230: 5849 edbc 3308 cabc 7e5f 0fbd 1610 f43b
00000240: 2f7a 6fbd 94d7 6cbd 5b31 c6bc b8e1 4e3d
00000250: 79f6 14bd ef2f 08bc dfe3 693d c0a7 193d
00000260: 1088 97bc c7cc 90bc fd86 143d 59e6 c53c
00000270: 04fa 36bd 2ac7 06bd d235 18bd 37c4 0a3d
00000280: 933c 5ebd 0ca6 58ba fc2b adbc dc29 5ebd
00000290: 17d6 703d a61b 393c bf5e 67bb 900a 583d
000002a0: 329f 273d 4287 653d 4cea 23bd 24f9 153d
000002b0: 717b 08bd cd04 533c 900e 323d 6e2e f4bc
000002c0: 65c6 70bc f428 873c af0b 2e3d 362c 04bd
000002d0: 0309 273d 80dc 70bd 78a3 fabc 4869 603d
000002e0: 9d8f 40bd 8b11 8bbc 8886 183d 3f8c febb
000002f0: 3d10 e3bc 5f2c 27bd baee 28bd 123f 36bd
00000300: 2d30 673b 4139 083d ff38 113d e2c4 8c3c
00000310: ee7e 0bbd 268b 67bd 7feb b1bb 9a8e 31bd
00000320: e2bf 71bc 6abe f0bb fd6d 31bc 4580 0abd
00000330: e5fa 2bbd 1171 dabc 4a55 30bd 16f2 68bd
00000340: 7d2e ce3c d2f1 aabc 10ae 31bd 3682 093d
00000350: 726c 5dbd ed15 dd3b f7e0 073c 0931 363d
00000360: 03b6 403b 4daf 5bbd cae7 bfbc 6544 133d
00000370: 556f 4dbc 8564 26bd b627 e6bc 78ac 21ba
00000380: c1f2 a5bc eb7f a63c 0b1b e53a 5840 8fbc
00000390: d526 ef3a 7837 8c3c c0e3 c1bc 18e7 0c3d
000003a0: 0c43 61bd d219 5dbd 402f 9e3c 1955 1f3c
000003b0: 8638 2bbc dcdb 1e3d 6862 85bc 491e 3ebc
000003c0: b401 61bd cd3d 783c 5533 833c 1230 f23c
000003d0: d0a6 6abd 1ba1 83bb 17b7 69bc 94f9 f9bb
000003e0: 4562 5f3b 774e 50bd 0f7b 16bd 1069 4d3d
000003f0: a592 083d 3366 a1bc b6f7 99bc 39b3 983c

conv.1.0.bias f4 [20]
-0.018937005 0.040635273 -0.05290141 -0.02587296 -0.017008137 -0.042155385 0.0006418575 -0.018657865
0.026778487 -0.042576917 0.0091139525 -0.02774044 -0.037599318 0.05231023 -0.035339743 -0.010750931
0.018135015 -0.055395562 -0.05956231 0.026787318
00000000: c721 9bbc 2c71 263d 26af 58bd 88f3 d3bc
00000010: a654 8bbc 20ab 2cbd 5442 283a 61d8 98bc
00000020: 8f5e db3c 2265 2ebd b052 153c eb3f e3bc
00000030: be01 1abd 4043 563d 68c0 10bd ac24 30bc
00000040: e28f 943c 75e6 62bd 9cf7 73bd 1471 db3c

conv.1.2.weight f4 [20]
0.9200233 0.9199844 0.61654043 0.32187414 0.23963588 0.30605844 0.43737707 0.08977579
0.9164316 0.52479535 0.58069706 0.9415936 0.35331854 0.094471976 0.5995742 0.59156567
0.9554183 0.8929947 7.900193e-05 0.83406234
00000000: a686 6b3f 1984 6b3f 98d5 1d3f b0cc a43e
00000010: 1c63 753e b1b3 9c3e e3ef df3e 5fdc b73d
00000020: 439b 6a3f fd58 063f 90a8 143f 470c 713f
00000030: 2be6 b43e 867a c13d b27d 193f d970 173f
00000040: 4b96 743f 4d9b 643f d7ad a538 1c85 553f

conv.1.2.bias f4 [20]
-3.6022826e-05 -0.0002958967 0.00018852977 9.9085715e-05 0.00013905102 -7.17423e-05 -6.390513e-05 -0.00012324059
-0.000109571345 0.00013519451 -3.3107626e-05 -2.610771e-05 0.0001169412 -0.00013335548 2.0945847e-05 8.179602e-05
-0.00030590195 0.00015214915 -4.5234825e-05 -1.7024619e-05
00000000: 3717 17b8 9522 9bb9 13b0 4539 3dcc cf38
00000010: 39ce 1139 5b74 96b8 ce04 86b8 253a 01b9
00000020: abc9 e5b8 00c3 0d39 0bdd 0ab8 e101 dbb7
00000030: 543e f538 57d5 0bb9 ddb4 af37 e789 ab38
00000040: 7761 a0b9 3a8a 1f39 86ba 3db8 17d0 8eb7

conv.1.2.running_mean f4 [20]
0.093956806 0.17461617 0.076606825 0.08831423 0.12883654 0.09091275 0.14551197 0.10628624
0.14790314 0.104295224 0.12721442 0.14002848 0.077231385 0.17336941 0.10911232 0.13647413
0.14915136 0.04515388 0.059934724 0.15415786
00000000: 6d6c c03d 95ce 323e 0ae4 9c3d 17de b43d
00000010: baed 033e 7730 ba3d 1701 153e 9aac d93d
00000020: ec73 173e bc98 d53d 7f44 023e a063 0f3e
00000030: 7d2b 9e3d c087 313e 4876 df3d e0bf 0b3e
00000040: 22bb 183e 46f3 383d 1d7e 753d 8fdb 1d3e

conv.1.2.running_var f4 [20]
0.07306895 0.10090598 0.0516736 0.07747195 0.109900765 0.09006583 0.04632126 0.095888756
0.1693809 0.07239992 0.14580007 0.0952035 0.1140503 0.044983443 0.061604656 0.13306959
0.08767723 0.04405126 0.104359545 0.049635578
00000000: 2ca5 953d cba7 ce3d b2a7 533d 9da9 9e3d
00000010: a713 e13d 6f74 b83d 5dbb 3d3d 5361 c43d
00000020: 3072 2d3e 6946 943d 9d4c 153e 0dfa c23d
00000030: 3493 e93d 8f40 383d 2a55 7c3d 6543 083e
00000040: 1f90 b33d 186f 343d 75ba d53d ad4e 4b3d

conv.2.0.weight f4 [30, 20, 3, 3]
-0.009348593 -0.004648765 0.0030263278 -0.0407402 -0.055848055 0.0075885165 -0.033637024 -0.053796776
-0.035769388 -0.00683831 -0.025273168 -0.07267421 -0.016249027 -0.0036914924 0.050244376 0.024060663
0.05544662 -0.02589439 0.025698863 0.054407854 -0.017524155 -0.07394341 0.009442596 -0.045811653
-0.0125200935 0.06433377 0.005709018 0.053223576 0.052492816 -0.03158724 -0.060609277 -0.037425455
0.011958176 -0.04000334 0.016391996 -0.03078434 -0.029873045 0.06059996 0.036712363 -0.07345525
0.008008861 0.006432662 -0.046247914 -0.062395252 -0.002653476 0.0104914615 -0.05668727 -0.040757667
-0.027876759 -0.02982122 0.012617157 0.056893695 0.03923138 -0.00077123963 0.05229589 -0.007148454
-0.062918924 -0.056036517 -0.06885711 -0.030943658 -0.047863353 -0.026200518 0.06757089 -0.0577844
-0.0012441118 -0.06382014 0.027194263 0.016996264 0.024965798 -0.058798634 -0.015488568 0.05161782
-0.07002163 0.06649979 0.06701705 0.023365907 -0.011705673 0.013671039 0.04487616 -0.052936953
-0.05663665 0.04603771 0.040583346 -0.0656234 -0.07134775 0.031495735 -0.032876216 -0.059083812
-0.019031556 0.049406383 0.02978112 -0.04107661 0.060797118 -0.039365318 0.0055809226 -0.047897305
0.010150762 -0.01321742 0.070356 -0.06747279 0.012504487 -0.033748813 -0.009720945 -0.04809175
-0.026525741 0.05578573 -0.016570793 -0.036586702 0.03214816 0.026032636 -0.014632334 0.062274143
-0.021386124 -0.024464276 0.059044544 0.044522993 -0.039729062 0.0066871345 0.059107434 -0.04559871
-0.014589636 0.04734264 0.020831259 -0.050731525 -0.03045329 0.013452324 -0.060840778 -0.07351267
-0.049207166 0.07100457 0.026616458 0.025541713 -0.011853502 -0.026541851 -0.06992267 -0.06279854
0.061853416 -0.037311483 0.012949022 0.06991723 -0.05111032 -0.02422837 -0.005132502 0.007944984
0.071351334 -0.051003244 -0.06334684 -0.042097658 -0.0074612834 0.012074102 0.06658112 0.04517297
0.009274758 0.010943284 -0.040920213 -0.026092453 0.047625173 -0.035021413 -0.019850213 0.013346031
0.061028678 0.02778311 0.05056277 -0.06831854 0.07183049 0.0006107861 -0.072967835 -0.027034568
0.045370344 0.054707635 0.057620756 -0.013039649 -0.034393 0.040703848 -0.002366234 0.0016093554
0.011351982 0.04320735 0.040843144 0.008483018 0.06292276 0.034937296 0.06478339 0.03989328
-0.05550237 -0.008861619 0.052309614 -0.033554018 -0.0650197 -0.024545161 -0.073262855 0.0028245694
-0.05913712 0.006065805 -0.028103448 -0.02351594 0.068548314 0.020924894 -0.06465129 0.023797166
-0.051513385 0.047184575 0.048662793 -0.04860528 -0.05325278 0.014474309 -0.01733337 0.00066511694
-0.00858228 0.040335447 -0.073554024 -0.013716088 -0.012034455 0.045714498 -0.07090147 -0.07040621
-0.025144277 -0.031280816 0.06874009 -0.055631775 -0.021091951 0.03604169 -0.02816661 -0.010618292
0.004797127 -0.0191843 -0.07063834 -0.03893977 0.06482951 0.07308585 -0.053477004 0.02873925
-0.061287694 0.06670602 -0.031561837 -0.012848195 0.048353843 -0.023107655 0.021974992 -0.0711191
-0.037348967 0.015663348 0.0009725717 -0.060235035 0.04919707 0.004319687 0.047688227 0.049012057
0.006166756 -0.00015661842 0.0063953805 0.020622855 0.012408542 0.011103402 -0.06230824 0.0015685669
00000000: d72a 19bc ab54 98bb 5b55 463b 32df 26bd
00000010: eec0 64bd 17a9 f83b fac6 09bd 025a 5cbd
00000020: ec82 12bd e713 e0bb ad09 cfbc 37d6 94bd
00000030: ae1c 85bc f7ec 71bb 0ccd 4d3d de1a c53c
00000040: ff1b 633d 7920 d4bc 6c86 d23c c5da 5e3d
00000050: d18e 8fbc a46f 97bd 1eb5 1a3c 00a5 3bbd
00000060: 1421 4dbc 6cc1 833d b712 bb3b f700 5a3d
00000070: b502 573d 9f61 01bd 6f41 78bd 6f4b 19bd
00000080: 3aec 433c 8bda 23bd 8248 863c 712f fcbc
00000090: 51b8 f4bc aa37 783d b45f 163d b56f 96bd
000000a0: 9937 033c 14c9 d23b 746e 3dbd 2a92 7fbd
000000b0: f1e5 2dbb 61e4 2b3c e930 68bd 83f1 26bd
000000c0: cd5d e4bc a24b f4bc 31b8 4e3c 5d09 693d
000000d0: 15b1 203d 042d 4aba 3734 563d 943d eabb
000000e0: a3db 80bd 8c86 65bd f504 8dbd 8e7d fdbc
000000f0: 5d0c 44bd 78a2 d6bc 9b62 8a3d 56af 6cbd
00000100: 7711 a3ba 22b4 82bd 81c6 de3c c03b 8b3c
00000110: 1385 cc3c d6d6 70bd c3c3 7dbc 356d 533d
00000120: 8067 8fbd 0b31 883d 3c40 893d dc69 bf3c
00000130: 27c9 3fbc 7efc 5f3c 10d0 373d 6bd4 58bd
00000140: d5fb 67bd 0a92 3c3d b93a 263d 9065 86bd
00000150: c51e 92bd ac01 013d 36a9 06bd de01 72bd
00000160: 11e8 9bbc 595e 4a3d 89f7 f33c f33f 28bd
00000170: 6606 793d 873d 21bd 2ce0 b63b f72f 44bd
00000180: 624f 263c e18d 58bc ce16 903d 2d2f 8abd
00000190: 9fdf 4c3c 323c 0abd 9944 1fbc dbfb 44bd
000001a0: 834c d9bc 947f 643d 79bf 87bc f0db 15bd
000001b0: caad 033d 6542 d53c 75bc 6fbc 2c13 7f3d
000001c0: f431 afbc 4e69 c8bc b1d8 713d be5d 363d
000001d0: f1ba 22bd c01f db3b a31a 723d b7c5 3abd
000001e0: 5e09 6fbc 5bea 413d 51a6 aa3c dccb 4fbd
000001f0: 2e79 f9bc 2367 5c3c 2e34 79bd d08d 96bd
00000200: 748d 49bd d86a 913d c20a da3c db3c d13c
00000210: 3135 42bc 4c6e d9bc 9e33 8fbd 859c 80bd
00000220: 025a 7d3d edd3 18bd 2328 543c c430 8f3d
00000230: 0e59 51bd 937a c6bc 8c2e a8bb ae2b 023c
00000240: a620 923d c7e8 50bd fdbb 81bd 986e 2cbd
00000250: c87d f4bb 74d2 453c af5b 883d 4b07 393d
00000260: 28f5 173c 764b 333c f49b 27bd d7bf d5bc
00000270: 9d12 433d 9d72 0fbd ea9c a2bc 50a9 5a3c
00000280: 35f9 793d 6899 e33c e81a 4f3d 97ea 8bbd
00000290: dd1b 933d 291d 203a 2970 95bd 9977 ddbc
000002a0: 41d6 393d 1d15 603d be03 6c3d 41a4 55bc
000002b0: addf 0cbd 14b9 263d d212 1bbb 02f1 d23a
000002c0: aafd 393c 31fa 303d 244b 273d 5bfc 0a3c
000002d0: a6dd 803d 691a 0f3d 27ad 843d 2367 233d
000002e0: 7456 63bd 5330 11bc 9b42 563d f06f 09bd
000002f0: 0c29 85bd ef12 c9bc d60a 96bd 691c 393b
00000300: c439 72bd a9c3 c63b 3439 e6bc 80a4 c0bc
00000310: 0f63 8c3d af6a ab3c e567 84bd 46f2 c23c
00000320: b3ff 52bd 9d44 413d a352 473d 5516 47bd
00000330: 961f 5abd a725 6d3c b6fe 8dbc 3e5b 2e3a
00000340: b19c 0cbc c836 253d 7ea3 96bd 71b9 60bc
00000350: 2a2c 45bc 203f 3b3d ca34 91bd 2231 90bd
00000360: 5ffb cdbc 5020 00bd 9bc7 8c3d 25de 63bd
00000370: 07c9 acbc 73a0 133d aabd e6bc 58f8 2dbc
00000380: 3831 9d3b 6528 9dbc d6aa 90bd 4f7f 1fbd
00000390: 56c5 843d 09ae 953d b40a 5bbd 936e eb3c
000003a0: ce08 7bbd 2a9d 883d fc46 01bd 3c81 52bc
000003b0: ae0e 463d 444c bdbc e604 b43c e4a6 91bd
000003c0: 3bfb 18bd 6c50 803c 2ff4 7e3a 03b9 76bd
000003d0: de82 493d 298c 8d3b bb54 433d dec0 483d
000003e0: 8012 ca3b f039 24b9 5790 d13b 43f1 a83c
000003f0: 334d 4b3c 0beb 353c ed36 7fbd 5f98 cd3a

conv.2.0.bias f4 [30]
0.06329728 0.022530723 -0.02102434 -0.0010195947 0.07124727 0.01663868 -0.007697138 0.014782147
-0.045661457 0.0010906634 -0.03031912 0.06450268 0.04908276 -0.047245093 -0.04190498 -0.0432515
-0.012714975 0.07108725 0.05845718 -0.025784839 0.047874063 -0.03830437 -0.053424012 0.023598671
-0.07289986 -0.036983833 -0.05470392 0.019480903 -0.04927015 -0.04338248
00000000: 01a2 813d 5a92 b83c 3d3b acbc eca3 85ba
00000010: 17ea 913d d74d 883c 4638 fcbb d130 723c
00000020: 8207 3bbd 97f4 8e3a ce5f f8bc fb19 843d
00000030: 010b 493d 1284 41bd 8ea4 2bbd 7c28 31bd
00000040: 7852 50bc 3196 913d cc70 6f3d ba3a d3bc
00000050: 9817 443d 0be5 1cbd 23d3 5abd 0052 c13c
00000060: 864c 95bd 5c7c 17bd 3811 60bd 6a96 9f3c
00000070: 7fcf 49bd d4b1 31bd

conv.2.2.weight f4 [30]
0.7067512 0.71320486 0.416177 0.23233666 0.47320488 0.5614381 0.1547695 0.9249614
0.016169189 0.4655021 0.025134591 0.7950266 0.7588163 0.54208875 0.007614032 0.7912357
0.003922645 0.59309477 0.58973306 0.9080563 0.82786673 0.41558003 0.8902276 0.5119009
0.94835824 0.102956265 0.36411157 0.32373762 0.24526474 0.0077110804
00000000: a6ed 343f 9894 363f 2715 d53e a9e9 6d3e
00000010: e947 f23e 68ba 0f3f e57b 1e3e 45ca 6c3f
00000020: 3f75 843c 4b56 ee3e 0fe7 cd3c dd86 4b3f
00000030: c941 423f 54c6 0a3f 217f f93b 6c8e 4a3f
00000040: 8889 803b 0fd5 173f bff8 163f 6176 683f
00000050: 13ef 533f e8c6 d43e f5e5 633f f00b 033f
00000060: 9bc7 723f bcda d23d d56c ba3e f0c0 a53e
00000070: ae26 7b3e 3bad fc3b

conv.2.2.bias f4 [30]
5.067024e-05 5.6067715e-06 2.8804303e-05 -0.00012468598 4.5279827e-05 9.42424e-05 0.00016702169 7.327223e-05
8.4946245e-05 -0.00017956134 0.00014690585 -0.00011652516 8.8686276e-05 1.9176478e-05 9.2279583e-07 4.756845e-05
-0.00030523515 -0.00012981867 1.7706394e-05 -0.00016979745 -3.3572454e-05 5.9210986e-05 -9.5577336e-05 0.0003169841
8.284113e-06 9.188357e-05 0.00013622355 -3.293889e-05 -0.00032074374 -2.5235538e-05
00000000: c286 5438 cd21 bc36 c5a0 f137 23be 02b9
00000010: d8ea 3d38 01a4 c538 8b22 2f39 bba9 9938
00000020: 2b25 b238 a148 3cb9 bd0a 1a39 f85e f4b8
00000030: 15fd b938 2cdd a037 0cb6 7735 3c84 4738
00000040: f807 a0b9 ef1f 08b9 3188 9437 a80b 32b9
00000050: 26d0 0cb8 5059 7838 b170 c8b8 e330 a639
00000060: fffb 0a37 9eb1 c038 3bd7 0e39 dd27 0ab8
00000070: 7f29 a8b9 e8b0 d3b7

conv.2.2.running_mean f4 [30]
0.24432552 0.2008713 0.16665588 0.17151445 0.27417728 0.17889883 0.17105517 0.20013545
0.12180112 0.20285337 0.14951302 0.24526869 0.22936077 0.20242245 0.16733438 0.13433768
0.18374205 0.2276624 0.23981 0.16531216 0.28180692 0.15414111 0.14493965 0.18121529
0.13711289 0.17080498 0.10741738 0.15326723 0.1549172 0.17705652
00000000: 7830 7a3e 35b1 4d3e d7a7 2a3e 7ca1 2f3e
00000010: f760 8c3e 4131 373e 1629 2f3e 4ff0 4c3e
00000020: de72 f93d cbb8 4f3e f119 193e b727 7b3e
00000030: 8ddd 6a3e d547 4f3e b459 2b3e d18f 093e
00000040: e026 3c3e 5520 693e c190 753e 9747 293e
00000050: ff48 903e 2bd7 1d3e 0f6b 143e 8090 393e
00000060: 5267 0c3e 80e7 2e3e a5fd db3d 16f2 1c3e
00000070: 9da2 1e3e 4e4e 353e

conv.2.2.running_var f4 [30]
0.061559685 0.065443546 0.17777686 0.1094358 0.14197323 0.03182337 0.035594504 0.035804812
0.076447465 0.15853116 0.19023553 0.030383857 0.07848285 0.47065938 0.061629128 0.038075168
0.16647953 0.071095675 0.043940518 0.072770424 0.10297904 0.19517818 0.06482433 0.03469032
0.068232514 0.08551716 0.046612177 0.028702898 0.09921559 0.12272685
00000000: 0226 7c3d 4407 863d 230b 363e e01f e03d
00000010: 6e61 113e 3959 023d 8bcb 113d 11a8 123d
00000020: 7d90 9c3d fe55 223e 1acd 423e 91e7 f83c
00000030: 9ebb a03d 44fa f03e d36e 7c3d b5f4 1b3d
00000040: 9c79 2a3e 9c9a 913d f9fa 333d a908 953d
00000050: ade6 d23d cadc 473e 9ec2 843d 7017 0e3d
00000060: 7dbd 8b3d 9f23 af3d 69ec 3e3d 5722 eb3c
00000070: 8b31 cb3d 3758 fb3d

conv.3.0.weight f4 [20, 30, 3, 3]
-0.059359256 -0.031062882 -0.023640335 0.05815351 0.05357772 0.018850276 0.05533442 0.039448075
0.01837167 -0.011101044 -0.04197827 0.035856623 -0.027621701 -0.03979588 -0.017391229 -0.027732769
-0.008230595 0.02112375 -0.03512562 -0.060329497 0.035931505 0.039188318 0.038005937 -0.047272183
-0.037105598 -0.056407385 0.036325537 -0.04564668 0.044733506 0.0009406299 -0.054622244 -0.059529614
0.008692196 -0.0048929877 0.059628762 0.0207399 0.050030865 0.009580619 0.0013135185 0.021750057
0.033490952 -0.051498894 -0.03486751 0.004243232 0.058170646 0.023898292 -0.026453933 -0.01864376
0.04585074 -0.010236944 0.054116823 -0.036273777 0.0091987 0.052440062 -0.05950172 0.022852827
0.025659624 -0.031722482 -0.033333283 -0.054362588 0.014754579 -0.0389258 0.0035666323 0.05089395
0.043717086 0.014746177 0.057599064 0.04138258 -0.056716066 0.028482514 0.02883298 0.044227034
0.0008673141 0.05969179 0.008586961 -0.039329138 0.049218837 -0.018384783 0.04810428 -0.028538868
-0.05980337 0.015207824 -0.047136173 -0.015885333 -0.027168773 -0.015585898 -0.010595297 -0.036201447
-0.0373876 -0.032587122 0.041268434 0.015734939 -0.03529293 0.008994902 0.01757737 -0.0009903536
-0.031800624 0.031057732 0.012950317 0.002194303 -0.02475776 0.04280239 0.004543647 0.0019842698
0.010181389 -0.012115065 -0.03271735 -0.017888276 0.04021198 0.045879014 -0.053310547 -0.05481817
-0.057460103 0.004923288 0.04492249 -0.021556264 0.02880091 -0.01966127 0.04649174 -0.02271995
-0.051187456 0.034338325 -0.042815804 0.05153969 0.029623374 -0.02437713 -0.009701745 0.05416519
0.04292833 0.024718247 -0.015613053 -0.02835125 -0.017432675 0.0013194338 0.052985407 0.058942635
0.03953384 0.04587766 -0.039737485 -0.01610438 0.013435285 -0.022433376 0.041813806 0.0044096657
-0.053054374 -0.033572353 0.031788204 0.05193079 0.030765535 -0.03849914 -0.017897079 0.03691286
0.025581574 -0.005574217 0.03771936 -0.051834818 -0.036270384 0.010807423 -0.002833205 0.031928353
0.023883028 -0.042592164 -0.026764773 -0.01239422 -0.046767667 -0.055408183 0.036930915 0.018305646
0.03308582 0.015095518 0.027621811 -0.05494784 -0.041441254 0.015989235 0.0209834 -0.045161095
-0.05971088 0.041557655 -0.043998193 -0.050572798 0.061305776 0.0065275654 0.052849658 -0.06069868
-0.021847548 -0.038904224 0.025225956 -0.029267613 -0.0009666771 -0.044216685 0.044170074 0.02315393
0.027843012 0.017243493 0.027744282 0.035978157 -0.04949532 -0.012246922 0.042189673 0.018653061
-0.021924024 -0.0424108 -0.03965139 0.047824882 0.044547223 0.025126679 -0.027935436 0.03439875
-0.022881374 -0.023271514 0.024866873 0.042242706 0.04252949 0.042140447 0.053620297 0.044606693
0.05766322 -0.033892054 0.025703928 0.044927716 0.0075871265 0.04850519 0.027063336 0.01685655
0.024203636 0.016686948 -0.027793461 0.028542 -0.011526603 0.055306617 -0.0058788126 -0.027236104
-0.033355974 -0.054116014 0.01861184 0.0173059 0.036490455 -0.012335693 0.03790228 0.046781264
0.0038358714 0.037740085 -0.012818658 -0.036370263 0.03670777 -0.037908886 0.05185278 0.03728653
-0.021552773 0.043355092 -0.004326847 0.00046487112 0.020013269 -0.053015016 -0.04271661 0.031698063
00000000: b122 73bd 9677 febc 60a9 c1bc 6032 6e3d
00000010: 5074 5b3d e56b 9a3c 58a6 623d 4e94 213d
00000020: 2f80 963c 27e1 35bc 68f1 2bbd 65de 123d
00000030: e846 e2bc 0101 23bd 0d78 8ebc d52f e3bc
00000040: 9ed9 06bc b70b ad3c e2df 0fbd 101c 77bd
00000050: ea2c 133d ee83 203d 1dac 1b3d 7aa0 41bd
00000060: 0afc 17bd 6e0b 67bd 16ca 143d 03f8 3abd
00000070: 7b3a 373d 9b94 763a 93bb 5fbd 53d5 73bd
00000080: b669 0e3c 5b55 a0bb 4a3d 743d b9e6 a93c
00000090: 2aed 4c3d 07f8 1c3c 5e2a ac3a 2d2d b23c
000000a0: cf2d 093d 81f0 52bd 3cd1 0ebd cf0a 8b3b
000000b0: 5844 6e3d 5ac6 c33c ebb5 d8bc ccba 98bc
000000c0: fccd 3b3d dbb8 27bc 9aa9 5d3d d093 14bd
000000d0: 25b6 163c 64cb 563d 13b8 73bd da35 bb3c
000000e0: 2234 d23c 6fef 01bd 7b88 08bd 4eab 5ebd
000000f0: 31bd 713c a970 1fbd 29be 693b 2d76 503d
00000100: b010 333d f399 713c ffec 6b3d c880 293d
00000110: 1b4f 68bd 2954 e93c 2433 ec3c 6827 353d
00000120: 775c 633a 617f 743d 53b0 0c3c 9717 21bd
00000130: b199 493d af9b 96bc fe08 453d 58ca e9bc
00000140: 61f4 74bd 3d2a 793c dc11 41bd f521 82bc
00000150: 0c91 debc ff5b 7fbc e697 2dbc f847 14bd
00000160: bd23 19bd 137a 05bd 1709 293d 8fe6 803c
00000170: 528f 10bd 5a5f 133c 6bfe 8f3c c1ce 81ba
00000180: 5f41 02bd c96c fe3c 912d 543c 4cce 0f3b
00000190: c9d0 cabc 8f51 2f3d e0e2 943b 860a 023b
000001a0: d7cf 263c 447e 46bc a102 06bd 6f8a 92bc
000001b0: 51b5 243d a2eb 3b3d 295c 5abd 0489 60bd
000001c0: 495b 6bbd 8853 a13b a500 383d c396 b0bc
000001d0: e3ef eb3c ac10 a1bc 1f6e 3e3d 301f babc
000001e0: f0a9 51bd 58a6 0c3d a05f 2fbd 481b 533d
000001f0: b8ac f23c 8cb2 c7bc 11f4 1ebc 51dc 5d3d
00000200: 9ed5 2f3d ec7d ca3c e4cd 7fbc e140 e8bc
00000210: f8ce 8ebc daf0 ac3a 3a07 593d d56d 713d
00000220: 3cee 213d 37ea 3b3d c6c3 22bd 55ed 83bc
00000230: ab1f 5c3c 33c6 b7bc f444 2b3d f57e 903b
00000240: 8b4f 59bd 2a83 09bd 5934 023d 61b5 543d
00000250: 0108 fc3c 46b1 1dbd e59c 92bc f031 173d
00000260: 7390 d13c eca7 b6bb 9e7f 1a3d bf50 54bd
00000270: 4190 14bd 9e11 313c 4bad 39bb 4ec7 023d
00000280: 57a6 c33c 1f75 2ebd cc41 dbbc 2011 4bbc
00000290: 748f 3fbd b1f3 62bd df44 173d b9f5 953c
000002a0: ff84 073d 3153 773c 2347 e23c fc10 61bd
000002b0: 4ebe 29bd dbfb 823c 61e5 ab3c d7fa 38bd
000002c0: 6593 74bd 5c38 2a3d 7337 34bd 6c25 4fbd
000002d0: c41b 7b3d 30e5 d53b e278 583d 2e9f 78bd
000002e0: a1f9 b2bc 095a 1fbd aaa6 ce3c a2c2 efbc
000002f0: 9a68 7dba 8e1c 35bd aeeb 343d 50ad bd3c
00000300: 0717 e43c 3a42 8d3c fa47 e33c d55d 133d
00000310: 9bbb 4abd 50a7 48bc 14cf 2c3d 4ece 983c
00000320: 039a b3bc f2b6 2dbd 7f69 22bd 06e4 433d
00000330: 2677 363d 77d6 cd3c dbd8 e4bc b4e5 0c3d
00000340: b871 bbbc e7a3 bebc 9db5 cb3c b006 2d3d
00000350: 6733 2e3d 769b 2c3d f5a0 5b3d 82b5 363d
00000360: 4530 6c3d 65d2 0abd 0b91 d23c 2006 383d
00000370: 6e9d f83b 61ad 463d eeb3 dd3c bf16 8a3c
00000380: b446 c63c 11b3 883c 1daf e3bc ead0 e93c
00000390: 14da 3cbc 3189 623d 0ea3 c0bb 401e dfbc
000003a0: 46a0 08bd c1a8 5dbd dc77 983c 1ac5 8d3c
000003b0: 0477 153d a61b 4abc 6c3f 1b3d b69d 3f3d
000003c0: 3e63 7b3b 5995 1a3d 5905 52bc fcf8 14bd
000003d0: e35a 163d 5946 1bbd 9563 543d c3b9 183d
000003e0: 718f b0bc 1c95 313d 39c8 8dbb f2b9 f339
000003f0: def2 a33c 4626 59bd 9df7 2ebd d4d5 013d

conv.3.0.bias f4 [20]
0.05623133 0.018163854 -0.03669443 0.015699312 -0.045155652 0.011346481 0.04788084 -0.013600178
-0.000266832 0.04766619 0.025844095 0.032625947 -0.014747916 -0.026725762 -0.0021276504 -0.04185552
0.060888022 0.027564283 0.031647913 -0.02879673
00000000: d352 663d 5dcc 943c e64c 16bd d89b 803c
00000010: 22f5 38bd 97e6 393c b31e 443d 48d3 5ebc
00000020: 96e5 8bb9 9f3d 433d ffb6 d33c c9a2 053d
00000030: 3ea1 71bc fcef dabc 0d70 0bbb b270 2bbd
00000040: b865 793d 7ece e13c 3ea1 013d 1fe7 ebbc

conv.3.2.weight f4 [20]
0.8322626 0.89629346 0.3206274 0.0920852 0.118112855 0.8007611 0.43103015 0.3281293
0.001926049 0.18688315 0.37812343 0.9213038 0.428061 0.758833 0.7167143 0.7757291
0.97781265 0.9886843 0.36758986 0.20643651
00000000: 290f 553f 7d73 653f 4629 a43e 2a97 bc3d
00000010: 27e5 f13d aefe 4c3f fcaf dc3e 9000 a83e
00000020: 7b73 fc3a 4c5e 3f3e 6599 c13e 91da 6b3f
00000030: d02a db3e e142 423f 977a 373f 2f96 463f
00000040: ee51 7a3f 6a1a 7d3f bd34 bc3e 1864 533e

conv.3.2.bias f4 [20]
5.7272584e-05 1.7402377e-05 4.1042473e-05 -9.840509e-05 0.00014787496 -1.34277625e-05 -0.00021833979 -1.9056019e-05
8.924687e-05 0.00012642039 -0.00014549332 2.8028393e-05 0.000119441574 0.0001466056 -0.0001692925 -5.0685125e-05
-0.00013090373 0.000144135 -3.2124302e-05 5.8577698e-05
00000000: f837 7038 52fb 9137 0525 2c38 d55e ceb8
00000010: e20e 1b39 cd47 61b7 24f2 64b9 7dda 9fb7
00000020: 0c2a bb38 b78f 0439 918f 18b9 841e eb37
00000030: b57c fa38 24ba 1939 1c84 31b9 bd96 54b8
00000040: 3443 09b9 f222 1739 35bd 06b8 53b1 7538

conv.3.2.running_mean f4 [20]
0.3098119 0.22368346 0.20075193 0.24770488 0.19314349 0.2520812 0.28251928 0.22409992
0.23182975 0.25392523 0.25929803 0.25228208 0.22117674 0.18636611 0.21323341 0.18848285
0.31284964 0.31203473 0.2536008 0.18989937
00000000: aa9f 9e3e 470d 653e ea91 4d3e 59a6 7d3e
00000010: 68c7 453e c910 813e 5ea6 903e 737a 653e
00000020: c764 6d3e 7d02 823e b6c2 843e 1e2b 813e
00000030: 287c 623e c2d6 3e3e dc59 5a3e a601 413e
00000040: d42d a03e 04c3 9f3e f7d7 813e fb74 423e

conv.3.2.running_var f4 [20]
0.056798 0.047493845 0.06418091 0.08281374 0.05431987 0.039185893 0.20527036 0.1299922
0.0848881 0.09923653 0.08039648 0.082247056 0.07718351 0.031907294 0.13569933 0.04563161
0.08102483 0.06955484 0.0811627 0.03885937
00000000: 05a5 683d e888 423d 4871 833d 409a a93d
00000010: 837e 5e3d 6381 203d 6532 523e ad1c 053e
00000020: d0d9 ad3d 863c cb3d e9a6 a43d 2571 a83d
00000030: 6312 9e3d 39b1 023d c4f4 0a3e 36e8 3a3d
00000040: 59f0 a53d c572 8e3d a138 a63d 012b 1f3d

conv.4.0.weight f4 [30, 20, 3, 3]
0.035025675 0.04169153 -0.0056714593 -0.02779275 0.056647997 -0.016754521 -0.04946131 -0.051697586
0.049494002 0.025425203 -0.054772165 0.062370475 -0.005927013 -0.070683196 -0.061170697 -0.04174661
0.04070048 0.06191116 -0.062374383 -0.063823365 0.06218516 -0.05463711 0.07081701 -0.014490263
-0.043703664 -0.044617064 0.017431509 0.024603536 0.016207589 -0.06808974 0.0445884 -0.022104975
0.064365454 -0.048313074 0.034651306 0.03952767 -0.07277113 -0.031091861 -0.0042854445 0.016712835
0.029613743 -0.0647191 0.064780965 -0.03851665 -0.016858095 0.019507283 0.066436395 -0.012698291
-0.03243176 0.06817719 0.04389132 -0.030152615 0.037853573 0.07302197 -0.059473827 0.05761585
-0.0071247937 0.05539846 0.042789005 0.061722394 -0.060619153 -0.0010020302 -0.053227548 -0.026881052
0.025855968 -0.06425056 -0.0348748 0.05085037 0.0011313711 -0.07011133 -0.04441765 -0.07365444
-0.04394213 0.055378653 -0.03309898 0.013658917 -0.02263046 -0.049023833 0.032743502 -0.037033025
0.072974406 -0.032348692 0.032646373 -0.06349908 0.00567738 -0.040750865 -0.032731324 -0.06506527
-0.04309406 0.06167632 0.008613663 0.019906862 0.07398159 -0.039202306 0.009005729 -0.065046564
0.045129273 0.006969267 0.035224598 -0.011537974 -0.049423255 0.06435339 0.06875889 -0.0035915994
-0.056935918 -0.06749966 0.058027126 0.03296156 -0.045228716 0.021540644 0.008584793 -0.05555078
-0.06327495 -0.0340312 -0.056742143 -0.027183885 -0.015892383 0.017358897 -0.050830863 0.058831885
0.013636775 -0.0056247874 0.022657845 -0.063557096 -0.06870405 0.007677312 0.0023841849 0.062780626
0.014959803 0.051775828 0.004443255 0.060842063 -0.05308203 0.054641645 -0.024089864 0.021061873
0.025390305 -0.06412392 -0.06394506 -0.05009074 0.058040783 -0.062812686 0.05246731 0.025498886
-0.028328663 -0.0026919877 0.05925665 0.02867499 0.05811283 0.020836277 0.018242924 0.054730322
-0.061226208 0.020697081 -0.03954071 -0.051729918 0.040945597 0.048050094 -0.0018719868 -0.030431513
-0.023316994 0.028437287 0.062815174 0.030472977 0.0017177018 -0.06912793 -0.07059239 -0.05295314
-0.034901682 -0.04881478 0.045670684 -0.05059537 -0.022495547 -0.07238918 -0.006038405 0.0076348484
0.007020298 0.05289488 -0.036088537 -0.0034837653 0.032100104 -0.036952525 -0.020074926 -0.033870578
0.06604384 0.04093076 0.028054891 -0.07371623 -0.018377047 -0.065938115 0.026130237 -0.071965456
0.07458993 0.0649466 -0.0012662862 -0.016659366 -0.0025566188 -0.054614104 -0.041716944 0.013895406
0.011482773 0.058079846 -0.015316379 0.023070952 -0.023290183 -0.012064199 0.048725307 -0.001463786
-0.034018755 0.06400391 0.04943742 0.0220253 0.028982472 0.04323036 0.057682753 -0.05602376
0.04048154 -0.07373439 -0.022449138 -0.06234203 0.031687632 0.020241916 -0.018586436 0.008921982
0.033352755 -0.014158579 -0.03345188 -0.06820815 0.02029211 -0.0012979705 0.005745757 -0.036472622
-0.069214016 0.043195512 -0.059967767 0.04066742 0.021728516 0.05006478 0.03754538 0.03733636
0.01944823 -0.07201283 0.026298216 0.032813374 0.039983835 0.059630875 0.0075953705 -0.053114124
-0.050230492 -0.02533608 -0.045773808 -0.06113577 0.030156389 -0.059881765 -0.051368568 -0.0640983
00000000: 1577 0f3d bdc4 2a3d a6d7 b9bb 9fad e3bc
00000010: bb07 683d c740 89bc f197 4abd d9c0 53bd
00000020: 39ba 4a3d 8448 d03c c758 60bd 2f78 7f3d
00000030: 6337 c2bb 5ac2 90bd 208e 7abd 7efe 2abd
00000040: 8cb5 263d 8e96 7d3d 487c 7fbd d3b5 82bd
00000050: deb5 7e3d 2acb 5fbd 8208 913d 9168 6dbc
00000060: 9d02 33bd 62c0 36bd 86cc 8e3c 5b8d c93c
00000070: c7c5 843c a272 8bbd 53a2 363d 7e15 b5bc
00000080: 09d2 833d eee3 45bd 87ee 0d3d c4e7 213d
00000090: 0809 95bd 5cb4 febc ea6c 8cbb 5be9 883c
000000a0: 8598 f23c 738b 84bd e2ab 843d a3c3 1dbd
000000b0: fd19 8abc bdcd 9f3c ce0f 883d 7e0c 50bc
000000c0: 2ad7 04bd 7ca0 8b3d 62c7 333d 9e02 f7bc
000000d0: 590c 1b3d 8b8c 953d d49a 73bd 99fe 6b3d
000000e0: 1a77 e9bb 7fe9 623d 8643 2f3d 9fd0 7c3d
000000f0: ca4b 78bd 8e56 83ba 2105 5abd a735 dcbc
00000100: e5cf d33c cc95 83bd e1d8 0ebd 7a48 503d
00000110: 844a 943a 8796 8fbd 48ef 35bd 24d8 96bd
00000120: aafc 33bd bad4 623d cc92 07bd a6c9 5f3c
00000130: 8463 b9bc 37cd 48bd 0d1e 063d f1af 17bd
00000140: 9b73 953d 1080 04bd 34b8 053d ce0b 82bd
00000150: 5109 ba3b 61ea 26bd 4811 06bd f140 85bd
00000160: 6683 30bd 4fa0 7c3d 5220 0d3c b713 a33c
00000170: a983 973d 9992 20bd c48c 133c 2237 85bd
00000180: 79d9 383d 735e e43b ab47 103d c509 3dbc
00000190: 0a70 4abd b6cb 833d 76d1 8c3d 0a61 6bbb
000001a0: a335 69bd 433d 8abd daad 6d3d b302 073d
000001b0: bf41 39bd 0176 b03c 3ba7 0c3c 3789 63bd
000001c0: 4c96 81bd 4d64 0bbd 736a 68bd bdb0 debc
000001d0: be30 82bc 3f34 8e3c 0634 50bd b4f9 703d
000001e0: c86c 5f3c 2350 b8bb f29c b93c 392a 82bd
000001f0: b5b4 8cbd f691 fb3b fc3f 1c3b 2193 803d
00000200: f619 753c e412 543d b998 913b 8735 793d
00000210: 8b6c 59bd ebcf 5f3d 1b58 c5bc f389 ac3c
00000220: 54ff cf3c 6753 83bd a1f5 82bd f32b 4dbd
00000230: 2cbc 6d3d f0a3 80bd f6e7 563d 0ae3 d03c
00000240: 8311 e8bc 0f6c 30bb 1ab7 723d d0e7 ea3c
00000250: b807 6e3d d7b0 aa3c 2f72 953c e72c 603d
00000260: 55c8 7abd ed8c a93c 71f5 21bd c0e2 53bd
00000270: 92b6 273d 2dd0 443d 745d f5ba 824b f9bc
00000280: 4803 bfbc 50f5 e83c 3ea5 803d 77a2 f93c
00000290: 8224 e13a f292 8dbd be92 90bd 64e5 58bd
000002a0: 11f5 0ebd 02f2 47bd 2f11 3b3d 173d 4fbd
000002b0: 9548 b8bc c740 94bd d0dd c5bb c02d fa3b
000002c0: 870a e63b 4da8 583d 93d1 13bd e24f 64bb
000002d0: 667b 033d 885b 17bd 2c74 a4bc e0bb 0abd
000002e0: fe41 873d 03a7 273d 5fd3 e53c 89f8 96bd
000002f0: 768b 96bc 900a 87bd 140f d63c a062 93bd
00000300: 9bc2 983d b902 853d 84f9 a5ba 3979 88bc
00000310: f28c 27bb 0ab3 5fbd 63df 2abd 8fa9 633c
00000320: 3e22 3c3c 22e5 6d3d 8df1 7abc 4bff bc3c
00000330: 0ecb bebc eba8 45bc 3094 473d 82dc bfba
00000340: 4057 0bbd 7b14 833d e47e 4a3d 676e b43c
00000350: a66c ed3c 5112 313d c044 6c3d 2c79 65bd
00000360: f9cf 253d 0e02 97bd 41e7 b7bc 5b5a 7fbd
00000370: e4ca 013d 60d2 a53c 9542 98bc 812d 123c
00000380: e69c 083d 62f9 67bc d704 09bd b7b0 8bbd
00000390: a43b a63c aa20 aaba e746 bc3b 5164 15bd
000003a0: 14c0 8dbd c7ed 303d c3a0 75bd e192 263d
000003b0: 0000 b23c ba10 4d3d 2fc9 193d 03ee 183d
000003c0: e551 9f3c 767b 93bd 5b6f d73c 5167 063d
000003d0: 17c6 233d 813f 743d 96e2 f83b 328e 59bd
000003e0: 7dbe 4dbd 9c8d cfbc 517d 3bbd 8069 7abd
000003f0: 880a f73c 9546 75bd d967 52bd f845 83bd

conv.4.0.bias f4 [30]
-0.056918424 -0.024421697 -0.07252805 -0.03090885 -0.073346026 0.07342036 -0.05929462 0.025116278
0.057737898 0.07139933 -0.06130566 -0.014685194 -0.043850154 -0.03001287 0.07471935 0.043400526
0.045579188 0.029411219 0.017514663 -0.041112214 0.058563497 -0.06005518 0.036734734 -0.050472602
0.065953836 0.03961517 0.033668336 0.0004283318 -0.001969018 0.07100945
00000000: 4b23 69bd 0310 c8bc 9689 94bd 8e34 fdbc
00000010: 7136 96bd 6a5d 963d eade 72bd a7c0 cd3c
00000020: 937e 6c3d d039 923d a51b 7bbd 2b9a 70bc
00000030: 389c 33bd 8ddd f5bc 7506 993d c0c4 313d
00000040: 3eb1 3a3d ccef f03c e97a 8f3c 4865 28bd
00000050: 47e0 6f3d 6cfc 75bd 2977 163d 5cbc 4ebd
00000060: ce12 873d 8443 223d cfe7 093d b991 e039
00000070: a40a 01bb 676d 913d

conv.4.2.weight f4 [30]
0.77414286 0.52822673 0.20396766 0.7509361 0.82702625 0.01832854 0.35033506 0.64570576
0.41649377 0.66922855 0.6128347 0.6862898 0.50679594 0.62483126 0.45017275 0.9826084
0.659963 0.47964832 0.61110014 0.95234376 0.22958212 0.10091736 0.690771 0.6185391
0.15638477 0.17804009 0.9570401 0.047667146 0.7296172 0.96241915
00000000: 3a2e 463f de39 073f e6dc 503e 593d 403f
00000010: feb7 533f bc25 963c 1e5f b33e f94c 253f
00000020: ac3e d53e 9052 2b3f bce2 1c3f b0b0 2f3f
00000030: 61bd 013f f1f4 1f3f 0b7d e63e 398c 7b3f
00000040: 56f3 283f 7794 f53e 0f71 1c3f cdcc 733f
00000050: 9317 6b3e c3ad ce3d 5ed6 303f 9458 1e3f
00000060: 5423 203e 2450 363e 9400 753f a03e 433d
00000070: 31c8 3a3f 1a61 763f

conv.4.2.bias f4 [30]
-0.01270125 0.008290245 -0.0028896222 -0.0053521907 0.011025708 0.01011042 -0.011128799 0.0056208293
-0.0070557557 -0.007729526 -0.010866414 -0.0039333287 -0.010582075 -0.005938825 0.0071693114 -0.011548301
0.011787815 -0.010415514 0.010676518 -0.0010733316 -0.007648867 -0.011686513 0.012670341 -0.0028405327
-0.011834367 -0.0013168893 -0.00962478 0.013065138 0.01190431 -0.0071983584
00000000: e718 50bc cfd3 073c d15f 3dbb 6e61 afbb
00000010: 2ca5 343c 2da6 253c 9155 36bc ef2e b83b
00000020: f833 e7bb f747 fdbb 0b09 32bc 27e3 80bb
00000030: 7160 2dbc 7a9a c2bb 8bec ea3b 1635 3dbc
00000040: ae21 413c d5a5 2abc 90ec 2e3c 08af 8cba
00000050: 59a3 fabb ca78 3fbc 4397 4f3c 3b28 3abb
00000060: efe4 41bc 799b acba 41b1 1dbc 290f 563c
00000070: 4c0a 433c 35e0 ebbb

conv.4.2.running_mean f4 [30]
0.28641215 0.36654326 0.26138818 0.2939922 0.27988696 0.45455208 0.23589231 0.34108657
0.36179528 0.38404164 0.21010467 0.30975378 0.31851158 0.24943337 0.42716005 0.36679137
0.3982085 0.36832082 0.44490588 0.25265175 0.3278927 0.25004745 0.34698454 0.33532667
0.44598877 0.4112296 0.36027747 0.34295392 0.26818144 0.33271062
00000000: 9da4 923e 8fab bb3e acd4 853e 2586 963e
00000010: 584d 8f3e 0dbb e83e c18d 713e e6a2 ae3e
00000020: 3b3d b93e 1ba1 c43e ae25 573e 0c98 9e3e
00000030: f313 a33e 766b 7f3e b9b4 da3e 14cc bb3e
00000040: fce1 cb3e 8c94 bc3e b4ca e33e 925b 813e
00000050: 8de1 a73e 3806 803e f5a7 b13e f0af ab3e
00000060: a458 e43e b08c d23e 4a76 b83e a897 af3e
00000070: 144f 893e 0c59 aa3e

conv.4.2.running_var f4 [30]
0.06909964 0.13636135 0.0828539 0.06674332 0.09211131 0.12322258 0.06365322 0.1410206
0.1279328 0.06689827 0.044729054 0.08152893 0.099236265 0.08284727 0.11878988 0.05836671
0.104835734 0.073569946 0.10748278 0.07232066 0.050398067 0.07328022 0.08243471 0.0773954
0.07507109 0.13180038 0.04326975 0.06639498 0.058554087 0.05195274
00000000: 1d84 8d3d 4fa2 0b3e 4eaf a93d b9b0 883d
00000010: dba4 bc3d 1f5c fc3d 9f5c 823d b467 103e
00000020: d100 033e f601 893d d035 373d a4f8 a63d
00000030: 623c cb3d d4ab a93d 1c48 f33d ee11 6f3d
00000040: 1eb4 d63d d7ab 963d ef1f dc3d db1c 943d
00000050: 346e 4e3d f113 963d 87d3 a83d 7b81 9e3d
00000060: dfbe 993d aef6 063e 9f3b 313d 17fa 873d
00000070: 69d6 6f3d 65cc 543d
