service/predict_operations/conv_model.pt (torch_old, 277282 bytes, 34 tensors)

conv.0.0.weight f4 [30, 1, 3, 3]
000000 3b 37 87 bd ea 17 6e 3e ba af eb 3d d0 3f c6 be
       -0.06602331 0.2325131 0.115081266 -0.3872056
000010 98 42 19 be 0e 2d 9d bd d8 52 bf 3e 04 f6 6a bb
       -0.1496681 -0.07674609 0.37367892 -0.0035852203
000020 f3 b2 99 bc e3 78 12 3d c9 33 5b 3d 5e c2 a3 be
       -0.018762087 0.035759818 0.053516183 -0.31984228
000030 20 07 f4 bd 26 e3 23 3e e4 4e b4 be f0 b4 14 3e
       -0.119154215 0.16004619 -0.3521644 0.14522147
000040 d4 4b ad 3e f6 19 04 3e f0 48 c4 3c f1 50 4f 3e
       0.33846915 0.12900528 0.02396056 0.2024572
000050 0f a9 29 be 61 64 68 3e a4 09 12 be 1d db 26 be
       -0.16568397 0.22694542 -0.1426149 -0.16294523
000060 b1 3d 74 3e 36 cf 92 be bd 0f 87 be a2 fb 50 be
       0.23851658 -0.28673714 -0.26379195 -0.2040849
000070 8d 1b 85 3e d7 b9 99 bd 20 e4 8b 3e ef db b1 3d
       0.25997582 -0.07506149 0.27322483 0.08684527
000080 21 f2 9b 3d 89 c9 83 be 9e bd 67 3c 16 d3 8a 3e
       0.07614542 -0.25739697 0.014144329 0.2711417
000090 46 80 ec 3d 3b c3 75 be e1 e7 ae 3d 86 f7 6e be
       0.11547904 -0.24000256 0.08540321 -0.2333661
0000a0 ce eb 12 be f0 8c ae 3e 32 b9 25 be bf 24 a9 bd
       -0.14347765 0.34091902 -0.16183928 -0.08258962
0000b0 60 21 83 be 5f 49 22 be ac 48 47 be 8d 19 a1 3e
       -0.256114 -0.15848301 -0.19461316 0.31464806
0000c0 e0 26 b0 3c 0d 0e f9 bd ac ef a5 3e dd 20 a0 be
       0.021502912 -0.12160883 0.32409418 -0.31275073
0000d0 23 a9 4b bd 70 7e c8 3e 06 90 7b 3c 03 b4 82 be
       -0.04972185 0.39158964 0.015354162 -0.25527963
0000e0 b5 90 25 be ca b5 73 3e 55 be 19 be ac 68 a8 3e
       -0.16168483 0.23799816 -0.15014012 0.32892358
0000f0 16 a0 96 3e af ed 9a 3e 4c d9 5a be fb 6a 1c 3d
       0.2941901 0.30259463 -0.21371955 0.038187962
000100 bd 3b 08 3e 7b bf 85 be af ab 6b be 44 60 92 be
       0.13304038 -0.2612265 -0.23014711 -0.2858907
000110 3a 88 04 be f0 31 98 be 3d 42 22 3e 1a 87 99 bd
       -0.12942591 -0.297256 0.1584558 -0.07496472
000120 c9 97 99 bb 80 0d 94 3e 1f 88 16 be 38 26 6a be
       -0.0046872837 0.2891655 -0.14700364 -0.22866142
000130 2a a8 94 be 2f d2 c3 bd 82 49 9b be 12 5f 33 3d
       -0.2903455 -0.09561574 -0.3032952 0.043791838
000140 20 57 a0 be a4 d2 3b be 5f be 3e be 27 cb 3c be
       -0.3131647 -0.18342072 -0.18627308 -0.18436871
000150 25 5b 78 be a8 c4 9e be 7d be 31 3e 67 46 97 be
       -0.24253519 -0.31009412 0.17357822 -0.295459
000160 2b 91 a2 be 54 2c 66 bd 53 3b c4 3e d2 02 e5 3d
       -0.3175138 -0.05619462 0.3832651 0.111821786
000170 be 7c 97 be e6 23 87 3e dd f1 b3 bd ad c9 dd 3d
       -0.29587358 0.26394576 -0.08786366 0.10829482
000180 11 b4 8f 3e 8c 90 56 3e a4 b2 62 be b5 b7 ae bd
       0.28067067 0.20953578 -0.22138458 -0.08531133
000190 cc ec de 3c cd 74 98 3d 9c 61 b4 3d 59 f4 87 bd
       0.027212523 0.07444153 0.0880768 -0.066384025
0001a0 a2 32 21 3d d6 03 b5 3e b4 93 64 3e ad 03 dc be
       0.039354928 0.3535449 0.2232197 -0.42971554
0001b0 37 29 3d be 48 23 1b be 7e d5 8a be 8a 78 77 3e
       -0.18472753 -0.15150177 -0.27116007 0.24167076
0001c0 b4 3d e3 3c f3 9f 13 3e ba da a5 3e 8a 2b 06 3d
       0.027739383 0.14416485 0.32393438 0.032756366
0001d0 d6 ad 8d 3e 24 92 5f 3e b4 8b 88 be 75 63 96 3d
       0.2767169 0.21833092 -0.26669085 0.07343189
0001e0 c1 95 14 3e f3 ac 96 be eb 6e 0d 3d 28 48 3a 3e
       0.14510252 -0.29428825 0.034529608 0.18191588
0001f0 53 67 9d 3e 9f 37 83 3e 19 45 84 be e2 1d df be
       0.30742893 0.25628373 -0.25833967 -0.43577486
000200 4a 19 b4 bd 62 5e 51 be 2d 46 56 be 13 f4 de bd
       -0.08793886 -0.2044616 -0.20925207 -0.10886397
000210 87 d5 8c 3e 64 d8 d9 3c cd 1c 7d 3d 8f cb ab 3e
       0.27506658 0.02659244 0.061795045 0.3355374
000220 7b ff dc bd 1e 4b c9 3d d6 b2 fd 3c 33 6b 7e 3d
       -0.107909165 0.098287806 0.030969065 0.062113952
000230 56 a2 24 be 26 2a a4 3e 41 1c 8e 3d e0 c2 52 be
       -0.16077551 0.32063407 0.06938983 -0.20582151
000240 1b f6 4b 3d b9 e7 91 3d cd 96 b6 3e c1 1d a7 bd
       0.04979525 0.07124276 0.35661927 -0.08159972
000250 69 3a 95 bd ba 1b dd 3d 56 ed 96 3e 9e e9 d7 3e
       -0.072865315 0.10796304 0.29477948 0.42170423
000260 ee 6b 96 3e 63 3a 52 3e 2b 08 86 be ef 03 1e 3e
       0.2937922 0.20530085 -0.26178107 0.15431188
000270 70 51 93 be 01 62 1d 3e 7b 98 ce 3e e7 33 29 3e
       -0.2877307 0.15369417 0.40350708 0.16523705
000280 cd b7 60 bd ca 34 7b 3d f7 c0 ee bd 16 45 49 be
       -0.054862786 0.06132964 -0.11657899 -0.1965526
000290 3a c7 a0 be 1c 34 94 bd c5 83 73 be e9 e5 73 be
       -0.31401998 -0.072365016 -0.23780735 -0.23818173
0002a0 ff c5 e8 bd 0a 09 87 be 3b b4 27 be ca 43 94 bc
       -0.1136589 -0.26374084 -0.16377346 -0.01809873
0002b0 60 c5 8a 3e da 41 73 bd 71 9e d9 bd 31 09 d1 bd
       0.2710371 -0.059388973 -0.106259234 -0.10206831
0002c0 9f 34 ab 3e 8e 08 85 3e ba 5e 88 be b6 ea 95 3e
       0.33438584 0.2598309 -0.2663477 0.29280633
0002d0 de 48 dd 3d d2 2e 1a bc 26 db a6 bd 72 09 b9 3e
       0.10804914 -0.009410577 -0.08147268 0.3614002
0002e0 d6 35 91 bd 51 74 92 be c8 54 a7 be 21 54 2b 3e
       -0.070903465 -0.28604367 -0.3268187 0.16731311
0002f0 12 e4 47 3e 46 28 43 3e d5 bc ae be 0e ef 38 3d
       0.19520596 0.19058332 -0.34128442 0.045149855
000300 da 0a 75 be c0 e7 2d 3e 72 5f 94 3d 6a 44 61 3e
       -0.23929921 0.16982937 0.07244767 0.21998754
000310 52 88 9c be ef b0 9e 3e 3b 79 2e 3e 20 c7 ba 3e
       -0.30572754 0.30994365 0.17038433 0.36480045
000320 89 89 f0 3d 5d 42 73 bb ec ed af 3b 86 52 3f 3e
       0.11744983 -0.0037118413 0.0053689387 0.18683824
000330 e9 8d b4 bd ba c5 16 3e d0 61 ca be 9f e7 93 be
       -0.0881613 0.14723864 -0.3952775 -0.2888765
000340 c5 48 9b bd 58 7c db 3e 4f 1c 60 be b3 a2 02 3e
       -0.07582239 0.42868304 -0.21885799 0.12757377
000350 ab fe ad 3d 10 af 69 3e 5c 49 1c 3c c6 45 83 3d
       0.0849584 0.22820687 0.009538975 0.064097926
000360 18 78 51 be 74 fa 84 bd 55 bf 12 3e a7 af 5a 3e
       -0.20455968 -0.06493083 0.143308 0.21356069
000370 d7 ad 42 be 13 15 5a 3e 1b 9b b2 be 34 8b c5 3e
       -0.19011627 0.21297102 -0.3488396 0.38582766
000380 c0 f7 49 3e c5 67 cf bd 50 ef e6 3d f1 fb 88 bd
       0.19723415 -0.10127214 0.11276114 -0.06688679
000390 f7 ec ca 3d 49 17 6f be bc a3 3d 3d 96 fa 8f 3e
       0.09908479 -0.23348726 0.046298727 0.2812087
0003a0 24 57 5b be d5 98 97 be 1b cf 72 3c e6 92 ae 3e
       -0.2141996 -0.2960879 0.014819886 0.3409645
0003b0 e4 46 38 be f5 95 af be 9d f5 81 bd be 42 9c 3e
       -0.17995793 -0.34294096 -0.06345675 0.3051967
0003c0 ca 40 ca 3d ba 71 b7 3e f2 8b 0b be fd 44 ef bd
       0.09875639 0.35828954 -0.13627604 -0.1168308
0003d0 52 80 64 3e 60 2c 86 bd 9f 8c 27 be 84 c9 9b 3e
       0.22314575 -0.065514326 -0.16362236 0.30427182
0003e0 79 88 8a be 39 70 9e 3d 22 9c 9a be 9b f0 a9 3e
       -0.27057245 0.077362485 -0.30197245 0.3319138
0003f0 70 53 bc 3e 96 8f a0 be 84 70 e1 bd fd 9e 75 3e
       0.36782408 -0.31359547 -0.11007789 0.2398643

conv.0.0.bias f4 [30]
000000 a7 58 04 3e 3b 3f 56 3d 71 0d bf 3d 12 c1 28 3e
       0.12924443 0.052306395 0.093287356 0.164799
000010 df e0 55 bd 35 d0 8a 3d ae d7 0a be 68 61 14 be
       -0.052216407 0.067779936 -0.13558838 -0.14490283
000020 13 90 95 3e 2d 05 33 3e 46 c2 c3 bd 45 08 69 3e
       0.29211482 0.17482443 -0.09558539 0.22757061
000030 af 02 3f 3c aa ec c2 bd 4e a2 04 be 95 7f ca 3d
       0.011658355 -0.09517796 -0.1295254 0.098876156
000040 7f f8 d8 bc b5 81 9b 3c 91 c8 c5 bd 6f 76 3b be
       -0.02648568 0.018982748 -0.09657396 -0.18306898
000050 8f ac 90 3e 47 e1 33 be 91 b0 39 bd 3c f8 c4 bd
       0.28256652 -0.17566405 -0.045334402 -0.096176594
000060 2a 96 e5 bd 78 d3 c8 bd 30 7a e2 bd 43 81 43 be
       -0.11210282 -0.098059595 -0.11058462 -0.19092278
000070 18 cb 87 be 74 bb 18 be
       -0.26522136 -0.14915258

conv.0.2.weight f4 [30]
000000 7c 79 5f 3f f9 a8 6f 3f 4b 62 57 3f 88 f2 9c 3f
       0.87294745 0.93617207 0.8413436 1.2261515
000010 0f 67 41 3f 4c fb 82 3f 68 11 7a 3f fa 49 52 3f
       0.7554788 1.023294 0.9768281 0.8214413
000020 ef 5b 3f 3f a8 91 3e 3f 14 91 93 3f a1 77 82 3f
       0.74749655 0.74441004 1.1528649 1.0192758
000030 7d b4 80 3f 34 83 8a 3f c8 a5 65 3f ab 1f 87 3f
       1.0055081 1.082129 0.8970609 1.0556539
000040 05 5b 96 3f 31 cb 96 3f 33 a7 52 3f 80 94 8c 3f
       1.1746527 1.1780759 0.82286376 1.0982819
000050 95 5d a1 3f c9 6f 75 3f aa 21 8a 3f 46 df 90 3f
       1.2606684 0.95873696 1.0791523 1.1318138
000060 0e 5a 81 3f e9 d5 3a 3f fb e6 9d 3f 79 fa 4d 3f
       1.0105608 0.7298265 1.2336115 0.80460316
000070 70 d0 84 3f 23 30 91 3f
       1.037611 1.1342815

conv.0.2.bias f4 [30]
000000 21 17 96 38 ad a6 b3 b8 c5 99 53 b9 a5 36 5f b8
       7.1568655e-05 -8.566431e-05 -0.00020179812 -5.3218235e-05
000010 d1 09 d3 b8 1f 80 ab b7 a3 ed 7a 38 b4 65 8a b7
       -0.000100630925 -2.044445e-05 5.982596e-05 -1.6498241e-05
000020 82 31 5e 35 39 6f 03 b8 16 d5 ba 39 a6 4f 12 39
       8.277349e-07 -3.1336418e-05 0.00035635446 0.00013953316
000030 84 b5 70 39 9f 2c e6 b9 97 73 15 b9 e9 5c 11 38
       0.00022955803 -0.00043902264 -0.00014252808 3.4657223e-05
000040 05 c9 ea 37 da 84 3e b8 76 19 12 b9 ef bc 9a b9
       2.798858e-05 -4.5423258e-05 -0.0001393313 -0.00029513935
000050 ac ae e9 b9 77 5e b9 b7 ac c5 7d b9 04 3d c3 38
       -0.00044571364 -2.2097707e-05 -0.00024201599 9.3096896e-05
000060 77 6a 99 b7 0d b8 2a b6 8c 9e 73 39 40 22 95 39
       -1.8288598e-05 -2.5439106e-06 0.00023233349 0.00028445013
000070 ba ee e4 ba 6a 8c f3 b9
       -0.0017466166 -0.00046453188

conv.0.2.running_mean f4 [30]
000000 34 3b 25 3e fa d6 0c 3e dc 5d 51 be e5 7e 19 3f
       0.16135865 0.13753882 -0.20445961 0.5995925
000010 02 6c 15 bf 1f ec 93 3e cf 85 84 3e c6 be 83 bf
       -0.5836793 0.28891084 0.25883338 -1.0292594
000020 33 57 2f bf 9e 71 a9 bf c6 be 22 3f 0a a6 e7 3e
       -0.6849243 -1.3237798 0.6357235 0.45243865
000030 d0 c3 e4 3e 14 1d 0b 3f 29 59 80 bf 8b 1f 08 3f
       0.44680643 0.54341245 -1.002721 0.5317313
000040 50 27 ae 3f 9e 13 0b 3f 7e 2f da bf 98 2c cf 3e
       1.3605747 0.5432681 -1.7045743 0.4046371
000050 00 c7 b1 3e 0e ef 41 bd 55 5a e6 3e 4e 46 84 3e
       0.34722137 -0.04734712 0.44990793 0.25834888
000060 33 69 6b 3e 4c 0a e1 be 57 37 8f 3e c1 53 26 be
       0.22989349 -0.43953168 0.27971908 -0.16242887
000070 12 79 f1 bd 90 00 f1 3d
       -0.117906705 0.117676854

conv.0.2.running_var f4 [30]
000000 85 b4 49 3b bb 88 bd 3b 3b cf 3a 3c ab 87 dc 3b
       0.0030777764 0.005784122 0.011401947 0.00673004
000010 d0 30 91 3c 7c 31 06 3c 77 b3 fe 3b 67 d7 1c 3d
       0.01772347 0.008190509 0.0077728587 0.03829136
000020 76 f8 46 3d 99 bb d5 3d 00 31 a4 3c 54 e0 77 3b
       0.048576795 0.10436172 0.020042896 0.003782292
000030 18 8e 31 3c 98 39 51 3c fd a2 38 3d 8c 83 f9 3b
       0.0108371 0.012770079 0.045077313 0.0076145586
000040 fb 90 6f 3d 56 51 11 3c 47 45 ee 3d 2d c0 2c 3c
       0.058487874 0.00886949 0.11634307 0.010543865
000050 f5 66 ec 3a ab 70 10 3b f5 5c 2a 3c 3c 47 cc 3b
       0.0018036055 0.0022039812 0.010398139 0.0062340777
000060 fd 86 d3 3b 0d 50 13 3c d0 e8 b8 3b fc c2 d4 3a
       0.006455301 0.008991254 0.005642988 0.0016232426
000070 aa 0d 9c 3b 18 48 90 3b
       0.004762371 0.0044031255

conv.1.0.weight f4 [20, 30, 3, 3]
000000 59 cf 37 bd 94 a6 01 3e 20 11 00 3e fb 21 0b be
       -0.044875477 0.12661201 0.12506533 -0.13587181
000010 a5 09 d4 bd b4 f6 3c bb 81 06 73 3d 23 15 55 bd
       -0.10353402 -0.002883357 0.059332374 -0.05202211
000020 43 27 be 3c 73 86 c8 bc cc c1 e1 3c de 72 1d 3c
       0.02321208 -0.024478173 0.02755823 0.009609906
000030 67 3a 4e be af c7 84 bb ba c4 95 bd 71 cc 83 bd
       -0.20139466 -0.0040521245 -0.07312913 -0.064354785
000040 7c 81 f6 3c c7 9a 69 3d 18 5d a2 bd 4f 65 88 3d
       0.03009104 0.057032373 -0.079279125 0.06659948
000050 02 64 04 be e4 4d 20 be a3 ce e9 3c 11 21 77 bd
       -0.12928775 -0.15654713 0.028540915 -0.06033427
000060 6d c1 56 3c 95 2b c3 3b 64 62 cc 3a be 11 9e bd
       0.01310764 0.005956123 0.0015593288 -0.07718228
000070 e1 49 1d be 12 4a c4 3d 79 b1 4a bc f8 cb 77 bc
       -0.15360214 0.0958444 -0.012371414 -0.0151243135
000080 2b 67 66 3d 77 24 01 be 9b 58 bf 3d 34 55 bc bd
       0.056250732 -0.12611566 0.09343072 -0.09195939
000090 7f 2d 13 be 79 9a 65 bd b2 68 5a bb 3d 28 74 3c
       -0.14372824 -0.05605552 -0.0033326563 0.014902172
0000a0 05 90 b6 3c 2c 80 7f 3d 64 e1 eb bc 7a da 9c 3d
       0.02228547 0.062378094 -0.028793998 0.076588586
0000b0 fa dc 9b bd 13 f4 d8 bc 7c 54 0e be 50 cd b9 3c
       -0.07610507 -0.026483571 -0.13899416 0.022680908
0000c0 d8 91 3b 3d 34 85 16 bd cd 01 ec 3d 80 7e eb bd
       0.045793384 -0.036748126 0.11523781 -0.11498737
0000d0 bc dd a6 3d 96 8b 8c bd f8 1f 7c bd 19 9b d6 bd
       0.08147761 -0.068625614 -0.061553925 -0.10478801
0000e0 c3 b0 94 3b 34 dc 82 bd 2e 49 3f 3d 74 c1 48 bc
       0.004537673 -0.06389657 0.04670065 -0.012253154
0000f0 74 de 23 bd 56 c7 77 3c b1 a7 2a be ad 18 05 be
       -0.04000707 0.015123209 -0.16665532 -0.12997694
000100 6d 86 b5 3d a4 b6 94 3d 2a 7d 58 bc 5a a4 e5 3c
       0.0886353 0.072613984 -0.013213435 0.02803247
000110 5a cd c2 bd b0 56 6c 3c ee 29 50 3d 0e 26 c1 3a
       -0.09511824 0.014424965 0.050821237 0.0014736073
000120 e6 8d f7 bd 5a 5b e4 3d e4 dd 6c 3d 94 5a ed 3c
       -0.12087612 0.111502364 0.0578288 0.028973855
000130 5b da 05 bc 44 90 9c bd 45 e8 a5 3d 84 a2 21 3d
       -0.008169736 -0.07644704 0.081009425 0.039461628
000140 de 54 95 bd 88 d5 8a bd 63 e6 ee 3c bc ba 9f 3d
       -0.07291578 -0.06779009 0.029162591 0.07799289
000150 d4 bd a1 bc 7f f4 56 3d 1f 5e 1b bc 0d dc 11 3d
       -0.019743837 0.052479263 -0.009482889 0.035610247
000160 6e 16 4f 3d d6 d7 42 bd 56 f6 8d bb 12 09 1e 3e
       0.0505585 -0.04756912 -0.004332344 0.15433148
000170 a2 59 20 be 26 22 e7 bc f7 d5 be 3d 95 93 9f 3c
       -0.15659192 -0.028214525 0.09318154 0.019479552
000180 a1 c3 94 bd be bb c6 bc 5e 39 4b bd c5 97 1d be
       -0.07263876 -0.024259444 -0.049615256 -0.15389927
000190 cf 08 e5 3d 3c 05 c2 bd 61 f6 2e bc 6c 12 32 3d
       0.11183321 -0.09473655 -0.0106788585 0.0434746
0001a0 10 6a c6 3d 46 8f 31 bb bc 35 16 be c9 3b f6 bb
       0.096881986 -0.0027093454 -0.14668936 -0.007514451
0001b0 48 b8 ce bd 6f 51 a1 bd 8c f8 0f 3d fe 03 cb bd
       -0.100937426 -0.0787686 0.035149142 -0.09912871
0001c0 59 b1 ef 3c 07 51 ed bd a4 40 ea bc dd 7a a9 bd
       0.02925937 -0.1158772 -0.028595276 -0.082753874
0001d0 6e c7 38 bd 46 68 0c 3c 1a b7 25 3d 5e 5e 96 bd
       -0.045112066 0.008569783 0.040457822 -0.07342218
0001e0 61 43 42 be 96 6b 00 be 31 be 1f bd 1d 00 bd bd
       -0.18971016 -0.12541041 -0.03899974 -0.09228537
0001f0 a9 76 9e 3c 15 22 a8 bd a5 2b 8e bc 87 4c d6 3d
       0.019343691 -0.08209626 -0.017354796 0.10463815
000200 53 08 59 3d 35 a7 b7 bd 5f 3b 2e 3c a8 1f 2b bd
       0.052986454 -0.08967439 0.010634272 -0.041778237
000210 c5 81 50 3d de 08 f3 3c a3 1b 25 3d 7b 87 0f 3d
       0.050905008 0.029667314 0.04030956 0.035041314
000220 44 4e 43 3e 36 fa 22 be 47 95 c3 bd 69 cf 80 3c
       0.19072825 -0.1591576 -0.09549957 0.0157239
000230 29 23 18 bd 1c 0a 46 bd 6f 54 2a bd 51 6f 91 3c
       -0.037142906 -0.048349485 -0.04158443 0.017753275
000240 49 47 e5 3d 8a 0e bf 3d ce 54 da 3d 24 2c 45 3d
       0.11195237 0.09328945 0.106607065 0.0481378
000250 74 5f a9 bd fc 9e 1e 3d e4 c5 22 3d 05 6f 53 3c
       -0.08270159 0.038725838 0.039739504 0.012904887
000260 56 95 c6 bd 93 cb 61 3d 0d 96 36 bd 75 b8 f8 3d
       -0.09696452 0.055125784 -0.044576693 0.121445574
000270 75 a5 9c 3d 18 84 47 bd 79 b7 49 3b 5e 0e fe 3d
       0.07648746 -0.04870996 0.0030779524 0.12405084
000280 9a 20 57 3c e3 cb 8e bd ef 5e 89 bd 76 21 29 3d
       0.013130331 -0.06972482 -0.0670756 0.041291676
000290 17 86 31 3d d4 1b 07 bd f8 22 d7 bb 52 4b a2 bd
       0.04334077 -0.032985523 -0.006565448 -0.079245225
0002a0 7e ab a7 bc ec 33 1c 3b bc a8 02 3d d0 1d 6f bd
       -0.020467516 0.0023834659 0.0318992 -0.05837804
0002b0 89 3f c6 bd 87 02 6f 3d 88 e2 0d 3d da 78 40 3d
       -0.09680087 0.05835202 0.034639865 0.046990253
0002c0 69 37 e3 bc d8 68 0d be 5a 1d 43 bc 63 4d 14 3d
       -0.027736383 -0.13809526 -0.011908853 0.036206614
0002d0 b6 29 3d be 61 bc b6 bd 55 30 ac 3c 08 1c a6 3d
       -0.18472943 -0.08922649 0.02101914 0.08110815
0002e0 36 a2 ad 3d 90 26 92 3b 1c e2 ae bd c3 12 65 3c
       0.08478205 0.0044601634 -0.08539221 0.013981524
0002f0 88 73 84 be ac f5 a3 bc 0b 80 1c bd 9a d0 d0 3d
       -0.25869393 -0.020014606 -0.03820805 0.101960376
000300 50 cf 3b bd 84 16 6b 3c 4e e1 42 be 06 2e 6c bc
       -0.045852005 0.01434863 -0.1903126 -0.01441527
000310 a0 3a b9 3d a6 16 93 be 52 30 14 be ee 53 a3 3d
       0.09044385 -0.28728217 -0.14471558 0.07974993
000320 be a4 31 be a3 fd 49 3d 00 ee 25 3d 86 2e 61 bb
       -0.17348 0.049314152 0.040510178 -0.0034360006
000330 5f dc 22 3d 17 84 02 be 88 90 ec bd e5 14 97 bd
       0.039760944 -0.12745701 -0.11551005 -0.07377032
000340 0b 75 09 3c 13 e2 94 3d de 2a 68 bc 71 01 02 be
       0.008389722 0.07269683 -0.014170377 -0.12695862
000350 0c 16 1a 3d 2c c6 a5 3c 54 6e d1 bc 11 72 83 3d
       0.03761868 0.020236097 -0.025565304 0.06418241
000360 b3 aa 07 be c0 93 07 be 56 0a 2b 3e da 4d 52 3d
       -0.1324871 -0.13239956 0.16703162 0.051343776
000370 5d cc 0f be 6a ec a7 3d fd d7 88 bc 85 d0 08 3e
       -0.14042802 0.08199389 -0.016704554 0.13360794
000380 30 46 d3 bd 10 ca 9d bd bb 12 a3 3b 8a 4d 8b bd
       -0.103161216 -0.07704556 0.004976598 -0.06801899
000390 cb af 04 be 7c 01 9d bd 5b 01 c0 bd ba 42 4c 3d
       -0.12957685 -0.07666299 -0.093752585 0.049868323
0003a0 cf 11 b7 bd 51 f3 2d 3d 66 fd 01 be da 66 c9 bd
       -0.089389436 0.042468373 -0.1269432 -0.098340705
0003b0 4d 8f 63 3e ee 97 ac bd c7 a1 af bd 04 d8 a4 3d
       0.22222634 -0.08427416 -0.085757785 0.08049014
0003c0 11 39 2e bd 32 c2 9e 3d 2c 05 37 3d c7 d7 c3 bd
       -0.04253489 0.077518836 0.044682667 -0.09562641
0003d0 73 3e 1c 3d 20 be 16 bb 6c 22 16 be c1 18 26 bc
       0.038145494 -0.0023001507 -0.14661568 -0.010137738
0003e0 08 eb a4 bd cf 75 ec bd b5 3f 1a 3e 17 5a e0 3c
       -0.08052641 -0.11545908 0.15063365 0.027386708
0003f0 60 8c b5 3b a6 df d3 3c f8 6c 39 be 48 f7 59 be
       0.0055404156 0.02586348 -0.18107975 -0.21285737

conv.1.0.bias f4 [20]
000000 0e 0a cd bc 62 22 65 bd 41 09 ce 3c 10 09 ca bc
       -0.025029209 -0.055940993 0.025150897 -0.024662524
000010 d2 93 32 bd e3 4b 14 bd 3d f5 3b bd 71 83 07 bc
       -0.043598004 -0.036205184 -0.045888174 -0.008271084
000020 cf fa 4f 3d 28 a5 dd bc 49 75 5b bd fa 6a 88 bc
       0.0507763 -0.027056292 -0.05357865 -0.016652573
000030 dc 3f 51 3d 48 4d 07 bd ef e0 13 3d 6d 02 42 3d
       0.05108629 -0.033032686 0.036103185 0.047365595
000040 c6 e2 1d bc c2 fe 4e 3c 7a 8f bf bc 5b cf fc 3a
       -0.0096365865 0.012633981 -0.023383845 0.0019287871

conv.1.2.weight f4 [20]
000000 d9 09 73 3f 37 49 72 3f 62 e7 8c 3f 2d ab 7b 3f
       0.949369 0.94642967 1.1008112 0.9830807
000010 ea c2 7f 3f 40 fc 84 3f 2c 31 7e 3f bd 3b 7a 3f
       0.9990679 1.038948 0.9929378 0.97747403
000020 6f 04 8d 3f 4a 67 88 3f 10 35 67 3f b6 66 84 3f
       1.1016978 1.0656521 0.9031534 1.0343845
000030 4b e0 84 3f 32 cd 8b 3f 84 10 7d 3f 50 a9 88 3f
       1.0380949 1.0921996 0.98853326 1.067667
000040 a0 cf 78 3f 13 be 7c 3f ec 15 7e 3f 3a 55 7b 3f
       0.9719181 0.9872753 0.992522 0.9817692

conv.1.2.bias f4 [20]
000000 c8 6e 61 b8 8f 8c 2a b6 70 71 90 b8 e7 f9 2e b7
       -5.3747353e-05 -2.541379e-06 -6.8875845e-05 -1.0429393e-05
000010 7e 8b dc 37 d9 83 af b7 53 e7 e4 b6 68 da 1b 38
       2.6291e-05 -2.0923022e-05 -6.821859e-06 3.7158286e-05
000020 b3 ed c8 38 bb 80 4f 38 c4 4b ff 37 dd cc 02 b8
       9.581018e-05 4.9472535e-05 3.043365e-05 -3.118521e-05
000030 49 29 4e 38 59 66 57 b8 4b 4e 96 36 90 a5 05 38
       4.9152677e-05 -5.1355313e-05 4.479463e-06 3.1863863e-05
000040 cc 0b be b8 2c 20 13 b8 36 64 1f 37 29 0c 47 38
       -9.062103e-05 -3.5077494e-05 9.500471e-06 4.7456622e-05

conv.1.2.running_mean f4 [20]
000000 1b 14 42 3f 42 09 f2 3e 75 72 81 3f 96 8c 55 3f
       0.7581193 0.47272688 1.0113055 0.8341764
000010 b6 e9 5f 3f 91 a0 79 3f bb eb 5b 3f dd 32 89 3f
       0.8746599 0.9751063 0.8590657 1.0718647
000020 71 c6 a4 3f e7 a8 80 3f dc 51 80 3f 36 ff d3 3e
       1.287306 1.0051545 1.0024981 0.41405648
000030 a2 22 57 3f b4 fd 71 3f 59 da 11 3f 3d 64 90 3f
       0.8403722 0.94527745 0.569738 1.128059
000040 27 eb 3e 3f c5 8e 82 3f 42 00 ad 3f 33 3d 99 3f
       0.74577564 1.019982 1.3515704 1.1971802

conv.1.2.running_var f4 [20]
000000 73 0f 9f 40 2f a8 a2 40 b3 30 79 40 e5 f3 83 40
       4.970636 5.08303 3.8935974 4.1235223
000010 23 75 35 40 48 b1 aa 40 22 28 23 40 6c a2 f4 40
       2.8352745 5.334141 2.5493245 7.644827
000020 42 df d0 40 10 73 b9 40 c5 b2 93 40 6a 88 0f 41
       6.527253 5.7952957 4.6155725 8.970804
000030 08 ea 4f 40 3d 99 ad 40 72 f7 86 40 ff ff 77 40
       3.2486591 5.424956 4.2177057 3.8749998
000040 4a ac 7d 40 ad bd 81 40 b0 3a 35 41 55 fa c2 40
       3.9636407 4.054404 11.326828 6.093058

conv.2.0.weight f4 [30, 20, 3, 3]
000000 32 36 9e 3d 0a 40 46 bd 0d d7 01 bd 9d b9 8d bd
       0.07725181 -0.048400916 -0.03169923 -0.069201685
000010 44 c4 3a 3e d1 8e 42 be 38 3f 64 be f9 ad 1e 3d
       0.18238932 -0.18999793 -0.22289741 0.038740132
000020 49 d9 2f bd 43 9c 1c bc b9 87 48 bd 68 0c 51 3d
       -0.04293183 -0.00955874 -0.04895756 0.051037222
000030 0f 3b c2 3d 9a 56 ec bd 46 0e 99 bd f3 21 a3 bd
       0.09483921 -0.115399554 -0.074734256 -0.0796546
000040 0d a5 8f bd fc 7d 0b be 18 6e 8f bd 69 41 a5 3c
       -0.07013903 -0.13622278 -0.070034206 0.020172792
000050 f2 f3 9a be 75 5c 8e 3a 0f a3 f8 bd fd 2a fe bd
       -0.3026424 0.0010861295 -0.12140476 -0.12410543
000060 64 28 7e 3c 1c 26 34 be e6 bc 98 3b 5b fe ea 3c
       0.01551256 -0.17592663 0.0046611903 0.02868574
000070 50 69 8b 3d 60 aa db 38 c1 a7 90 3c 91 ad 4c 3d
       0.06807196 0.000104744686 0.017658116 0.049970213
000080 b7 99 b1 bc 0c 57 68 bd bc ff 9e 3c a7 eb fe 3d
       -0.021679742 -0.05672364 0.019409053 0.12447291
000090 38 e4 85 3e ed 60 86 bd 11 55 41 3d 24 13 f8 3b
       0.2615068 -0.06561456 0.047200266 0.007570641
0000a0 28 53 e9 3c 45 45 31 be 58 3a 90 3e 86 08 da bb
       0.028482035 -0.1731158 0.28169513 -0.006653848
0000b0 19 d8 25 3e 52 c8 a9 3c 53 84 86 3e 9c 8c 69 bd
       0.16195716 0.020725403 0.2627283 -0.05701886
0000c0 ba 3c 03 be 97 50 92 3d b5 ba 59 be 9c 81 17 be
       -0.12816134 0.071442775 -0.2126263 -0.14795536
0000d0 f0 ef d1 3d ba 01 00 be 2c 6b 98 3b a1 b6 a7 3e
       0.102508426 -0.12500659 0.0046514478 0.32756522
0000e0 b7 71 3e 3d 8d 9c b0 3d de cf 17 be 6f f8 59 be
       0.046495166 0.0862361 -0.14825389 -0.21286176
0000f0 b1 0b f0 3c 1d 25 12 3e c0 7b bf bc 8f bd 29 be
       0.02930245 0.1427197 -0.023374438 -0.16576217
000100 51 0a 8d bd 95 7c 4e bd f4 2c d5 bd 00 23 d8 bb
       -0.06886733 -0.05041178 -0.10408965 -0.006595969
000110 74 4c 0f 3e 18 b0 6b 3c 3b 7b 1f be 97 21 0c bd
       0.13994008 0.014385246 -0.15574352 -0.03421172
000120 b7 d5 80 bc 79 37 28 be 96 06 19 be 58 5f eb bd
       -0.015726907 -0.16427411 -0.14943919 -0.11492795
000130 06 98 ba bd 6d e2 07 3e c0 5a 1f 3e 71 05 17 be
       -0.091110274 0.13269968 0.15561962 -0.1474817
000140 53 ed 86 3b 70 02 f5 bd 2b 51 39 3d de d5 b2 bd
       0.0041176467 -0.119633555 0.045243423 -0.08732198
000150 9e 8b eb bd b7 a3 38 bd 20 30 c8 3c aa 4d 5f be
       -0.11501239 -0.045078006 0.02443701 -0.2180697
000160 2d 64 b9 bd b1 a7 13 3e 94 65 a7 3c 9d 5b 88 3d
       -0.0905231 0.14419438 0.020434178 0.06658099
000170 f8 9c d1 bd cc 16 11 3c 05 95 11 3e 17 54 64 3d
       -0.102350175 0.008855533 0.14217003 0.055744257
000180 87 0b 19 be cb ad e2 bd c9 e6 d1 bd 9c 60 1b be
       -0.14945804 -0.11068305 -0.10249097 -0.15173572
000190 8c ea 91 3c a3 d6 b8 3d 4f 6a 07 be c1 54 9c 3d
       0.017812036 0.09025314 -0.13224147 0.07633353
0001a0 28 df 78 3c 5a e1 a7 bd 92 ed 5f 3b b1 6e e2 bd
       0.015189923 -0.08197279 0.0034168703 -0.11056269
0001b0 73 28 a5 bd c7 1e cb 3d 76 8c a4 bd fb b2 48 bd
       -0.08064356 0.0991798 -0.08034603 -0.048998814
0001c0 8e 76 1f 3e d7 72 60 bd 0a 88 11 be 5b cf b5 bd
       0.15572569 -0.05479702 -0.14212051 -0.088774405
0001d0 89 f4 f2 bd 33 da 32 3e a8 f5 29 bc 5b 89 88 3d
       -0.11863048 0.17466049 -0.01037351 0.066668235
0001e0 91 03 1d bd 1d 10 9f 3d 54 16 13 bc ed 90 c5 bc
       -0.03833348 0.07766745 -0.008977491 -0.024116958
0001f0 1d 42 9a 3d fe 51 92 bc 83 7e c7 bc dc 2d fe 3d
       0.07532141 -0.017861363 -0.024352318 0.12411091
000200 cb cd d4 bc 93 b4 cb bd 60 b6 bc bc 2e bf b8 3d
       -0.025977036 -0.09946551 -0.023036182 0.0902084
000210 de ed 93 bb f1 b7 6a be e5 15 1e be a1 f9 23 3d
       -0.00451444 -0.2292173 -0.1543804 0.040032987
000220 3e bc 1b be c3 20 b8 3d a2 2f 20 bd a3 e4 0e 3e
       -0.15208527 0.08990624 -0.039107926 0.13954405
000230 36 ae d5 bc 36 90 2a 3d 02 bb 49 3d 31 05 80 bc
       -0.026084047 0.041641437 0.04925061 -0.015627475
000240 04 3f 9f bd 6d 93 3d bd bb 42 1d be 6f a6 5b bd
       -0.07775691 -0.046283174 -0.15357487 -0.05362552
000250 cc 04 ab be 18 0f 04 39 ef f1 16 3c 82 fc 06 be
       -0.33402097 0.00012594124 0.009212955 -0.13182262
000260 13 48 5e 3d 80 a9 30 bb b4 dc db bd 55 50 77 bd
       0.054267954 -0.0026956499 -0.10735455 -0.060379345
000270 79 e4 75 3c 8a 14 50 3a f8 36 20 be 9b 5c 31 3d
       0.015008085 0.0007937631 -0.15645969 0.043301206
000280 5d 0c 80 3d f8 a6 e8 bc ec f5 f3 3d 94 db f8 3d
       0.06252358 -0.02839993 0.1191214 0.12151256
000290 8c 8d 59 be 31 9c 55 3c 0f ad 07 bd c7 0e 5b 3d
       -0.21245402 0.013037727 -0.033124026 0.05348089
0002a0 7f 08 1d 3e 83 a1 bd bd b0 06 af bd ba d6 24 bd
       0.15335272 -0.092593215 -0.085461974 -0.04024384
0002b0 d5 93 19 3d d0 d6 95 bd fb 0e a8 3c a1 2b 1a be
       0.0374945 -0.07316363 0.020514956 -0.15055706
0002c0 c1 6c 82 bd 77 61 1a 3d 23 7f b5 3d 31 33 32 be
       -0.063683994 0.037690606 0.0886214 -0.1740234
0002d0 91 9f 24 be 5e e4 8f bc 57 50 cb 3d 05 59 51 bd
       -0.16076495 -0.017564949 0.09927433 -0.051110286
0002e0 49 62 7e be bc 44 f1 3d de d2 c6 bd 83 d9 18 bd
       -0.2484218 0.11780688 -0.097081885 -0.03731681
0002f0 8a 26 79 bd eb 78 b6 bd a8 10 2b bd 1d 93 77 3c
       -0.06082777 -0.08909782 -0.04176393 0.015110758
000300 a5 01 e4 3d d4 19 02 be 80 34 8d 3b ab 62 ec 3d
       0.11133126 -0.12705165 0.004309237 0.11542257
000310 76 ff 98 bc 86 41 68 bd 75 27 11 be 46 a5 7d bd
       -0.0186765 -0.056703113 -0.14175208 -0.061925195
000320 9f 96 65 bd 6b 74 94 3d 00 d0 0c be 9d d5 8b 3d
       -0.056051847 0.072487675 -0.1375122 0.06827853
000330 14 3f c5 bd 44 b1 eb bc 5f 14 71 bc 5e aa 2e be
       -0.09631172 -0.02877105 -0.0147143295 -0.17057177
000340 88 06 03 bc c5 78 92 bd 36 1e 82 3d f1 16 e0 3d
       -0.007997163 -0.07151941 0.063534185 0.10941876
000350 b9 76 2e be 4d 97 81 bd d1 ff 32 3d ac 29 05 3d
       -0.17037477 -0.063276865 0.043700997 0.032510445
000360 e5 ad 63 bd ac 16 ea bd d1 6a 89 bc d8 e1 59 3d
       -0.05558576 -0.114301056 -0.016774567 0.053193897
000370 90 b4 a4 bc 6e c4 80 be 21 29 54 bc ac 67 3c be
       -0.02010563 -0.25149864 -0.012949259 -0.18398923
000380 bb b2 60 3d 83 9d 68 be a5 87 20 bc 46 45 5b 3d
       0.05485795 -0.22716336 -0.009797965 0.05353286
000390 f0 e8 54 bd 79 c4 77 bd 44 eb 5a bd 4e 44 84 3e
       -0.05197996 -0.060490105 -0.053447023 0.25833362
0003a0 73 b9 1d be a9 e7 02 bc 5c 12 cb bc 90 0e 4d 3b
       -0.15402775 -0.007989802 -0.024789028 0.0031289198
0003b0 d4 bb a1 bd cc 7a 0d 3d c7 a7 1e 3e c6 db eb 3d
       -0.078971535 0.034540936 0.1549369 0.11516528
0003c0 b3 ec e6 bd 44 95 bb bd 6b 47 1a bc f6 b2 01 3d
       -0.112756155 -0.091593295 -0.009416441 0.03166481
0003d0 24 3c 67 3e 2e 13 80 3e 0e fa 8d be 4f 50 9d be
       0.22581536 0.25014633 -0.2772984 -0.30725333
0003e0 ed 5c 88 bd 9d b6 c1 bc 9a 58 0d 3e 3a bc c0 3d
       -0.06658349 -0.023646647 0.1380333 0.09410901
0003f0 e9 db ba bd ee b1 8b bb 7a 25 e6 3c 63 f5 8c 3c
       -0.09123976 -0.004263154 0.028094042 0.017206853

conv.2.0.bias f4 [30]
000000 ac 93 26 3c 98 e6 60 bc fb bb db bc 51 8d ed bc
       0.010167044 -0.013726853 -0.026823035 -0.028998049
000010 ac e2 85 bd 1b 06 17 bd 6b 0f c9 3c 44 f8 d3 bc
       -0.06537375 -0.036871057 0.024543485 -0.025875218
000020 7e cb cb 3c 08 6e 29 bd bf 70 57 3c d0 09 8d bc
       0.024877306 -0.0413647 0.013149439 -0.017216593
000030 df 3b 26 3d a9 6f ff 3b a4 70 ea 3c 2f 52 7b ba
       0.04058444 0.0077952933 0.028618164 -0.00095871364
000040 71 f5 d0 bc d3 79 cc 3b 69 41 36 3d f5 ec 68 bd
       -0.02550766 0.0062401085 0.044495974 -0.056866605
000050 8b 98 82 bd 8a b3 00 3d 7c d9 68 3d 51 4f 03 bd
       -0.063767515 0.03142122 0.056848034 -0.032058064
000060 f5 0e 8d bd 23 e3 83 bd 7d 88 8f bc 2c a0 b3 3b
       -0.068876185 -0.06439807 -0.017521137 0.0054817405
000070 ca 12 70 3d 23 a2 f4 3c
       0.05861167 0.029862469

conv.2.2.weight f4 [30]
000000 e8 46 79 3f 42 0e 8e 3f 9f 0b 70 3f 42 23 78 3f
       0.9737382 1.1098101 0.9376773 0.969288
000010 97 10 89 3f ed 5a 7a 3f 0b 6d 7e 3f 28 a9 8a 3f
       1.0708188 0.9779499 0.99385136 1.0832872
000020 2a 9f 7e 3f 2b b5 7d 3f df 81 66 3f f1 8a 7d 3f
       0.99461615 0.99104565 0.9004192 0.9904013
000030 b7 dc 8a 3f 7d 70 78 3f 94 33 84 3f 38 7b 80 3f
       1.0848607 0.97046643 1.032824 1.0037603
000040 65 05 7d 3f 3e e2 7f 3f 34 dc 6f 3f cd 06 85 3f
       0.98836356 0.99954593 0.9369538 1.03927
000050 83 0d 67 3f ca 00 78 3f 2e 4f 83 3f d1 db 80 3f
       0.9025499 0.96876204 1.0258539 1.0067083
000060 12 dc 8d 3f fe 29 87 3f 03 20 81 3f c6 cc 77 3f
       1.1082785 1.055969 1.0087894 0.96796834
000070 c0 bf 83 3f 99 5b 87 3f
       1.0292892 1.0574828

conv.2.2.bias f4 [30]
000000 c5 1e 94 37 34 ef 39 36 7d f8 9b b6 c4 02 c0 36
       1.7657303e-05 2.7706383e-06 -4.648288e-06 5.722368e-06
000010 be 14 95 b4 aa a2 4f b6 55 e1 bc 35 f2 cc d7 36
       -2.7768505e-07 -3.0940087e-06 1.4072672e-06 6.431358e-06
000020 ce ab 37 36 1d 35 3d 36 91 5e ef 35 bb b6 b1 b5
       2.7369128e-06 2.819411e-06 1.783441e-06 -1.3240709e-06
000030 19 4f 2f 37 a0 71 44 35 67 74 df b5 f3 51 2e 36
       1.0449229e-05 7.3181036e-07 -1.6648672e-06 2.5975721e-06
000040 44 79 20 37 3a c5 db b6 92 65 83 36 f4 7f 11 b7
       9.5649775e-06 -6.549669e-06 3.9159286e-06 -8.672465e-06
000050 4a e6 ad b5 5e 86 b8 b6 e1 bb 8c 36 d3 91 46 37
       -1.2956527e-06 -5.4992697e-06 4.194197e-06 1.1835672e-05
000060 e8 9f 03 b6 83 49 90 36 c3 e9 97 36 e3 a0 d7 b6
       -1.9613599e-06 4.3000923e-06 4.527364e-06 -6.426229e-06
000070 78 ea 6a b6 c7 2d 20 b6
       -3.5005196e-06 -2.3868504e-06

conv.2.2.running_mean f4 [30]
000000 b9 1e 7e 3f 29 24 7c 3f ff 1e 2e 3f 1b aa 5e 3f
       0.9926563 0.98492676 0.68016046 0.8697831
000010 0a 82 40 3f d5 28 16 3f c7 45 60 3f da 2d 89 3f
       0.75198424 0.58656055 0.8760647 1.0717118
000020 c4 0a 6b 3f 6c 31 5a 3f 23 ec 41 3f 26 aa 53 3f
       0.918133 0.8523166 0.7575094 0.826815
000030 f4 a5 9f 3f 43 4d 71 3f 8d 33 5b 3f 36 2d 7e 3f
       1.247252 0.9425852 0.85625535 0.99287736
000040 1f 68 63 3f 3c 6b 6d 3f 1a 8d 74 3f fd 80 83 3f
       0.8883075 0.9274175 0.95527804 1.0273739
000050 26 57 f8 3e 5a 59 5e 3f af 36 82 3f df e4 61 3f
       0.4850399 0.8685509 1.0172938 0.88239855
000060 da b1 44 3f 60 cb 3f 3f 70 ac 53 3f c8 c0 88 3f
       0.7683388 0.749197 0.82684994 1.0683832
000070 80 a4 62 3f ba b6 24 3f
       0.8853226 0.6434132

conv.2.2.running_var f4 [30]
000000 d2 97 d0 3f ae 53 a8 3f 65 dc 6b 3f ef 30 af 3f
       1.6296332 1.3150537 0.9213317 1.3686808
000010 69 bd b7 3f bc f6 8f 3f 1b d0 b4 3f c7 be c0 3f
       1.4354678 1.1247172 1.4126009 1.5058221
000020 d7 cb 98 3f 2a f2 8a 3f 8a 8e ac 3f 8a 35 96 3f
       1.1937207 1.0855153 1.3481 1.1735089
000030 54 43 b8 3f bb 9c cd 3f 77 a2 c7 3f 07 6d 99 3f
       1.4395547 1.6063455 1.5596455 1.1986398
000040 dd 6f 5a 3f 8d f3 96 3f a2 aa 51 3f 38 4e 97 3f
       0.8532694 1.1793076 0.8190099 1.1820745
000050 13 f7 ae 3f 72 a1 07 40 05 4e 96 3f a8 a4 da 3f
       1.3669151 2.1192288 1.174256 1.7081499
000060 20 75 ce 3f 94 20 8d 3f 3b 1e b5 3f c8 b7 39 3f
       1.6129494 1.1025567 1.4149851 0.7254605
000070 f0 1f 2e 40 fa fe 21 40
       2.7206993 2.5311875

conv.3.0.weight f4 [20, 30, 3, 3]
000000 4a 6f 2a be ee 80 1a 3b e3 c4 e7 bb 20 ec 65 be
       -0.16644016 0.0023575383 -0.0070730313 -0.22453356
000010 1c 09 21 be c5 d0 9a 3c 41 f8 f9 bc 60 97 ef 3d
       -0.15726131 0.018898377 -0.030513884 0.11698794
000020 96 ea 12 3e ea 70 85 bc b4 a6 d7 3b 29 24 86 3e
       0.143473 -0.016289193 0.006581152 0.26199463
000030 a3 6a 53 3d b2 1a 22 3d 5d ed 27 bd 2e 37 41 39
       0.05161537 0.03957624 -0.04099785 0.0001842647
000040 04 dc d9 bc 61 5f ce bc 29 c2 f1 bc b7 e6 0a 3d
       -0.02659417 -0.025191965 -0.029511528 0.033911433
000050 90 a9 2f 3e c5 44 9a bc 78 9c b6 bd 5d ff 45 3d
       0.17154527 -0.01883162 -0.08916563 0.048339237
000060 59 5f c1 bc d6 18 eb bd bf 9a 81 bd a5 23 79 bd
       -0.023605036 -0.114793465 -0.063283436 -0.06082501
000070 e8 30 74 3d d4 65 50 bd 00 c0 c4 3d b2 ca f1 3c
       0.059616953 -0.05087836 0.096069336 0.029515598
000080 cf 1f df bc c7 00 02 bc 0d ff e5 ba fe b0 ba bd
       -0.027236847 -0.007934756 -0.0017547325 -0.0911579
000090 19 94 ef 3d 62 52 0d 3d 7b c6 72 3d 7d a0 9c 3a
       0.11698169 0.034502394 0.059271317 0.0011949685
0000a0 42 bb 1e 3c ac 8f 0d 3e 08 68 02 3e 5f 40 82 3d
       0.0096882 0.13824338 0.12734997 0.06359934
0000b0 bf e5 22 3e 74 e7 d8 bd dd f7 67 bd 75 7c 9b bd
       0.15907954 -0.10591021 -0.056632865 -0.07592098
0000c0 6a 25 08 be 57 7e 31 be b1 86 26 be 8e e2 e8 bd
       -0.13295522 -0.17333351 -0.16262318 -0.11371337
0000d0 3d db d6 3c 72 cd 98 bd af 38 11 be a4 83 02 3c
       0.026227588 -0.074610606 -0.1418178 0.007965956
0000e0 a8 90 32 bd 48 4b 76 3d 55 af bb bc a3 3d 0d 3e
       -0.043594986 0.060130388 -0.022910753 0.13793044
0000f0 b8 38 90 3c ba cb 42 be f4 e9 6f 3a d3 a3 21 3e
       0.01760517 -0.19023028 0.0009151988 0.1578515
000100 be 72 05 3d f9 48 87 3e 18 81 2c bc a8 e5 70 bc
       0.03258013 0.2642286 -0.010528825 -0.014703192
000110 52 74 8c 3d 36 25 4c bd 68 cf 73 b9 b8 dd 67 3d
       0.06858124 -0.049840175 -0.00023251551 0.05660793
000120 49 e2 ba 3c 1c fc 05 be 9f d0 a7 bd e5 29 d9 3d
       0.02281298 -0.13084453 -0.08194088 0.10603694
000130 9b 72 5a 3d 8a 47 f6 3c 13 13 97 bd 32 3c a6 3b
       0.053331953 0.03006341 -0.07376685 0.005073094
000140 17 27 14 bd 4d c1 9d 3d e8 23 ad 3d 8e af 67 39
       -0.03617009 0.07702885 0.08454114 0.00022095276
000150 a0 fe e5 bd 1e e6 3d bd f6 a2 7b bb 29 8a 9f bd
       -0.112302065 -0.046362035 -0.0038396693 -0.07790024
000160 21 bb d8 bc c2 89 92 bb c6 8c 7f bb 0a 72 14 3e
       -0.026456418 -0.0044719884 -0.003899382 0.14496627
000170 32 3b 01 be d1 25 07 be a8 23 b7 3a e3 94 9c 3c
       -0.12620237 -0.1319802 0.0013972418 0.019113963
000180 07 10 a4 bd 88 c9 5d bc eb ec 2a be ac 7e 85 3d
       -0.080108695 -0.013536818 -0.1669194 0.06518301
000190 5e 6a fd 3c fd f5 8d be f1 38 6d 3e 9f f3 d4 3c
       0.030934509 -0.27726737 0.23166253 0.025995074
0001a0 85 70 97 bc 2f 8e 1a 3d 9a 33 a5 3d f4 0d 02 bd
       -0.01848627 0.037733253 0.08066483 -0.031751588
0001b0 65 40 47 3e 1f 80 cd bd 32 13 b3 bd 27 90 8c 3b
       0.19458158 -0.10034203 -0.087438956 0.0042896452
0001c0 2b 5e 27 be 74 3c a2 3d 01 33 44 3e 9a 7b 9d 3d
       -0.16344516 0.07921687 0.19160081 0.07689591
0001d0 25 3a 67 bd 32 dc 20 bc 8c 45 e0 bd 70 b1 ce 3d
       -0.056451935 -0.009818124 -0.10950765 0.10092437
0001e0 0d 09 01 be 8c 9f 91 bd 26 9d 18 be de d0 45 be
       -0.12601109 -0.07110509 -0.14903697 -0.19317958
0001f0 ab 2a 10 bd 23 ff 33 be 5a 1f 87 3d 20 f3 50 3e
       -0.03519694 -0.17577796 0.06597777 0.20405245
000200 d5 6e 6f 3d 59 bd 78 3c ba bf 7e be 93 f3 73 3d
       0.058455307 0.015181863 -0.24877825 0.059558462
000210 8b ad c6 bd 8a 25 48 be 53 64 7e 3e e0 3c a3 bc
       -0.097010694 -0.1954557 0.24842958 -0.019926488
000220 ea 88 bc 3c 36 23 14 3d 9e ce 42 bd e5 ee 3f 3d
       0.023014504 0.036166392 -0.047560327 0.046858687
000230 d8 f4 20 bd a5 15 24 3d 1f 9c 17 3d 1c 1d af 3d
       -0.039296 0.040059704 0.037014123 0.08550474
000240 fc 93 54 bd 28 db 69 3e 66 fd 4e bc 7f df 06 be
       -0.05189894 0.22837508 -0.012633657 -0.13171194
000250 28 db 65 3d bc c3 44 bd 00 bc a6 3d 7a bf a8 bc
       0.056117207 -0.04803823 0.08141327 -0.020599116
000260 df 34 22 3e 73 c0 5a 3e 51 ef d5 bc f6 9d 65 be
       0.15840481 0.21362476 -0.026115092 -0.22423539
000270 42 1a e6 3c 31 b0 0e bd 0c cf 0b ba ed cd e9 bd
       0.028088693 -0.034835998 -0.00053332816 -0.1141623
000280 75 76 36 be 2b 60 43 3d b7 ef 0c bd 49 aa 0d be
       -0.17818625 0.047699135 -0.034408297 -0.1383449
000290 36 55 fa bd a3 eb 9a bc 35 d3 a2 3d fd 12 b2 3d
       -0.12223284 -0.018911188 0.07950441 0.08695028
0002a0 5b 1e cf 3b a5 82 3a bd da 40 da bc 54 1d 05 3e
       0.0063207573 -0.04553475 -0.026642252 0.12999469
0002b0 d0 b3 5a bd c6 ab ed 3d 2d 9a 48 3e 05 95 13 3e
       -0.05339414 0.11605029 0.19590063 0.14412315
0002c0 df 91 41 bc 50 3a e9 bc cc 6e a3 bd e8 ca 33 3e
       -0.011814564 -0.028470188 -0.07980117 0.17557871
0002d0 a7 6f 87 3d 88 db c2 3c 2f 43 49 bd 21 30 5e bd
       0.06613093 0.023786321 -0.049136337 -0.054245118
0002e0 ce 51 07 3e 89 7b 36 bc f9 65 d0 3c 62 02 a7 bd
       0.132148 -0.0111378515 0.02543925 -0.08154751
0002f0 c8 97 e7 3d 94 4f af bd 1a 72 34 3c dc c7 07 be
       0.11308247 -0.085601 0.011013532 -0.13259834
000300 3b 0c 91 bd a2 b2 89 3d 8b a6 9a bc 07 e0 e2 3d
       -0.07082411 0.06723525 -0.018878242 0.11077886
000310 57 a5 fb bd 31 07 8b 3d 27 0e b1 bc 4b b5 5a bc
       -0.122873954 0.06788481 -0.021613194 -0.013348888
000320 df 05 20 3e 40 35 14 be b3 d3 4e 3d c2 75 a6 3d
       0.1562724 -0.14473438 0.05049486 0.08127929
000330 bb 24 cd 3c 67 a4 95 3d 1b 06 a2 3d 4e 0c 0c 3e
       0.025041929 0.07306748 0.07911321 0.13676569
000340 66 c6 9f bd 8e 67 b5 3c 31 f9 df 3c 7a 30 5a 3e
       -0.078015134 0.022144105 0.027340503 0.21307555
000350 08 84 34 bd b9 3e 5b 3c fc e6 80 be 7d 15 f5 3c
       -0.044071227 0.013381653 -0.25176227 0.029917473
000360 b8 51 66 bb 99 0d 71 3c c5 40 92 3d 9d 38 eb 3d
       -0.0035143923 0.014712715 0.0714126 0.114854075
000370 87 d3 aa 3c 8b 47 89 bc b7 f1 96 3d 79 88 d7 3d
       0.020852817 -0.016757747 0.07370322 0.10524077
000380 d6 32 14 3d da 52 0e be 48 5c 18 3d 28 00 91 bd
       0.036181293 -0.13898793 0.03719738 -0.07080108
000390 c5 d5 30 3e 01 e8 45 bc 44 71 2f be fe 7f 59 3d
       0.17269047 -0.01207924 -0.17133051 0.05310058
0003a0 45 fb b1 bb bc 4c 04 be f2 72 f4 3d 3c a6 c7 bb
       -0.005431565 -0.12919897 0.119359866 -0.0060928147
0003b0 fe b0 6d 3e 47 4d 66 3c 46 39 39 ba 4d b6 e9 bd
       0.23212048 0.01405651 -0.00070657243 -0.11411724
0003c0 4b 74 14 3c e8 8f f3 3d 3f 56 1d 3e 0a 41 74 3e
       0.0090609295 0.11892682 0.15364932 0.23852935
0003d0 e5 05 1b be fb d9 d7 3d bc 1c e3 bd 3f 60 26 3e
       -0.15138967 0.10539623 -0.11089465 0.16247652
0003e0 3f 4f e6 bd 2e 32 f7 3d 2d 90 c5 3d fb d6 12 be
       -0.11245584 0.12070118 0.0964664 -0.14339821
0003f0 ab 44 6e 3d cd fa fc 3d 4e b1 9a bd 74 b0 44 bd
       0.058170956 0.12352524 -0.075533494 -0.04801984

conv.3.0.bias f4 [20]
000000 22 f5 af 3c b3 a3 39 3c 8d 79 c5 bb f3 09 e5 bb
       0.021479193 0.011330533 -0.006026453 -0.0069897114
000010 ec 64 8f 3c 70 f3 c6 bc 8f 70 8e 3b 2b 72 79 3c
       0.017504178 -0.024286002 0.004346914 0.015224974
000020 08 92 d4 3c 99 c8 db bc c4 84 24 bc 62 85 1e bd
       0.02594854 -0.02682905 -0.010041419 -0.038701423
000030 7d 2e dc 3c 8b d1 c8 3c f1 26 84 bb d9 6a 0e 3d
       0.026877636 0.02451398 -0.0040329625 0.034769867
000040 fd 48 22 3b f0 0c 48 bc 50 ba c0 3b 03 e5 16 3d
       0.0024762743 -0.012210116 0.005881585 0.036839496

conv.3.2.weight f4 [20]
000000 d5 3f 8d 3f a4 a3 7d 3f 2a 42 7b 3f 5a ad 7c 3f
       1.1035105 0.9907782 0.98147833 0.98702013
000010 61 6f 77 3f 6c 6c 87 3f 42 35 69 3f a8 ee 7c 3f
       0.96654326 1.0579963 0.9109689 0.9880166
000020 04 57 73 3f 06 52 6c 3f 98 d0 93 3f 3f d3 7d 3f
       0.9505465 0.9231266 1.1548033 0.9915046
000030 39 28 73 3f 19 bf 87 3f 6c 8d 7e 3f 05 90 80 3f
       0.9498325 1.0605193 0.9943454 1.0043951
000040 a8 34 83 3f 50 28 77 3f 81 67 91 3f b8 6d 80 3f
       1.0250444 0.96545887 1.1359712 1.0033484

conv.3.2.bias f4 [20]
000000 cb b8 02 b5 16 99 73 35 be 64 b7 b0 1c 23 32 b5
       -4.8697683e-07 9.0747324e-07 -1.3343635e-09 -6.636126e-07
000010 03 85 b2 b5 d3 4e 3c b5 1a 9c 01 b6 57 f3 f6 34
       -1.3300745e-06 -7.015016e-07 -1.931336e-06 4.5998124e-07
000020 e9 3c ac 35 90 d7 de b5 c3 6e f6 35 4d 90 7a b4
       1.2832726e-06 -1.6603026e-06 1.8360664e-06 -2.333556e-07
000030 05 7d 16 35 bc 27 42 35 79 ae 95 35 4c 48 46 b5
       5.606128e-07 7.2328453e-07 1.1152143e-06 -7.3865954e-07
000040 02 3a 22 b4 f7 1b 8b b5 dc 82 a9 b5 f0 d4 5d b5
       -1.5108529e-07 -1.0364446e-06 -1.2629566e-06 -8.263878e-07

conv.3.2.running_mean f4 [20]
000000 15 ed a5 3f 56 7a 98 3f 04 cd d7 3f a7 0c ae 3f
       1.2962977 1.1912334 1.6859441 1.3597611
000010 39 ef 8a 3f d0 59 c5 3f 1c 34 b9 3f be b1 d6 3f
       1.0854255 1.5418034 1.4469028 1.6772993
000020 db 51 b6 3f 7a 39 a7 3f 7b 18 9f 3f ee b9 b0 3f
       1.424373 1.3064415 1.2429346 1.3806741
000030 7b e8 bc 3f 35 c9 ce 3f 97 0d c3 3f 9c 54 ae 3f
       1.4758447 1.6155154 1.5238522 1.3619571
000040 39 30 c8 3f e4 c3 be 3f 4a 36 d4 3f cb 55 bf 3f
       1.5639716 1.4903531 1.6579068 1.4948057

conv.3.2.running_var f4 [20]
000000 af 56 4f 40 f3 d9 1a 40 dc 8b 24 40 9d c6 27 40
       3.2396657 2.4195526 2.5710363 2.6214974
000010 20 3a 13 40 e9 94 fa 3f 9e e8 e0 3f f7 b7 b9 3f
       2.3004227 1.9576694 1.7570989 1.4509267
000020 d6 06 f5 3f 72 fb d5 3f a8 e9 4d 40 12 c9 02 40
       1.9142711 1.671736 3.2173862 2.0435224
000030 d8 7d e8 3f d5 a0 15 40 1e 74 3d 40 4e e8 c9 3f
       1.8163404 2.3379414 2.9602122 1.5774019
000040 0e 44 1d 40 6d 60 b8 3f 89 43 54 40 2d fd db 3f
       2.4572787 1.4404427 3.316622 1.7186638

conv.4.0.weight f4 [30, 20, 3, 3]
000000 e6 9b d2 3c 17 92 7a be 11 15 91 bd 5b 11 40 3a
       0.025709104 -0.24469791 -0.07084096 0.0007326805
000010 11 cb 07 bd c5 a2 e6 3d a5 63 f5 3d 4c b4 ad 3d
       -0.033152644 0.112615146 0.11981896 0.084816545
000020 ae 28 69 bd e9 c0 dd bc 02 cd 6c bd 43 c7 65 3d
       -0.05692356 -0.027069526 -0.0578127 0.056098234
000030 37 64 1c 3d 24 a9 de 3d cf e9 6d bd a2 a7 12 be
       0.03818151 0.10872105 -0.058084305 -0.1432176
000040 8d 2d c6 bd f4 55 d9 3c d0 1d 8f 3c 62 bc 7d bc
       -0.09676657 0.026530243 0.01747027 -0.0154868085
000050 0e 45 1c be de ed 8e bd c1 9c 61 be c6 06 ea bd
       -0.15260717 -0.06978963 -0.22032453 -0.11427073
000060 75 59 03 bd 9f 1f 12 be a3 71 c4 3d 03 5d dc 3d
       -0.032067735 -0.14269875 0.09591987 0.10759928
000070 0e 19 fa 3b 10 05 f2 3c 93 86 3f 3d b7 c3 a4 bc
       0.0076323813 0.02954343 0.0467592 -0.020112855
000080 be d5 61 be 18 78 34 be f3 71 b6 bc db f9 a6 bd
       -0.22054192 -0.17623937 -0.022271132 -0.08153125
000090 e0 cc 9a 3d c4 1d 00 3d bb 7f f9 3c 79 47 10 3e
       0.07558608 0.031278387 0.030456414 0.14089765
0000a0 e0 2c 03 3c 0f 91 d5 bd 81 0e 4d bd d6 5c 17 3e
       0.0080063045 -0.10428058 -0.05006266 0.14781508
0000b0 fb 66 39 be 18 e1 e5 bd 2f ff 67 bd 2c 42 9b bc
       -0.1810569 -0.11224574 -0.056639846 -0.018952452
0000c0 77 c1 38 3d 72 ca ca 3d 5a d0 24 be 46 83 98 3d
       0.045106377 0.09901895 -0.16095105 0.074469134
0000d0 0f 3d 22 be 8d f2 96 bd d3 a1 14 bd 86 d8 88 3b
       -0.15843605 -0.07370482 -0.03628714 0.004176202
0000e0 e1 67 4e bc 25 51 2e bd 87 b5 ea 3d b8 52 0b 3b
       -0.012598009 -0.042557854 0.11460405 0.002125902
0000f0 7c 27 47 bd fc da 35 3d 39 1f 90 bd 7b 57 14 be
       -0.04862164 0.044398293 -0.07037205 -0.14486496
000100 af b0 a0 3c 04 d5 f5 3c b6 80 f8 bc de b7 19 3d
       0.0196155 0.0300088 -0.030334812 0.037528865
000110 a8 94 c8 bd b3 e1 e7 3d a6 46 7f 3c c9 66 09 3d
       -0.09793979 0.113223456 0.015580809 0.03354529
000120 12 b3 c8 3c f7 45 a7 3d 60 51 bb 3d 94 c0 4c 3b
       0.02449945 0.081676416 0.091463804 0.0031242715
000130 47 62 29 bb 0c 72 c6 3d 34 5e da bd f2 fe fb 3d
       -0.0025845931 0.096897215 -0.10662499 0.12304486
000140 fe a5 17 3e 49 ca a3 3d bc 9a fa bd 48 e7 63 3e
       0.14809415 0.07997567 -0.122365445 0.22256196
000150 c4 f3 a0 bc 6b 8d 9b 3c 90 95 a1 3d 7e a1 9e bd
       -0.019647487 0.018988332 0.07889855 -0.07745646
000160 96 45 58 3d bf 71 4d 3e 1c 1a 13 be 03 42 8d bd
       0.052800737 0.20062922 -0.14365429 -0.06897356
000170 54 30 26 be 71 3a 26 bd 8f b7 13 3d bb b3 5b 3e
       -0.16229373 -0.040583078 0.036063727 0.2145528
000180 24 5d 05 be 90 17 21 be 3f b0 d6 bd 8f 13 bb 3c
       -0.13023812 -0.15731645 -0.10482835 0.022836475
000190 b8 78 50 be c1 16 78 be 88 ea 4d bc e7 ce de bd
       -0.2035855 -0.2422743 -0.012568124 -0.10879307
0001a0 0d 2f 4f 3c 80 c9 b4 3c c5 dc 76 3d 04 4b b3 bd
       0.012645495 0.022068739 0.060269136 -0.087545425
0001b0 2a 2a c4 3b f1 e2 47 3d dc 0f 86 bd ea bf a0 bd
       0.0059864717 0.048800413 -0.06545994 -0.07849105
0001c0 61 ab 80 bc cd fa 98 3d f0 86 9b 3c 73 87 92 3d
       -0.01570672 0.074697115 0.018985242 0.07154741
0001d0 d0 e4 2c bd c7 fa 0a be d0 22 cf 3d e2 73 90 bc
       -0.0422104 -0.13572226 0.10114062 -0.017633382
0001e0 d4 1b ed 3c ac 17 3d be 17 f4 73 be 42 c7 63 bd
       0.028943934 -0.18466061 -0.23823582 -0.05560995
0001f0 05 97 10 3e 7f 33 a5 3d 5d 7e 58 bd 2a 11 16 bd
       0.1412011 0.08066463 -0.052854884 -0.036637463
000200 18 38 31 be 22 7b dd bd 2b 04 98 bc c7 71 2a 3c
       -0.17306554 -0.10814501 -0.018556675 0.010403103
000210 67 31 29 be bf 0d 2f bd a5 23 cd bd 9a fd 47 3e
       -0.16522752 -0.04273772 -0.10016564 0.19530335
000220 d0 c6 89 bd 5b 5d 89 be 8c 27 a0 bd 70 51 c3 bd
       -0.067273736 -0.26829037 -0.07820043 -0.09537017
000230 97 92 48 3e 6a a7 bd 3d e5 22 17 bc e6 d6 3e be
       0.1958717 0.09260447 -0.009224628 -0.18636665
000240 9f d2 e7 bd da 86 31 3d 22 5f 56 bd 48 b6 85 3d
       -0.1131947 0.043341495 -0.05233682 0.06528908
000250 7e fc 18 bd 27 28 25 bd ae a6 8c 3d 0a 68 74 bd
       -0.03735017 -0.040321495 0.06867729 -0.059669532
000260 e9 b1 2a 3d 20 61 fd bd c4 38 b6 3c a7 c9 10 be
       0.041673575 -0.12372041 0.022243865 -0.14139424
000270 ec 7a 88 bd 57 8c 5c bd fb d8 2d be cd 4b 0c 3d
       -0.066640705 -0.053844776 -0.16977303 0.034251977
000280 55 1c e3 bc 73 f7 a1 bc 84 08 3c bd a1 7c 8c bd
       -0.02772347 -0.019771313 -0.04590656 -0.068597086
000290 2f a9 ea bd ce 44 0e 3e f4 e6 b0 3e 76 6d 47 3d
       -0.114580505 0.13893434 0.34551203 0.048688374
0002a0 15 1e 24 bd c7 eb 9b 3d 72 7e 3d bb 7f f9 7c 3d
       -0.04006775 0.0761333 -0.0028914479 0.061761376
0002b0 c2 db f8 bd a4 22 18 3e cd 44 c3 3d 55 7a af 3d
       -0.121512905 0.14856964 0.09534607 0.08568255
0002c0 de 2d 09 bc 18 4b ed 3d c4 93 eb bc 9d 65 1f 3e
       -0.008372752 0.115865886 -0.028756984 0.15566106
0002d0 08 31 9b 3c cf a5 7a bd 01 83 00 be 01 ca 79 bd
       0.018944278 -0.061193284 -0.12549974 -0.06098366
0002e0 8d 46 4c 3d 77 95 b8 bd 3f 20 96 bc 72 0b 92 3c
       0.04987197 -0.09012883 -0.018325923 0.017827723
0002f0 56 11 ca bd a1 1e 33 bd aa 33 d8 bd 44 5e fb 3d
       -0.09866588 -0.043730382 -0.10556729 0.12273839
000300 e1 8d 21 be d5 71 0f bc 0f cd 23 3d 73 d5 00 be
       -0.15776779 -0.008755167 0.03999048 -0.12581424
000310 c4 e8 41 3d 3a 3e d2 bd be 8b e1 3c 47 b6 c0 bb
       0.047341123 -0.10265775 0.027532455 -0.005881104
000320 8a 85 c9 3b 1f fe 3f bd 29 81 d1 3d 07 d3 1f 3e
       0.0061499523 -0.046873208 0.102297135 0.15607844
000330 e2 87 96 3c f8 7b 82 bd c9 fc c4 bc 53 75 4b 3d
       0.01837534 -0.063713014 -0.024046319 0.049672436
000340 0f b2 af bd b9 d4 38 3d b3 db 6d 3e 5e 4a ea bd
       -0.08578884 0.045124743 0.2322834 -0.11439966
000350 85 7d 3e bd b0 31 bc bc a1 b9 2c 3e d2 08 02 3e
       -0.046506424 -0.022972912 0.16867687 0.12698677
000360 b8 93 96 3e 1e b1 c1 bd 56 ee 9b bd fd f8 73 bc
       0.29409575 -0.094576105 -0.07613818 -0.014890906
000370 c3 a2 81 bd 40 6f 2c 3d f8 93 30 3d f7 0b 4c bc
       -0.063298725 0.042098284 0.043109864 -0.0124540245
000380 56 04 5e 3c d3 df 85 3d 0e 0a 2d be 32 29 1b 3d
       0.013550838 0.06536832 -0.16898367 0.037881084
000390 d2 00 81 3d dc b6 b7 3d 5d 3a d9 3c ea f1 85 bd
       0.062989846 0.089704245 0.026517088 -0.06540282
0003a0 4d 54 50 3d 74 12 d5 bd 9c f1 da 3d c3 12 64 3e
       0.050861645 -0.1040391 0.106906146 0.22272782
0003b0 e0 66 b2 bd a9 4b e6 bd ac e0 84 bd e1 70 8b bd
       -0.08711028 -0.112449 -0.06488165 -0.06808639
0003c0 dd d7 e5 bd 84 9e e8 bd 9a cf e3 3c 8b bc 1c 3d
       -0.11222813 -0.113583595 0.027808953 0.038265746
0003d0 d7 6b 34 3d b9 c5 e3 bd 88 89 94 3e 9a ed c4 bd
       0.044048157 -0.11121697 0.29011178 -0.096156314
0003e0 a3 72 04 bd b7 de c7 bd db 0a 00 be 68 25 62 bd
       -0.03233589 -0.09759276 -0.12504141 -0.055211455
0003f0 e2 67 bc bd 15 20 90 3d 88 f6 d2 3d c6 71 b4 3c
       -0.091995016 0.07037369 0.10300928 0.022026908

conv.4.0.bias f4 [30]
000000 c3 7b eb bc 02 78 39 bd 5e de ba ba d4 fb 2d 3c
       -0.028745538 -0.045280464 -0.0014256944 0.010619123
000010 74 cc 27 3d 00 b9 92 3d 8d ab 3e 3d de 41 56 3d
       0.040966466 0.07164192 0.046550322 0.05230891
000020 37 58 01 3c 19 35 ff bc 31 a7 0f bd 0a 03 2f bd
       0.007894567 -0.031153249 -0.035071556 -0.042727508
000030 47 1e 29 3b 94 40 0b 3d 5b 3c 2b bd fe 88 0c bd
       0.00258054 0.033997133 -0.041805606 -0.034310333
000040 74 f0 cb bc 10 16 77 3d 0f b4 07 3c 6c 00 6d bd
       -0.02489493 0.060323775 0.008282675 -0.05786173
000050 ec 82 c1 bc cd 93 2a 3c 6d 59 80 3c f0 3a 8f bd
       -0.023621999 0.010411215 0.015667642 -0.06993663
000060 ae 28 62 bd 06 f5 e5 bc 67 b2 6e bd c6 af 0c bd
       -0.055214576 -0.028070938 -0.058275606 -0.034347318
000070 7c eb a2 ba 64 18 0f 3c
       -0.0012429799 0.0087338425
