service/weights/weights_detail2operation.pt (torch_old, 31001 bytes, 10 tensors)

fc.0.0.weight f4 [30, 6]
000000 14 94 08 be f7 7f f3 3c 3f e5 11 be 85 1d 49 3e
       -0.13337737 0.029724104 -0.14247607 0.19640167
000010 36 4d 6d bc 32 48 81 3e 37 af 42 3e 7c ef a7 be
       -0.014483741 0.25250393 0.19012152 -0.327999
000020 3e cc b1 3e 19 5e d6 bd 46 e4 7c be 90 f0 cb 3d
       0.34726137 -0.104671665 -0.24696454 0.09957993
000030 57 9a 9c be ee e1 c5 3d 5a 54 6a 3e 3c c8 c5 3c
       -0.30586502 0.09662233 0.2288374 0.02414333
000040 26 96 bb be ba c2 a7 be c8 4f e0 3d 1a 80 48 be
       -0.36637992 -0.32765752 0.10952717 -0.19580117
000050 00 8f 40 bd 93 a6 5b be 33 df 8b bd d2 22 8e 3e
       -0.047011375 -0.21450262 -0.06829681 0.2776094
000060 55 db c2 3e 95 81 cb 3e 1e 8f 68 3e c3 25 77 3e
       0.38057962 0.397473 0.22710845 0.24135499
000070 9f a3 50 3e 50 34 e5 3d 0f f9 ae 3e 99 b3 c6 be
       0.20374916 0.111916184 0.34174392 -0.38808897
000080 ce cf b7 be a9 ee 2d be d2 ac ad be 82 2d bd 3e
       -0.3590073 -0.16985573 -0.33920914 0.36948782
000090 8d 7d 6f be 65 59 ab 3e 1e 25 b4 3e 30 d4 b8 3e
       -0.23387738 0.3346664 0.35184568 0.36099386
0000a0 43 50 c1 3e c2 50 ca 3b e4 1c ff 3d 02 ff b4 3e
       0.37756547 0.006174178 0.12456682 0.35350806
0000b0 ef 31 26 be 89 1f 1b be 82 d2 94 3d d1 e4 59 be
       -0.16229986 -0.15148748 0.07266714 -0.21278693
0000c0 6e 68 39 be ef c8 bd be 3a 09 aa 3e 55 eb ba 3e
       -0.18106243 -0.37067363 0.33210164 0.3650767
0000d0 bc d2 b6 bc f0 82 06 3e a0 8f ac be 2b b0 1f be
       -0.022317283 0.13135886 -0.33703327 -0.15594546
0000e0 eb 46 30 3e a5 1a 96 be 3f a9 c5 3d 54 2a 22 3e
       0.17214553 -0.29317203 0.09651422 0.1583646
0000f0 7a 62 c6 be a3 8d 91 be ad c8 12 be d4 f1 6f 3e
       -0.38747007 -0.28428373 -0.14334364 0.23432094
000100 2d ef 25 3e 5e 03 aa 3e 54 a7 77 be da 11 b1 be
       0.1620452 0.33205694 -0.24184924 -0.34583932
000110 47 53 24 be e4 d1 37 be 96 34 c7 3e 72 2a cd 3e
       -0.16047393 -0.1795116 0.38907307 0.40071446
000120 35 98 f1 3d 1d 34 0d 3d f9 f4 c4 be 33 19 cf 3e
       0.11796609 0.034473527 -0.3846815 0.40448913
000130 c6 b8 bc be e0 61 09 bd 4c 5a 9e be 9c 02 f7 bd
       -0.3685972 -0.033540606 -0.30928266 -0.120610446
000140 f3 26 64 bd 97 ac a0 be 31 f6 71 be 1a 72 12 be
       -0.055701207 -0.31381676 -0.23629071 -0.14301339
000150 12 23 94 3e 72 d0 ba 3c bd c0 67 be 27 61 14 be
       0.28933007 0.022804473 -0.22632118 -0.14490186
000160 b7 41 3d be d7 2f 4d bd 98 10 5f bc 11 da dc 39
       -0.184821 -0.05009445 -0.013614796 0.00042124142
000170 7e 4c 9f 3e dd c2 81 bd 97 2d 0b 3e 5c ac 98 3e
       0.31113046 -0.06335995 0.1359161 0.29819
000180 e2 30 f1 3d a0 ec ab 3e ce f3 c8 be 41 1c 1b 3e
       0.11776902 0.33578968 -0.39248508 0.15147497
000190 9e 67 b8 be e6 61 9b be 80 32 01 3e c6 6f be 3e
       -0.36016554 -0.30348128 0.1261692 0.3719465
0001a0 60 2e 84 3e 41 65 25 3e 84 6a d6 3d 23 48 cd bd
       0.2581663 0.16151907 0.10469535 -0.100235246
0001b0 f2 a6 e6 3d 73 1f 89 3e 77 c4 63 3e 91 d7 57 3e
       0.11262311 0.26781806 0.22242914 0.21078326
0001c0 7e 34 e1 bc 9f d8 f3 bc b3 8c 87 3e 0e 35 15 3e
       -0.02749085 -0.029766379 0.26474532 0.1457102
0001d0 0a fe 59 3d 52 b0 ce 3e 03 60 bb be 68 b8 60 3e
       0.053220786 0.40368897 -0.3659669 0.21945345
0001e0 01 17 a7 be 6e 9f b3 3e f5 63 aa be 88 38 55 be
       -0.32634738 0.35082573 -0.33279386 -0.20822346
0001f0 35 59 a2 be 9b 7b 88 be 57 20 1f be 1d 01 84 3e
       -0.31708685 -0.26656803 -0.1553968 0.257821
000200 1b 38 1d be 56 2d d3 3d d2 a7 88 be a0 90 4d 3e
       -0.15353434 0.103113815 -0.26690537 0.20074701
000210 da 89 d4 3b 15 af 60 bd 77 79 b1 3e 18 7d 84 be
       0.0064861597 -0.05485447 0.34662983 -0.2587669
000220 cb a7 a3 be 98 be 96 3e b1 8a c9 be 73 56 88 be
       -0.31963953 0.29442286 -0.39363626 -0.26628456
000230 54 c1 a7 be 70 0d c1 bb 09 58 73 be a8 e3 84 bd
       -0.32764685 -0.0058914945 -0.23764051 -0.064887345
000240 e0 68 09 bd 91 20 2c be 7e 80 9e bd 59 b9 9d be
       -0.033547282 -0.16809298 -0.07739352 -0.30805472
000250 c6 17 6f be ac 5f 17 be f3 b7 96 be a3 aa 55 3e
       -0.23348913 -0.1478259 -0.29437217 0.20865874
000260 c8 26 81 3d ef 8c a0 3e 1e 43 ba be 54 8d 16 be
       0.06306225 0.31357524 -0.3637933 -0.1470235
000270 e6 c9 ba be ce c9 39 3d 06 e3 4f 3d 8c 94 a0 bd
       -0.3648216 0.04535847 0.050753616 -0.07840833
000280 16 03 ef 3d 84 33 ac bd cb e0 c2 be f5 5d 00 3e
       0.116705105 -0.08408263 -0.38062128 0.12535842
000290 45 55 73 3e 97 a6 90 bd d5 13 9d be 84 e5 80 3e
       0.23762996 -0.070630245 -0.30679193 0.25175107
0002a0 72 9e ce 3d ca 86 05 be 25 51 19 bd cf 4f 84 be
       0.10088815 -0.13039699 -0.0374309 -0.2584214
0002b0 af a6 a0 bc a1 23 1a 3c 1b 23 90 3e 10 5d b3 be
       -0.01961073 0.009407909 0.28151783 -0.3503194
0002c0 e6 be a4 3e f1 45 9c 3e 51 39 f1 3d 5f ac 71 be
       0.32176894 0.3052211 0.1177851 -0.2360091

fc.0.0.bias f4 [30]
000000 10 73 0f be 50 5e bb 3e d5 47 76 3d a2 4f 1a bd
       -0.14008737 0.36595392 0.060127098 -0.0376736
000010 54 bf 9c bd 08 20 55 be 67 76 2f 3e f2 55 7a 3e
       -0.076536804 -0.20813 0.1713501 0.24446848
000020 b9 ff b1 3e e7 20 3a be ed a7 ad 3d e4 9b 95 3e
       0.34765413 -0.18176614 0.08479295 0.29220498
000030 48 b6 81 3e 03 48 cd 3d d7 f9 88 be 77 1c 34 be
       0.25334382 0.10023501 -0.26753113 -0.17588983
000040 6e 74 84 3e 54 29 c5 3e 8d ed bf be 2b 7f c2 be
       0.2587008 0.38508093 -0.37485924 -0.37987646
000050 d4 7b 29 be f2 3a 75 3d 7e 7c 10 be 94 8e d8 bd
       -0.16551143 0.059870668 -0.1410999 -0.105740696
000060 a6 76 95 bd d9 1b 96 be a7 04 79 bc d1 b3 9a 3e
       -0.07298021 -0.2931812 -0.015198863 0.30215314
000070 2a 09 ca bc 4e a7 c8 bd
       -0.024662573 -0.09797536

fc.1.0.weight f4 [30, 30]
000000 22 b4 37 3d 7b 76 97 3d ab 84 d3 3d c3 5d 30 be
       0.044849522 0.07395645 0.10328039 -0.17223267
000010 1a be 88 bd ab d2 18 be 88 44 a4 3d 6a 2d 85 bd
       -0.06676884 -0.14924113 0.08020884 -0.06502803
000020 21 0a 59 bd ca a6 0c 3e 28 58 c9 3d eb 01 3e 3e
       -0.052988175 0.137355 0.098312676 0.18555419
000030 b3 0f b7 3d 5c 27 25 3e bb 97 0b be 71 cd 0c 3e
       0.08938541 0.16128296 -0.136321 0.13750245
000040 05 60 fc 3d 52 8f 43 be bc 44 12 ba 7c f5 0c bd
       0.12323002 -0.19097641 -0.00055797 -0.0344138
000050 d8 48 05 be b4 fe 02 3e cc e8 08 be 05 5d 08 be
       -0.13016069 0.12792474 -0.13370055 -0.13316734
000060 fa 6a 37 3e 50 f7 f4 3c f4 8f 1f 3d fb e8 3f 3d
       0.17911902 0.029903084 0.038955644 0.046853047
000070 c8 36 dc 3d da a9 1b 3d 49 81 90 bd c3 f0 fd 3d
       0.10752636 0.03800378 -0.07055909 0.12399437
000080 62 1b 15 3e fd 80 15 be 6b 02 4c be 8b b1 1e 3e
       0.14561227 -0.14599986 -0.19922797 0.15497415
000090 bc 04 0f 3e a0 66 b7 bd b4 04 78 bb 7e 88 06 be
       0.1396665 -0.08955121 -0.00378446 -0.13138005
0000a0 d3 b9 26 3e ae 5b 2c 3e 45 39 57 3d 03 de 79 3d
       0.16281824 0.16831848 0.05254485 0.061002742
0000b0 79 f8 05 3e fe c6 09 be 11 22 dc bc 4b e1 3d be
       0.13083066 -0.13454816 -0.026871713 -0.18542974
0000c0 78 bc 2f be ed 39 84 bd a3 4d 38 3c 02 5d 4a bd
       -0.17161739 -0.06456361 0.011248979 -0.049405105
0000d0 ae 58 2b be e7 9d a7 bc ec 81 f9 bd 0f d6 c0 3d
       -0.16733047 -0.020461036 -0.12182984 0.094158284
0000e0 3e c3 11 3e c9 44 f3 bc c2 8b 0a 3e a7 69 38 bb
       0.14234635 -0.029695885 0.13529876 -0.0028139146
0000f0 e0 9b 08 be e4 78 35 3e fd e0 c3 3d 12 37 84 bd
       -0.13340712 0.17721897 0.095643975 -0.06455816
000100 54 14 7c 3d b9 ea ec 3d eb 44 f1 3d 5f f6 60 bc
       0.061542824 0.11568207 0.11780723 -0.013730614
000110 33 e2 d5 3d a4 be 29 be df 5d 39 3e 02 33 f7 3d
       0.10443535 -0.1657663 0.18102215 0.12070276
000120 c0 73 bc bd 05 82 90 bd 92 38 d2 3d 68 14 22 be
       -0.09201765 -0.07056049 0.10264696 -0.15828097
000130 4c 5d 67 3d 55 b8 0b be fe 7a 88 bd 21 09 2b be
       0.05648546 -0.13644536 -0.06664084 -0.16702701
000140 22 3f 2b 3e ed 0b b2 3d ae 96 8e 3d 2b d6 7c 3d
       0.16723302 0.08693681 0.069623336 0.061727684
000150 04 bd e7 3d ea cb 2a be 18 ae 14 3e d7 57 67 3d
       0.11315349 -0.1667935 0.14519536 0.056480255
000160 20 43 b7 3d 03 4c f7 3d c3 88 64 bd 65 0d 9e bd
       0.0894835 0.12075045 -0.05579449 -0.077173986
000170 73 db aa 3d 1f d4 70 3d b5 83 fd bd f9 33 0c 3c
       0.08342638 0.058796044 -0.12378637 0.008557313
000180 be 76 30 be 0c 40 f2 bd 2c a9 18 3e 8f 6e f2 3d
       -0.17232797 -0.11828622 0.14908284 0.11837494
000190 58 5a 34 3e dc 3e de bc 4d 1c 0c 3c 16 ff f1 bd
       0.17612588 -0.027129583 0.008551669 -0.11816232
0001a0 96 6a 19 bd b5 3a 4b 3c 4f d2 0e bd 7a 45 fe bd
       -0.037455164 0.012404134 -0.034868535 -0.12415595
0001b0 e8 b2 ac 3a b4 5a 2f 3d c8 ee a7 3d 7c fd 98 bd
       0.0013175877 0.04281111 0.08199841 -0.07470223
0001c0 73 4e 76 bd d1 69 f1 bd 23 34 1f 3e 3c 86 44 3c
       -0.06013341 -0.11787761 0.15547232 0.011994895
0001d0 1e ba e4 3d 58 1c ce 3c 0e ae 23 3e 49 16 1b be
       0.111683115 0.02516 0.15984365 -0.1514522
0001e0 bc 94 12 3e 75 08 20 3e c8 b5 2a be 15 be 2e 3e
       0.1431455 0.15628226 -0.16670907 0.17064698
0001f0 cc 7a 2b bd a6 51 22 be 0b 1f 9e bd 03 9e 95 3d
       -0.041865155 -0.15851459 -0.07720765 0.07305529
000200 db 5c 38 be 64 da 35 be 0e 6c 22 3e 0f 05 23 be
       -0.18004172 -0.1775909 0.15861532 -0.15919898
000210 e6 f1 26 3e 17 e1 21 be 27 f0 09 be 08 0b ae bd
       0.16303214 -0.15808521 -0.13470517 -0.08498198
000220 8e 48 9a 3d d5 c9 2d 3e 2b 3e 90 3d cd 48 8b bd
       0.0753337 0.16971524 0.070431076 -0.06800995
000230 04 a0 22 3d b4 a3 30 3d f4 14 94 3b c2 a9 f9 3d
       0.039703384 0.04312487 0.0045190994 0.12190582
000240 8b 97 2a 3e de 98 2a bd cc 43 b4 bc 8a 51 26 3e
       0.16659372 -0.04164969 -0.022004984 0.16242042
000250 16 95 a3 3d 69 5a 2e be a7 68 22 3d 43 aa 9d 3d
       0.0798742 -0.17026676 0.039650586 0.076984905
000260 4b 89 be 3c 6b ec e3 3d 98 bb 9d 3d 62 56 e9 bb
       0.023258826 0.111290775 0.07701796 -0.0071208933
000270 b2 8b c2 bd 7f 63 f7 3c 6b 6f 22 bd d4 f4 0e be
       -0.09499301 0.03019881 -0.039657038 -0.13960582
000280 a2 7e 06 3b 3a d5 31 bd 35 59 0f bc a7 50 25 be
       0.0020522256 -0.04341624 -0.008749296 -0.16144048
000290 84 0f d3 3c c2 f4 da bd 75 50 30 be 79 05 c9 bc
       0.025764234 -0.10691215 -0.17218192 -0.024538742
0002a0 4e 51 3e be 07 a0 2b bd 4f ee 45 3d c1 34 f0 bd
       -0.18585703 -0.04190066 0.048322972 -0.11728812
0002b0 c5 de 99 bc a1 3f c3 3d ee e4 0d 3d d0 7e 7d 3d
       -0.018782983 0.095336206 0.034642152 0.061888516
0002c0 f4 ef 22 be 33 a6 95 bc f2 05 7b 3d 02 63 2c 3e
       -0.15911847 -0.018267727 0.061284967 0.16834643
0002d0 a2 58 95 3d 46 be 00 be 36 08 0e 3e ae f7 5a bd
       0.07292296 -0.12572584 0.1387032 -0.053458862
0002e0 6e ab 2e be 2f 30 4a bd 18 3e 35 be 73 f1 dc 3d
       -0.17057583 -0.049362358 -0.17699468 0.1078824
0002f0 02 45 13 bc 56 10 cc 3d 9a a1 0b 3e 94 54 38 3e
       -0.008988621 0.09964053 0.13635865 0.18001014
000300 46 27 97 3d bc c7 85 bc 14 5a b9 bd b9 1e 91 3c
       0.07380538 -0.016330592 -0.09050384 0.017714845
000310 bb f3 e4 3d 95 8e 21 be ba 77 77 3b 58 d8 ff 3d
       0.111793004 -0.15777047 0.0037760572 0.12492436
000320 02 8d c7 3c 1e ee 73 3d e4 dc 32 bd ad 31 83 3c
       0.02435923 0.059553258 -0.04366769 0.016014898
000330 2b 2f ec 3d 38 22 2f be c1 2b d0 bc 38 d3 1d 3c
       0.11532434 -0.17102897 -0.025411488 0.009632878
000340 cc 29 26 bd 2c ec be 3c 80 7f ea 3c 18 50 f0 bd
       -0.040567204 0.023305975 0.02862525 -0.11734027
000350 49 49 d5 bd 26 6a 18 3e 11 54 75 3d 80 5f 3c 3e
       -0.10414369 0.14884242 0.059894625 0.18395805
000360 f2 8e 13 be 0b f2 94 bd 8f eb 9e bd 60 1a 96 3d
       -0.14409998 -0.072727285 -0.07759773 0.073292494
000370 8b 0b 71 bd 26 57 ff 3d 93 95 76 3d 5b 21 ac bd
       -0.0588489 0.12467794 0.06020124 -0.084047996
000380 4b a5 f2 bd c5 91 35 3e 22 94 65 3b 86 6b 33 be
       -0.118479334 0.17731388 0.003503092 -0.17521486
000390 23 78 8a bd df 45 13 be 8f eb de 3c d8 6e 2a 3e
       -0.067611955 -0.14382122 0.027211932 0.16643846
0003a0 fa 8b 8d bd 00 6f 54 3d 94 26 40 3c e0 31 be bd
       -0.06911464 0.05186367 0.011727948 -0.09286857
0003b0 b5 e3 a7 3d 84 f9 41 3d 9e 6c 10 3e b3 02 c6 3d
       0.081977285 0.047357097 0.14103934 0.096684836
0003c0 5e 13 21 3d d4 76 19 be 71 35 8d bd b8 00 64 bc
       0.03932511 -0.14986736 -0.06894959 -0.013916187
0003d0 bc 72 07 be 56 a8 15 bd e3 b3 50 3d 4a 9f 9b 3d
       -0.13227361 -0.03653749 0.050952803 0.07598741
0003e0 29 8f a9 bd 08 50 0c be 7b 57 90 bd 11 23 2e 3e
       -0.08279259 -0.13702404 -0.070479356 0.17005564
0003f0 d7 2b ee bd 45 4f b4 bd 19 1e b7 bd eb 4b 1f be
       -0.116294555 -0.08804182 -0.089412875 -0.15556304

fc.1.0.bias f4 [30]
000000 70 66 e9 3b b0 23 3a bd 3a d3 34 bd a5 93 a7 3d
       0.007122807 -0.04544419 -0.044146754 0.08182458
000010 5d df ef bd ff 0f 30 3e fa e4 17 3e 6f eb 33 3e
       -0.11712525 0.17193602 0.14833441 0.1757028
000020 ce 95 52 bd 1b 1c 30 3d 20 48 24 3d 22 5b f7 3d
       -0.051412396 0.042995553 0.040107846 0.12077929
000030 32 e4 41 bc 23 21 02 3e b3 b3 ae 3d 2c be 15 be
       -0.011834191 0.12707953 0.08530369 -0.14623326
000040 fd 0c c7 bd b1 53 2e bd bc 2b 01 3e a2 4a 06 3d
       -0.09719274 -0.042560283 0.1261434 0.03278602
000050 d6 21 9d bd 0a 03 05 3e 55 c5 5b bd d9 88 a2 3c
       -0.07672469 0.1298944 -0.053654987 0.019840645
000060 86 d1 09 3d 46 bb 2e be e3 e8 1f 3e 7b 61 93 3d
       0.033647083 -0.17063627 0.15616183 0.07196327
000070 8b 6c 5d bc e5 32 2e be
       -0.013514648 -0.17011602

fc.2.0.weight f4 [30, 30]
000000 08 be cd 3d 31 b1 03 3e bf 96 c6 3d 22 d6 a2 3d
       0.10046011 0.12860562 0.09696721 0.07950999
000010 44 e0 40 bd 5c e9 be bd d1 29 57 bd a4 75 3a 3e
       -0.047088876 -0.093218535 -0.052530114 0.18208939
000020 d3 ce f2 bb d3 1d 06 be 05 88 81 3d 91 70 20 bd
       -0.0074099093 -0.13097315 0.06324772 -0.03916985
000030 11 b3 29 3d 2f 23 06 be a3 65 c8 3d 29 6c 89 3d
       0.041430537 -0.13099359 0.09785011 0.06710083
000040 8a 7f 20 be 67 3c f9 3d 1c e7 9f 3c 65 b5 c5 bc
       -0.15673652 0.12169724 0.019519381 -0.024134347
000050 76 56 f2 39 db 87 95 3d 53 32 fb 3d 7e 0b 3f 3e
       0.00046222255 0.07301303 0.12265458 0.18656728
000060 84 20 cb bc 45 80 17 be 88 79 17 bc 7a cf 8a bd
       -0.024795778 -0.14795025 -0.009245284 -0.06777854
000070 f3 e1 71 bd 23 0d a9 3c b5 2c bf 3d 66 df f0 3d
       -0.059053373 0.020636147 0.09334699 0.1176136
000080 c5 a4 49 b9 4a 04 a1 3b 7b b4 67 bd 13 ff 00 be
       -0.00019230235 0.0049138414 -0.056568604 -0.12597303
000090 69 61 ce 3d c2 cd c2 bd 11 2a b9 3d 97 ae 28 3e
       0.10077173 -0.095119014 0.09041227 0.1647285
0000a0 6f 48 42 3c 74 f1 5c bd ba e2 2c bd 74 cc 41 be
       0.01185809 -0.053941205 -0.04220841 -0.18925649
0000b0 12 ba 0f 3e 63 9b 99 bd 14 a8 77 bd 33 9d 54 3c
       0.14035824 -0.07500341 -0.060463026 0.012976932
0000c0 77 04 83 3d 91 6b 8c 3d d8 97 03 bd 50 31 3f be
       0.06397336 0.06856454 -0.03212723 -0.18671155
0000d0 73 36 0e be c8 23 36 bd 2c 58 62 bd 64 7f 2d be
       -0.13887958 -0.044467717 -0.05525987 -0.16943127
0000e0 49 b4 2e be 09 a7 48 bd 34 6e 13 be 15 65 12 3e
       -0.17060961 -0.048987422 -0.14397508 0.14296372
0000f0 29 6e 61 3d bc f3 cb 3d 7d a1 09 bd 91 e8 90 3c
       0.055036698 0.09958598 -0.033601273 0.017689021
000100 32 28 82 bd 9c 12 5d bd 4d 17 4a bb 39 d9 13 3e
       -0.06355323 -0.053972825 -0.0030836642 0.14438333
000110 d7 d1 72 3d ee dc 28 bd 89 ea a2 3b 42 c1 8a 3d
       0.05928215 -0.04122632 0.0049718064 0.06775142
000120 90 e0 b2 3d be f3 6a 3d d0 1a e5 3d 74 51 b4 3d
       0.08734238 0.057361357 0.11186755 0.088045985
000130 8b 78 1f be 32 b5 a2 bd 2e 8e 8f 3d f8 ad 0f be
       -0.15573327 -0.079447165 0.070095405 -0.14031208
000140 92 6b 15 3d 74 ff a6 3d 66 ed 6e bc dd f4 a7 3d
       0.03647954 0.081541926 -0.014582967 0.08201001
000150 0f 3c 2b 3e c1 0f 52 3d 8f 6d 1f 3e 3e 5d f1 3d
       0.1672213 0.051284555 0.15569137 0.11785363
000160 0c bd 2d be 75 61 55 3d f1 db 7a 3d 59 63 e2 bd
       -0.16966647 0.052094895 0.06124491 -0.11054105
000170 02 4f 3c 3d e3 6e 1f bd 40 6f 04 3e f8 8e db 3c
       0.045973785 -0.03892411 0.12933064 0.026801571
000180 76 d1 77 bd 43 f0 94 bd 52 42 ce bd be 8a 5d bd
       -0.060502492 -0.07272389 -0.10071243 -0.054087393
000190 59 4b 26 3d 57 6b 2b bd 06 75 96 bd d4 66 32 3e
       0.0405992 -0.041850414 -0.07346539 0.17422038
0001a0 70 6f c3 3d 54 b2 d7 3c 7c ba 98 bd cf cf bf 3d
       0.095427394 0.02633015 -0.07457444 0.09365808
0001b0 9b e2 f0 3d 34 0a 08 be 89 6a 4a bd f3 bd 9e bd
       0.117619716 -0.13285142 -0.049418006 -0.07751074
0001c0 d5 1c 9b 3d 6a ba f4 bd c2 10 1f 3e ac b8 3f 3e
       0.07573859 -0.11949618 0.15533736 0.1872279
0001d0 ce 7e 18 be 75 00 50 bd 7e 8e 99 bd df 25 ca 3d
       -0.14892122 -0.050781686 -0.07497881 0.098705046
0001e0 a7 63 13 3e 17 a9 11 be 6c c1 58 3b 09 52 0b be
       0.14393483 -0.14224659 0.0033074273 -0.13605513
0001f0 f9 3c bf 3d d5 b6 04 bc b2 71 d2 bd a9 da 05 3d
       0.093378015 -0.008100231 -0.10275592 0.032679234
000200 02 76 27 be ab 14 7f bd b4 c6 42 3e 7e cd 8b 3d
       -0.1635361 -0.06227557 0.19021112 0.06826304
000210 07 13 1f be f3 ad bf bd 89 5d 05 be 8e 4c 98 3c
       -0.15534602 -0.0935935 -0.13023962 0.018591192
000220 97 54 d9 3d b5 a0 bb 3d 56 f1 a0 3d f8 64 72 bd
       0.10611837 0.09161512 0.07858531 -0.059178323
000230 4f 2d 11 be b7 b5 43 be 92 3a b4 bd 87 06 34 bd
       -0.1417744 -0.19112287 -0.08800234 -0.043951537
000240 12 c7 37 be 19 00 a4 3d ad 3d 03 3d 45 97 18 be
       -0.17947033 0.08007831 0.03204124 -0.14901455
000250 79 00 a7 3d ea 48 b6 bd 1f fd b9 3c 1f 1c 0f be
       0.08154387 -0.08900626 0.022703705 -0.13975571
000260 e5 8b bb bb e0 3b f8 bb 45 ba d2 bd 75 8f 7b bd
       -0.005723464 -0.007575497 -0.10289434 -0.06141611
000270 7a 5c cc bd c1 bb fc 3d 89 a9 87 3d e4 be 95 bd
       -0.09978576 0.12340499 0.06624133 -0.073118
000280 4f 79 94 bd 43 c9 36 3e 07 c1 ac 3d aa 8a 0f 3d
       -0.072497 0.17850213 0.084352545 0.03504435
000290 72 dd 27 bc 2b da 11 be be 78 0a be fc 0d 8f bd
       -0.010245668 -0.1424338 -0.13522622 -0.06985089
0002a0 9e af 73 3c 12 58 55 3c 90 17 b6 bd 48 a5 c8 3c
       0.014873413 0.013021486 -0.08891213 0.024492875
0002b0 0d bf 8f 3d e1 29 b4 3d 1f 55 08 3e df e9 c2 bd
       0.07018862 0.0879705 0.13313721 -0.095172636
0002c0 b9 95 19 3c 8b d9 dd 3c 90 01 b0 bd 71 72 9c 3d
       0.009374076 0.027081272 -0.08594048 0.076390155
0002d0 47 a6 8e bc a3 cc 02 bd 5f 32 20 3d bf 47 0c 3e
       -0.017413272 -0.031933438 0.039110538 0.13699244
0002e0 8d 86 de 3c 61 12 86 3d 6f 8e bc 3d cd 23 22 be
       0.027163768 0.06546474 0.092068546 -0.1583397
0002f0 e5 6d d2 bd d9 fb e8 bd 15 18 d0 bc 82 5b 5a bd
       -0.10274867 -0.11376161 -0.025402108 -0.053309925
000300 d8 3b 13 bd 53 66 05 be 88 65 53 3d 3e 04 cb bd
       -0.035945743 -0.13027315 0.0516105 -0.099129185
000310 4a f7 25 bd fd bf c3 bd 99 24 10 be 63 3b 83 3d
       -0.040519036 -0.09558103 -0.14076461 0.064078115
000320 a8 c4 86 bd 9f 6d 62 bd c8 36 8e 3d 14 d0 22 be
       -0.06580478 -0.055280324 0.069440424 -0.15899688
000330 36 9a 42 3d e6 b7 af bd fa 9b 80 bc 03 62 18 be
       0.04751035 -0.08579998 -0.015699375 -0.14881139
000340 02 45 9f bd 0c 0a 31 be 29 20 01 be d9 6e 20 be
       -0.07776834 -0.17288989 -0.12609924 -0.15667285
000350 74 2e ed 3d 6c 51 14 3d 82 8e 96 bc a1 93 0d bd
       0.11581126 0.036210462 -0.0183785 -0.034564618
000360 89 e3 63 bd fb 8e 41 be 19 65 81 3d 28 13 da bd
       -0.055636916 -0.18902199 0.06318111 -0.10648185
000370 c4 bf ce 3d 0b 20 f7 3d 7d 5b 53 3e 8c ed ed 3d
       0.1009517 0.120666586 0.20640369 0.11617574
000380 ef f5 fe 3d 35 32 23 be 94 b9 23 be 94 ff 3c 3e
       0.12449252 -0.15937121 -0.15988761 0.1845687
000390 d4 34 1b 3e c8 a4 91 bc b4 6d 01 3e 36 c1 1b be
       0.15156871 -0.01777877 0.12639505 -0.15210423
0003a0 af 23 eb bb a6 b9 05 3e 4b 5a d3 bd b1 4c e1 bd
       -0.0071758847 0.130591 -0.103199564 -0.11000956
0003b0 6c 94 fb 3c e7 e4 b5 bd 8e dc 95 3d 3a 43 03 be
       0.030710422 -0.0888155 0.07317458 -0.12818614
0003c0 a4 2d a9 3d d6 fa 17 bd 9a d5 04 3e 1e 7b 3e be
       0.082606584 -0.03710445 0.12972108 -0.18601653
0003d0 ab 61 8c 3c fb 0c 72 bd 2b 7d 84 3c 90 68 b2 bd
       0.017136415 -0.05909441 0.016172966 -0.0871135
0003e0 75 f5 87 3d 2c 4f 1a bd 49 ec cd bc 17 14 e6 bd
       0.06638614 -0.03767316 -0.025137084 -0.112343006
0003f0 4b 93 a8 3d 82 2a d4 3d b0 de 4d 3e fb f2 45 be
       0.08231219 0.1035967 0.2010448 -0.19330971

fc.2.0.bias f4 [30]
000000 f4 dc 03 3e 11 70 19 3d 08 d4 46 bd c7 1f 96 bc
       0.12877256 0.03746039 -0.048542053 -0.0183257
000010 09 72 56 3d 5a 00 0d be c8 f4 08 be 09 bb 27 3e
       0.052354846 -0.13769665 -0.13374627 0.16379942
000020 1e 75 09 3e 9d 2c 2d 3e 6e 9b 18 3e 0b 87 3a 3e
       0.13423583 0.1691155 0.14903042 0.18215577
000030 f6 77 1e be 10 97 3c be bb 10 92 bd 49 70 9f bd
       -0.15475449 -0.18417001 -0.07132097 -0.077850886
000040 77 38 97 bd 43 c1 26 be 76 d1 cf 3d a1 6c 0c 3e
       -0.07383817 -0.16284661 0.101473734 0.13713314
000050 28 60 16 bc 92 0c b8 3d 73 ce 35 bd 1e 6c f9 3d
       -0.009178199 0.089867726 -0.04438634 0.12178825
000060 b5 ec 61 bc 62 14 37 bd 2f 81 25 3c 09 82 f8 bd
       -0.0137893455 -0.044697173 0.010101601 -0.12134177
000070 49 85 83 bd bb c1 14 be
       -0.064219065 -0.14527027

fc.3.0.weight f4 [58, 30]
000000 d9 47 b9 3c cd 6e b0 3d 0e df ff bd 59 4d 15 3e
       0.022617267 0.086148836 -0.12493716 0.14580287
000010 51 a6 03 be cd 89 92 bd 48 18 06 3e bb 0d 31 be
       -0.12856413 -0.0715519 0.130952 -0.17290394
000020 7a aa 49 be 45 47 07 be b1 16 cb 3d 7b 8f 4b be
       -0.19693938 -0.13210781 0.099164374 -0.19878952
000030 8b 66 44 be 82 c5 4d 3e 18 92 c5 bd 49 1e f8 bd
       -0.19179742 0.20094875 -0.09647006 -0.121151514
000040 ef 65 67 3d c7 e2 08 3e bd f9 b1 bc ad 56 7e bc
       0.056493696 0.13367759 -0.02172553 -0.015523595
000050 d8 e4 0e be de d4 21 3e 69 8c 1c bc 03 fa 11 3e
       -0.13954484 0.15803859 -0.009554961 0.14255528
000060 3b c2 94 bd ff eb 03 be e5 da ce 3d 9c ea da bd
       -0.07263609 -0.12882994 0.101003446 -0.106892794
000070 e2 b0 49 be f8 7d 0b be e7 42 b3 3c 90 af 4e 3d
       -0.19696382 -0.13622272 0.021882487 0.0504604
000080 c6 09 c7 3d 9c 42 eb 3d b1 e8 b8 3d 4f 84 b1 bb
       0.09718661 0.11487314 0.09028757 -0.0054173837
000090 90 bb f0 3d 9c b2 20 3e 71 3f 0c 3c 87 0f 3c bd
       0.11754525 0.15693134 0.0085600475 -0.045913246
0000a0 be d2 ec 3d 32 eb 0b 3e ae bf 21 be 27 90 35 be
       0.115636334 0.13663939 -0.15795776 -0.17730771
0000b0 b0 17 fd 3b ec 98 0c 3e c0 97 45 3d 00 e0 e2 3d
       0.007723771 0.1373021 0.048240423 0.11077881
0000c0 d5 b3 a0 3d a7 9b 58 3d 23 be d1 bd 91 5d fb 3c
       0.078468 0.052882817 -0.10241344 0.030684264
0000d0 87 23 09 3d b3 20 9f bd 4b 9c 7a 3d 05 37 13 be
       0.033481147 -0.07769909 0.06118421 -0.14376457
0000e0 36 de 3e 3d 44 9f a9 bd c7 ab d3 bc 88 61 24 be
       0.046598636 -0.08282331 -0.025838746 -0.1605283
0000f0 c3 41 e4 bc a2 36 1c be c5 8d da bd 19 e6 4b 3d
       -0.027863389 -0.15255216 -0.10671572 0.049779985
000100 9c 2d 58 bd 66 84 9c 3d 18 66 34 be c2 39 ba 3d
       -0.05277787 0.076424405 -0.1761707 0.09093048
000110 c6 af b4 3d b8 13 45 bd f7 c3 1d be cc 4d 12 3e
       0.088225886 -0.04811451 -0.15406786 0.1428749
000120 e7 55 0f 3e 2b 3d 83 bc 75 3c b9 3d 00 5a 77 bc
       0.13997613 -0.016020378 0.090447344 -0.015097141
000130 48 44 e3 bd 93 27 5f 3d 71 48 b4 3d 6b 32 4d bd
       -0.11097008 0.0544811 0.088028796 -0.05009691
000140 a9 db 8a 3d 06 75 fe 3d 54 07 fa 3d 74 e8 26 be
       0.06780178 0.12424664 0.12208429 -0.16299611
000150 7e 2a 24 be c6 fb 79 bd 43 48 5c 3d 6a 1b 1b bd
       -0.16031834 -0.061031125 0.05377985 -0.03786794
000160 3f 62 9c bd 4d e5 1f 3e f6 27 d6 3d 02 d9 39 be
       -0.076359265 0.15614815 0.10456841 -0.18149188
000170 95 e4 d8 3d 78 52 bd 3d 72 ee 19 be 02 82 48 be
       0.105904736 0.09244245 -0.15032366 -0.19580844
000180 94 ad d9 3d 1e ba 02 3e 20 d8 0d be 15 7a 55 bc
       0.106288105 0.1276631 -0.13851976 -0.013029595
000190 b2 e6 38 3e a3 41 17 be a5 98 c7 bc 48 24 53 3b
       0.18056753 -0.14771132 -0.024364779 0.003221767
0001a0 b3 74 f9 bc 79 4d ce 3d 66 ca 16 3d 71 fc 34 bd
       -0.030451154 0.100733705 0.036814116 -0.04418606
0001b0 71 5b d6 bd 78 0b d0 bd 6d b6 15 be 74 a7 07 3b
       -0.1046666 -0.101584375 -0.14620371 0.0020699175
0001c0 6c 01 ab bd 11 be 0d be 62 04 e3 bd 23 ba 37 3e
       -0.083498806 -0.13842036 -0.1108482 0.179421
0001d0 04 9b 1b be 45 6f 1f be 72 b0 22 3e 18 d1 f9 bc
       -0.15195853 -0.1556979 0.15887621 -0.030495211
0001e0 24 71 bc bd 9a a6 0f be 6f 50 19 3e 57 e6 14 3e
       -0.09201267 -0.14028397 0.14972089 0.14540993
0001f0 49 39 00 3e 96 11 91 3d 08 81 fb bd 35 07 2d be
       0.12521853 0.070834324 -0.1228047 -0.1689728
000200 9c 9a 8e bd 9d cb 2c be 2d 69 78 3c 32 31 ef bd
       -0.06963083 -0.16874547 0.015161795 -0.11679305
000210 91 81 d0 bd a1 67 9c bd 11 d6 19 be 0f bd 85 3d
       -0.10180963 -0.07636953 -0.15023066 0.06530201
000220 8e d7 c1 bd 2f 3b eb 3d e7 75 ce bd 73 7e 28 be
       -0.09464942 0.11485898 -0.10081082 -0.16454487
000230 05 94 ce bd 16 5d 02 be 83 84 15 bd c9 17 39 be
       -0.10086826 -0.12730822 -0.036503326 -0.1807548
000240 02 8e 0d 3e 72 76 94 3c bb 79 b6 bc 18 ce 0f 3d
       0.13823703 0.018122885 -0.022274842 0.035108656
000250 7f b6 98 3c c3 9b 03 3c f8 2f a5 3c a5 3b 62 bc
       0.018641708 0.008032742 0.020164475 -0.013808166
000260 cd 0f 34 3e 39 7f 45 3d 2f 13 a1 3c 5d 64 b1 3d
       0.17584153 0.048217032 0.019662468 0.08661721
000270 14 52 56 bd a4 0f c9 3c 41 c7 2e 3e ac 39 0f 3e
       -0.05232437 0.02454359 0.17068197 0.13986844
000280 87 d2 1d 3d 4c 7a 8a bd cf f3 ff 3d ec 68 1b 3e
       0.038530853 -0.067616075 0.12497675 0.15176743
000290 12 df f9 3b ab 7b a8 bd 58 ba 06 be 84 1e ff 3d
       0.007625469 -0.08226713 -0.13157022 0.12456992
0002a0 b5 40 25 3e 08 f2 60 3d 83 d3 2a 3e 88 c3 2f be
       0.16137965 0.05491832 0.16682248 -0.17164433
0002b0 3b 98 1d bd d5 2e ac 3c 87 31 09 3e bf ac 26 3e
       -0.038475256 0.021018425 0.133978 0.16276835
0002c0 e9 69 2b bd 93 8c 51 3d d3 cb 97 bd e6 21 01 be
       -0.04184905 0.051159453 -0.07411923 -0.12610587
0002d0 ce 2b 86 3d 4b 88 c6 bd 9a 85 a6 3a a7 91 f5 bd
       0.06551324 -0.096939646 0.0012704611 -0.119906716
0002e0 69 02 8b bd 95 7e f4 bc 74 e3 33 be 01 1d b7 bd
       -0.06787569 -0.029845515 -0.17567235 -0.08941079
0002f0 1e be 3c 3d 8d 2f 1c 3d 1c 0c 14 ba d7 51 31 3e
       0.046079747 0.038131285 -0.00056475564 0.17316376
000300 42 8b 3b 3e 62 dd 3f bd 14 dc 8b bd 4f 8a 34 be
       0.18314841 -0.046841986 -0.06829086 -0.17630886
000310 b7 5b cb bd 9f 0c 0e 3d 04 66 b2 bc cc c8 0f be
       -0.099296026 0.034680005 -0.02177716 -0.14041442
000320 13 de 5e 3e d7 a7 f9 3d 65 b5 4c 3e b6 1d 86 bb
       0.21764402 0.12190216 0.19991072 -0.0040928973
000330 53 ef 3b 3e 33 31 52 bd 3d d3 aa bd 7f 14 33 bd
       0.18353014 -0.05131645 -0.08341072 -0.04372072
000340 b7 4f ba bd f2 7d f5 bd ca 16 b8 bc ac cd 3d 3d
       -0.09097236 -0.11986913 -0.022471804 0.046338722
000350 06 04 9e bd 15 37 0d be 49 d6 12 3d 8d 77 44 be
       -0.07715611 -0.13790543 0.03584889 -0.1918623
000360 14 d9 6a bd 90 04 f4 bd a1 00 57 bd 15 5a 18 be
       -0.057335928 -0.11914933 -0.052490834 -0.14878114
000370 b3 3a 11 be 06 49 05 be 2f 1c d2 bd 46 a0 20 3e
       -0.14182548 -0.13016137 -0.10259282 0.1568614
000380 61 15 da bd 87 1d a9 bd ef d3 13 3e 76 3e d4 bd
       -0.10648609 -0.08257585 0.14436315 -0.10363476
000390 f0 37 95 bd d9 7a b4 3b a7 03 60 be 45 f0 e8 3d
       -0.0728606 0.0055078086 -0.21876393 0.11373953
0003a0 79 f1 77 bd bb 23 fe 3d f6 21 01 3e 99 50 06 3d
       -0.06053302 0.12409159 0.12610611 0.032791708
0003b0 23 42 b7 3d a0 62 24 be d1 69 f7 bd 99 86 32 be
       0.089481615 -0.16053247 -0.1208073 -0.17434157
0003c0 76 2e fc 3d eb ba 2d bd d8 7b 35 be b2 72 8d bd
       0.12313549 -0.042414587 -0.17723024 -0.06906642
0003d0 8f 20 eb 3d 71 54 ed bd d9 77 ba bd f9 e9 f0 bd
       0.114808194 -0.115883715 -0.091048904 -0.11763377
0003e0 e3 b2 09 bb 9c 91 62 3d d3 0c 18 3e 9b 64 98 bd
       -0.0021011166 0.055314645 0.14848642 -0.07441064
0003f0 da e4 dd bc 53 e9 53 bb c8 0a 22 3e 61 de 1d bd
       -0.027086664 -0.0032335117 0.15824425 -0.038542155

fc.3.0.bias f4 [58]
000000 8a fb c9 bc 2b f8 29 3e 53 4e c3 3d 72 e4 36 3d
       -0.024656076 0.16598575 0.095364235 0.044651456
000010 2b 1e 32 3d 05 98 56 bc fe fb 68 bc 2e 0a fc 3c
       0.0434858 -0.013097768 -0.014220236 0.030766573
000020 83 c2 c1 bd e2 7a da 3d 66 14 bc 3d 24 99 1e 3e
       -0.09460928 0.10667969 0.09183578 0.15488106
000030 00 bd 51 3d 21 47 a7 bd 8c 41 01 3e 73 96 6f 3c
       0.051205635 -0.08167864 0.1262266 0.014623272
000040 84 3b 22 be b6 da c0 3d 84 95 0f 3e 3e f1 2d 3e
       -0.15843016 0.09416716 0.1402188 0.16986558
000050 17 61 43 3e 9b 2a 33 be c4 bb 17 3b f1 0b 0c 3e
       0.19080006 -0.17496721 0.0023152689 0.1367643
000060 36 19 9d bc d4 2a a5 3d 76 6c 26 3b d6 6e 15 be
       -0.01917706 0.080648094 0.0025394238 -0.14593062
000070 6f fc 8d 3d f4 49 15 3e 14 f3 13 be 43 0f 84 bd
       0.069329135 0.14578992 -0.14448196 -0.064482234
000080 a3 0d 1b 3e 74 5d e2 bc e3 d8 39 3e 7b 96 cb bb
       0.15141921 -0.027632453 0.18149142 -0.006213007
000090 dc f1 99 bd fc 87 26 3c 35 e3 17 be 7c ba 36 be
       -0.07516834 0.010164257 -0.14832766 -0.17844576
0000a0 37 82 08 bc 9e 65 f7 bc ee 16 e9 3d 5c 05 09 3e
       -0.008331827 -0.030199822 0.113813266 0.1338095
0000b0 34 18 e6 bd 39 4d 19 be a3 ec f1 3d dc ce 05 3e
       -0.11235085 -0.14970864 0.11812713 0.13067192
0000c0 d7 ec 26 be fb 98 44 3d 7d ba bc bd 26 f8 07 3e
       -0.16301285 0.047997456 -0.09215257 0.13278255
0000d0 03 d6 a8 bd 96 16 0d 3e 69 09 19 3c 7c df 4c 3c
       -0.082439445 0.13778147 0.009340622 0.012504455
0000e0 63 08 2d be 35 5a bb 3c
       -0.1689773 0.022870163

fc.4.weight f4 [58, 58]
000000 d4 65 0e 3d f2 c2 b2 bd f3 d6 ed bd 1d f9 19 3e
       0.03476508 -0.08728589 -0.11613264 0.15036435
000010 f6 8e 0f 3e c4 3f a7 bd 86 ef ba 3c 57 ea b7 bd
       0.14019379 -0.08166459 0.022819292 -0.08980244
000020 14 39 d7 bd a3 59 91 3d d3 5a 08 be 77 0c 21 3d
       -0.10508934 0.07097175 -0.13315897 0.039318528
000030 60 da 51 bb 27 80 9c bd 68 fd 27 bd 18 9d 32 bd
       -0.003202103 -0.076416306 -0.04101315 -0.043606848
000040 cb ec b9 3c df 6d a1 bd bb 11 d8 bd 4f a0 0b 3e
       0.02269592 -0.078822844 -0.10550257 0.13635372
000050 d6 5a ed bd ef 10 13 bd 9a aa 3b 3d aa a0 1b bd
       -0.11589591 -0.03590482 0.045816995 -0.037995018
000060 61 7e 97 bc 0d 40 90 3d 77 cd 07 3e d3 ef 93 3c
       -0.01849288 0.07043467 0.13261972 0.018058693
000070 a7 ee 8b bd 40 1e 79 ba 2b ab 8b 3d e8 ef df 3d
       -0.06832629 -0.0009503104 0.06819757 0.1093443
000080 7a be 8b 3d bf 42 ab 3c c6 12 14 3d cf 6a a0 bc
       0.0682344 0.02090585 0.036150716 -0.01958218
000090 b8 cb 5e 3d c5 a0 07 3d 5b 0b ae 3d 47 59 1b bd
       0.0543935 0.033112306 0.0849826 -0.03792694
0000a0 0d 54 96 bd b3 7e ed 3c 21 50 dc b7 0a 00 93 bd
       -0.0734025 0.028991079 -2.6263357e-05 -0.07177742
0000b0 cd ee b9 3d 56 25 eb bd 82 2a a3 3d 42 d9 d0 3d
       0.09078751 -0.11481731 0.07967092 0.10197689
0000c0 b8 98 cb 3d ba 92 a8 bd a5 7c 97 bd 50 17 73 3d
       0.09941238 -0.08231111 -0.07396821 0.059348404
0000d0 a3 e5 ac bc 46 e5 2d bd b1 8b a5 3c 92 a6 f2 3d
       -0.021105593 -0.04245498 0.020208212 0.11848177
0000e0 dd f4 27 3d 91 cb ab bc 6f d6 8e 3d ab 64 ee bd
       0.041005004 -0.020971091 0.06974494 -0.11640295
0000f0 f9 12 bb 3c ec d4 82 3c 0f ca 2d bd 46 72 ad 3d
       0.022836195 0.01597067 -0.042429026 0.084690616
000100 8d cd 5a 3c 8c ee 1a 3e 5a 0f c2 3c 4a 49 8d 3d
       0.013354671 0.15130061 0.02368896 0.068987444
000110 7c c8 4f bd 6f d1 ef bd 32 dc 9f bc d7 06 26 3d
       -0.050728306 -0.11709868 -0.019514177 0.040533867
000120 07 5f 9f bd 23 23 0f be 35 1c d8 3d 10 02 92 bd
       -0.07781797 -0.13978247 0.10552255 -0.071293
000130 d5 72 90 3c e6 ed 87 3d f9 29 45 bd 6f 37 0d 3d
       0.017632881 0.066371724 -0.04813573 0.034476694
000140 ff fc 1b bd 11 af ad bd db 62 32 3d 62 0f 0c 3c
       -0.038083073 -0.08480657 0.043551307 0.008548589
000150 ab 8a 32 3d d2 6a ff ba ad 37 93 3d c6 38 54 3d
       0.043589275 -0.0019486791 0.07188354 0.051811956
000160 63 cb f5 3b 11 28 ca bd 26 ff b1 3c 75 50 f1 3d
       0.007501052 -0.09870923 0.02172811 0.11782924
000170 36 d4 f0 3c dd 91 f7 bc 57 89 e0 bc ee 63 a2 b9
       0.029398065 -0.03022092 -0.027409239 -0.000309735
000180 56 4f 2c bd 06 c8 4d bd 75 26 37 3d 48 f8 06 3e
       -0.04206785 -0.050239585 0.04471441 0.1318065
000190 8a 6b 90 bd 00 f0 c7 bd a6 c3 8b 3d c8 c9 d4 bd
       -0.070517614 -0.09762573 0.06824426 -0.10390049
0001a0 03 73 04 be 0b 4d b9 3d 05 19 cf 3a 58 2a f8 3c
       -0.12934498 0.09047898 0.0015800303 0.030293629
0001b0 5c ca f4 3d a5 68 1b 3d d4 1a ee 3d 65 6a ac bd
       0.119526595 0.037941594 0.11626211 -0.08418731
0001c0 f1 ef b8 3b d5 be 51 3d 2a 50 3f bd 4a 09 e9 bc
       0.0056438376 0.051207382 -0.04670731 -0.028446812
0001d0 f0 34 88 bc 00 f3 81 3d 62 d7 84 bd c6 b0 4e bc
       -0.016626805 0.06345177 -0.064863935 -0.012615388
0001e0 dc fb 3c bc 46 e9 1f be e1 56 8f bd d3 11 b5 3d
       -0.011534657 -0.1561633 -0.06998993 0.0884129
0001f0 80 1c 06 3d fd d2 72 3d e4 79 10 be 42 b8 3f 3d
       0.032742023 0.059283245 -0.14108998 0.04680658
000200 06 4d e3 bd e6 f4 0b 3d 02 05 07 3e 64 e5 ba 3d
       -0.110986754 0.0341691 0.13185504 0.09125784
000210 5f fd 13 bd 97 c6 65 3c e3 6c 59 bd 4e 7a 23 3d
       -0.036130305 0.014024398 -0.053082358 0.03991156
000220 b6 9d fa bd 59 2a a0 3c 9a b3 b5 bd 7e 01 e0 bd
       -0.12237112 0.019551443 -0.08872147 -0.109377846
000230 2b f7 e7 bd 41 d7 da bd 20 78 0c 3b 18 f4 a3 3d
       -0.113264404 -0.10685588 0.0021433905 0.080055416
000240 7f 00 9d 3c d2 d4 e4 bd 35 df a2 bd 45 37 79 3d
       0.019165276 -0.11173405 -0.079527296 0.060843725
000250 de c3 03 be 61 2b fd 3c 2c 6c 1b bd 1a 50 ec bd
       -0.12867686 0.030904474 -0.037944958 -0.11538716
000260 4b c3 a8 3b 6a 8d a2 bd c7 e2 ad 3d 0b 92 91 3d
       0.005150234 -0.07937129 0.0849052 0.071079336
000270 39 dc c3 bc f6 32 25 bd 65 61 9f 3d 49 e8 99 bd
       -0.023908721 -0.040331803 0.077822484 -0.07515008
000280 11 ef 85 ba 72 80 60 bb 40 f8 16 bd 5d 95 f7 3d
       -0.0010218342 -0.0034256247 -0.036857843 0.12089036
000290 53 15 a7 3d 41 9d 1e bd 7f f2 0e bd 74 85 30 bd
       0.08158364 -0.038724188 -0.03489923 -0.04309602
0002a0 ac 7c 13 3e 29 9b 01 be 19 92 0e be 9d 57 ae 3c
       0.14403027 -0.12656845 -0.1392292 0.021282012
0002b0 d2 cf af bd 54 e9 2a bb 4b 60 e5 3d 51 4b 2e bd
       -0.085845605 -0.0026079016 0.11200007 -0.042552296
0002c0 9c 91 90 bd fa cc a4 3d bf 95 f2 bc 79 36 a4 3d
       -0.07059023 0.08046909 -0.02961242 0.08018202
0002d0 22 e6 83 3d fd 3a 8a 3d e6 44 e9 3d 45 1d fe bc
       0.06440379 0.06749532 0.113900945 -0.031019816
0002e0 e5 31 8d bd e1 8d 8e bc 6b 8d b6 bd 82 7d 9a bd
       -0.06894282 -0.017401638 -0.08913692 -0.0754347
0002f0 c7 19 0a 3e 1c b0 84 3c 94 17 c6 3d bd 04 cb bd
       0.13486396 0.016197257 0.09672466 -0.09913013
000300 6c f8 76 3c 94 00 13 bd 8b 6c 63 bd fa e9 06 be
       0.015073877 -0.035889223 -0.055523437 -0.13175192
000310 27 a1 cf bc 80 90 ab bd 35 81 e4 3d 1c 3a d4 bd
       -0.025345398 -0.083771706 0.11157457 -0.10362646
000320 8d 3a da 3d 84 b3 0b be 20 a7 83 3b af c4 e2 bd
       0.10655699 -0.13642699 0.0040177256 -0.11072671
000330 a9 8a 99 bd 5a 5f 18 3d 22 b2 aa bd 40 14 8b 3d
       -0.074971505 0.03720031 -0.083347574 0.06790972
000340 d8 3f ae bc 63 9c ef 3d d0 fe 81 bd f0 06 fe bd
       -0.021270677 0.1169975 -0.0634743 -0.12403667
000350 af bc 88 bc 06 4b 97 3d 99 18 a2 3c ea c0 00 3e
       -0.016691534 0.073873565 0.01978712 0.12573591
000360 bc 0e 8e bc 85 d8 bb 3d 3c 2a e3 3d 93 24 e4 bd
       -0.01734101 0.09172157 0.1109204 -0.111397885
000370 e4 13 3f 3d af 52 93 bd be 3b bb 3d 0f 12 02 3d
       0.04664983 -0.07193505 0.09142254 0.031755503
000380 88 1e 7f 3d 71 46 e2 bd 1c 54 8c bd da c2 3b 3d
       0.062284976 -0.11048592 -0.0685198 0.04584012
000390 ec aa ba bd f9 9d 35 3d 78 af 67 bd 30 13 9b 3d
       -0.09114632 0.044340108 -0.056563824 0.07572019
0003a0 25 c7 fa bb 9d 03 ea 3d 58 01 28 3d 0e c3 00 3d
       -0.0076531344 0.114264704 0.041016906 0.03143602
0003b0 ba 9e 00 bb 4a 28 ea bd 94 b0 9b bd 67 6c 8d 3d
       -0.0019625858 -0.11433466 -0.07602039 0.06905442
0003c0 80 49 6d bd 20 39 e5 3d 21 60 80 3c 3b 88 09 3d
       -0.057931423 0.11192536 0.015670838 0.033577185
0003d0 64 8e e4 3c 06 e1 8a bc cd 47 07 bd c9 29 70 3d
       0.027899928 -0.016953003 -0.03302746 0.0586336
0003e0 3b 26 d1 bc 3f ac 6f bc c3 ac 1c bd 10 3a 27 bd
       -0.025530925 -0.014628469 -0.038250696 -0.040826857
0003f0 9e 46 e4 3a 47 59 3d bd e2 05 83 bd b9 4e c4 3d
       0.0017416065 -0.04622772 -0.063976064 0.09585328

fc.4.bias f4 [58]
000000 64 0e fa bc 82 7d 88 bd d4 ab 8b bd 5c e0 3b bd
       -0.03052444 -0.06664564 -0.06819883 -0.045868263
000010 08 d2 2c 3d 90 41 00 be 79 4b 10 3e 87 58 98 bd
       0.04219249 -0.1252501 0.1409129 -0.0743876
000020 e7 8c 92 bd ce 9c 8a bd a1 72 9c 3d 31 83 07 3d
       -0.07155781 -0.06768189 0.07639051 0.0330841
000030 c2 8a 24 bd c4 cc cf 3b 7f b1 a4 3d 27 5f b5 bd
       -0.040171392 0.0063415486 0.08041667 -0.088560395
000040 c2 bd b1 bb ad 74 37 bd cc b4 bf 3c 2b f4 13 3c
       -0.005424232 -0.044789005 0.02340164 0.009030382
000050 a0 b4 01 bd 7c 16 da 3d 92 68 84 3d fd 38 a6 3d
       -0.031666398 0.1064882 0.06465258 0.081163384
000060 6e 8d da bd 40 ed a6 bd 64 82 b0 bd 5c de c3 bd
       -0.10671507 -0.081507206 -0.0861862 -0.09563896
000070 6f e5 c1 3d 4b 0c 69 3d 1d aa 17 3d 25 92 e4 3d
       0.09467589 0.05689649 0.037027467 0.11160687
000080 af c4 b6 3d 3a 93 41 3d c4 89 dc bd b8 b1 c5 3d
       0.08924233 0.047259547 -0.10768464 0.09653038
000090 43 62 eb 3c 5a d2 8e 3c 5e 04 00 3e 00 5e 62 3d
       0.028733378 0.017434288 0.12501666 0.055265427
0000a0 ee e0 a0 bc da 01 3b 3d f8 88 dd 3d 3b 04 f3 3d
       -0.019638505 0.045656063 0.1081714 0.11866041
0000b0 64 88 07 be 60 47 78 bd f8 13 53 bc e5 7b fd bb
       -0.13235623 -0.060614944 -0.012883179 -0.0077357166
0000c0 9f 0d 82 3d 05 fd a2 3d 59 ab d1 3b 0e 61 c1 3d
       0.06350254 0.07958416 0.0063986 0.0944234
0000d0 b1 78 dc bd 57 b5 a6 3c 28 60 be bd 61 05 d6 bd
       -0.107652076 0.020350141 -0.09295684 -0.10450245
0000e0 94 64 30 bd c8 7f c7 3c
       -0.04306467 0.024352923
